EWOthello/ckpts/battery_othello/state_tl32/layer2/checkpoint.ckpt (torch, 92819 bytes, 4 tensors)

proj.0.weight f4 [32, 512]
00000000: 5772 1abe 9d00 5a3e 2fd4 f63d ae1a 423e
00000010: 260a db3c 8551 b0be fb4b 1fbd 9eaa 373e
00000020: 3227 2cbf ae13 7abd 2451 a43c d1d9 f73c
00000030: e30a 293e 336d 84bd a426 6cbe 9220 7bbe
00000040: 83df 73be 2bf7 303d 8cb0 11bf b861 8d3e
00000050: 2a28 b43e 8024 0c3f c07a efbe c093 ed3e
00000060: d1bb 093d ca84 78bd 47db 1d3e 69eb 7e3e
00000070: 4293 cc3d aab2 ccbe 31e9 2d3e 8794 c53e
00000080: 2049 12be 255e 563f 3ba8 d63d 3cf5 fcbc
00000090: 1197 073f 79c6 9abe 4e12 39be aa53 3bbe
000000a0: 4729 08bc 1a67 27bf e6d7 363e 26f5 243e
000000b0: 0992 a13d 925a ba3e 4426 9cbd c29a edbe
000000c0: 8134 9abe 3a84 7e3d 38c2 bebd b18c 6abe
000000d0: f509 72bd b4c6 d73d 7faa 793d 4e12 f7bd
000000e0: 5c1c 0cbc 5482 f1be 966c 6fbe 1892 813d
000000f0: f118 693e 3860 9cbe 03cc a03e 672c 99bc
00000100: 90df c93e 52cf 713e 567d 6fbe 9ba4 52bd
00000110: e10b 20bf f273 2fbe 6535 013f db43 943e
00000120: fecd bebe 1a37 0fb8 6511 3c3e 196e e53a
00000130: f817 85bd 6d58 74be 10a6 f83e e820 2a3e
00000140: be45 19be f8a0 e1bd c890 9a3e 9cea a4be
00000150: f076 5f3e 0fb1 0e3f a94f ee3c 2333 f1be
00000160: 3614 c6bd 7a84 4e3d 5228 c5bd 0a43 41be
00000170: 7044 84be 204d 1a3e a2c5 d5be ea90 e43e
00000180: 3615 e33d 6586 0cbe f2a4 fe3e 793d 5fbe
00000190: 8608 403e 575c 813e 1bbd 9d3e 183d 63bd
000001a0: aee9 373e 5582 8cbe 989b a7be 9f2c 98be
000001b0: 4375 8fbe ae43 f33b c785 b23e 754c 9a3e
000001c0: da62 31be c69d 3fbf b33c 463b dbae 713e
000001d0: fae1 f9bc 7e3f f43d 4b5f 94be 46a4 89be
000001e0: 54bf a7be b18e 483e d85f 93bd b1f2 f3bd
000001f0: 3132 473d 52dd 10bf 76e1 b03d 6b64 923d
00000200: 5f91 c03d 6fae 94bb fea0 d7bc 381b eb3d
00000210: 290b 22bf 95fb 183e da6a 34be 1f9b cb3c
00000220: 6e86 1c3e 4810 b0bc 8284 9b3e 0ecd a33c
00000230: c607 30be 6982 e9be 691c 113e ff55 7e3e
00000240: ae3f bdbe bf85 443e 88b2 553d 8a54 acbe
00000250: f8b4 f83a 783a 9c3e 3eb7 61be cbcb 8dbe
00000260: d22e 0a3e f2ad c73e 1dd2 f1bd 7d48 ebbd
00000270: a98c f63d e143 af3e 66d9 d4be 5c3a cabd
00000280: 498f 80be bad1 a73e 455b d3bd 9168 553d
00000290: 5d1e 9b3c f8da 21be c2f0 acbe ed3d 983e
000002a0: c4d7 98bd 0bb3 373e 2515 09be 5087 93bd
000002b0: 2c59 bcbe d040 5cbe 3424 05bf f257 3ebe
000002c0: 783f 90be 4b00 05bf b62c 13be 0342 5d3e
000002d0: b52d 983e d1fa dfbd a8cd 0e3f 0040 963e
000002e0: cc0f 043e bac8 ebbe 0484 2e3c b12f 07bf
000002f0: 42a6 dc3d d1d2 6b3d a859 dbbe acf7 02be
00000300: ae8d 18bf 1749 8d3d c13d 53be 326b 103e
00000310: 8371 a33e 7697 223e 4514 4b3c 2789 a13e
00000320: 4c99 21be e31a 0c3e 786e 753d 3571 aabe
00000330: 3270 5dbd 96fd 5c3e 8c77 94be 683e a33e
00000340: 1102 c4bd fe49 863e 8a4e 283f d8bc 39be
00000350: 38c2 bf3d 1c14 b5bc ed56 1abf f03d d73d
00000360: e047 b63e b3f8 c93d dde6 d43c ed20 043f
00000370: a8ab 66be d133 5cbd 4cfd 123e 7688 d4bd
00000380: 9156 c6be dc48 ecbe 4a55 6fbe 5f1e 783e
00000390: e9af babc e5e3 49bf effd 013e 593f 1e3f
000003a0: 642b a3be 8466 82bd 4323 4abe 24f9 453e
000003b0: 3932 28be 1a75 b2be 895f e2be ab5f 323d
000003c0: ee6c 983e 069d ebbe 8b24 303e f9a8 0bbd
000003d0: d2e6 7b3e 9bfb 5cbd 964a 683c ac4a febc
000003e0: 9724 22bf a075 bb3d 1d20 ee3e 2c6e c7bd
000003f0: d152 afbe c596 07bd 0d30 81be ac61 d03d
-0.1508268 0.21289296 0.120521896 0.1895549 0.026738238 -0.34437194 -0.03889082 0.17936179
-0.6724731 -0.061053924 0.020058222 0.03025523 0.16508059 -0.064661406 -0.23061615 -0.24524143
-0.23815732 0.043204468 -0.56910014 0.27613616 0.35186893 0.54743195 -0.46773338 0.46401787
0.03362638 -0.060673513 0.15415679 0.2489449 0.09989025 -0.3998006 0.16983487 0.3858988
-0.14285707 0.83737403 0.10481306 -0.030878656 0.52964884 -0.30229548 -0.18073389 -0.18293634
-0.008310623 -0.65391695 0.17855796 0.16109142 0.07889182 0.36397225 -0.07624486 -0.46407133
-0.30118182 0.06213782 -0.09314388 -0.22905232 -0.059091527 0.105359465 0.060953613 -0.12064038
-0.008551683 -0.47169745 -0.23381266 0.06326693 0.2276342 -0.3054216 0.3140565 -0.01869793
0.39428377 0.23614243 -0.23387656 -0.05142651 -0.62518126 -0.17134073 0.504721 0.2895802
-0.37266535 -3.4145174e-05 0.1836601 0.0017504125 -0.06498712 -0.23861857 0.48564196 0.16614115
-0.14968011 -0.110170305 0.30188584 -0.32210243 0.21822715 0.5573892 0.02909072 -0.47109327
-0.09671824 0.05041931 -0.09626831 -0.1887323 -0.25833464 0.15068483 -0.41752344 0.4464181
0.1108803 -0.13723142 0.49735218 -0.21800794 0.18753251 0.25265762 0.3080834 -0.055478185
0.17960235 -0.27443185 -0.32735896 -0.29721543 -0.2801915 0.0074238395 0.3486769 0.30136457
-0.17322865 -0.7485012 0.0030248582 0.23601858 -0.030503262 0.11926173 -0.28978953 -0.26883143
-0.3276316 0.19585682 -0.07196015 -0.11911524 0.04863185 -0.5658771 0.08636753 0.071480595
0.09402727 -0.0045373957 -0.026321884 0.11479801 -0.6329828 0.14939721 -0.17618886 0.024854241
0.15285656 -0.021492139 0.30374533 0.019995239 -0.17190465 -0.45607308 0.14170994 0.24837492
-0.36962646 0.19191645 0.052172214 -0.33658248 0.0018974831 0.30513358 -0.22042558 -0.27694544
0.13494423 0.38999897 -0.11807654 -0.114884354 0.120385475 0.34231475 -0.41572112 -0.098744124
-0.25109318 0.32777196 -0.10320143 0.052101675 0.018935377 -0.15806186 -0.33777434 0.29734746
-0.07463029 0.17939393 -0.13386972 -0.07203543 -0.36786783 -0.21509099 -0.52008367 -0.18588236
-0.28173423 -0.5195357 -0.14372525 0.21607213 0.29722372 -0.10936511 0.55782557 0.29345703
0.12896651 -0.4605158 0.010651592 -0.52807146 0.10773899 0.057574097 -0.4284184 -0.12789792
-0.59591186 0.068987064 -0.20629026 0.14103392 0.3192254 0.1587809 0.012394969 0.3154995
-0.15781134 0.13682131 0.059919804 -0.33289495 -0.054062076 0.2158111 -0.28997457 0.3188355
-0.09570707 0.26228327 0.6574484 -0.18138444 0.09363216 -0.022104315 -0.6028889 0.105098605
0.3560171 0.09861889 0.02598899 0.5161274 -0.22526419 -0.053760353 0.14354438 -0.1037759
-0.3873792 -0.46149337 -0.23372379 0.24230336 -0.022788959 -0.78863364 0.12694524 0.6181541
-0.31869042 -0.063672096 -0.19740014 0.19333321 -0.16425408 -0.34854966 -0.44213513 0.043548267
0.29770607 -0.46018237 0.1720144 -0.03409669 0.2459977 -0.053950887 0.014177939 -0.031041466
-0.6333708 0.091532946 0.46508875 -0.097378105 -0.3424287 -0.03310277 -0.25231972 0.101748794

proj.0.bias f4 [32]
00000000: ca05 253f 1aad 733f 6c2c fc3e ac1e 193f
00000010: 835e 093f 1d1b 133f 6e9b 2e3f fd2e 5c3f
00000020: f778 f53e 3951 aa3e 3286 103f 72fe 023f
00000030: 3ab7 f83e 8d7e 113f 58f1 283f 5418 053f
00000040: 9ba8 083f 3eed 1f3f 032a 423e 65ee f83d
00000050: 555d 393f 1f4f 043f ca26 293f 6f27 0b3f
00000060: 2dea 2c3f ca62 ce3e 4d6c 183f fc40 103f
00000070: 4c57 c03e 0441 673f da0a 1c3f 1161 323f
0.6446196 0.9518601 0.4925264 0.59812427 0.5365984 0.57463247 0.68205917 0.860092
0.4794385 0.33265093 0.56454766 0.511695 0.4857729 0.56833726 0.6599326 0.51990247
0.5338227 0.6247138 0.18961339 0.12154845 0.7240804 0.5168323 0.6607481 0.54357046
0.67544824 0.40309745 0.59540254 0.5634916 0.37566602 0.9033358 0.6095406 0.6967936

proj.2.weight f4 [192, 32]
00000000: 1cc9 6dbc e208 d73d 38d4 1ebc d674 bd3d
00000010: 7157 713d c193 0bbe e2da e5bd 4d5e ecbd
00000020: 08b5 fb3d d1c8 94bd 1287 a9bd 5718 fc3d
00000030: 1701 0bbd 40ff e6bd c5ab ef3d 11da 28bd
00000040: f75e bebd 86cd 8e3e a859 533e fa36 7d3e
00000050: bab4 60be c9a5 70bd b390 6abe d86d 46be
00000060: 6b2f 233c fd94 593d 32aa 66bc db5f f5be
00000070: 1583 cbbe 736f ccbd 4cd5 bd3d 7801 36bd
00000080: c4f1 1d3e a8ed 38be d3b3 a2bd bfa3 30be
00000090: 102a 0abe 3200 993d 9025 8a3e b1f5 133e
000000a0: ace8 11be 39e1 563d e19c 783d 342c 9ebe
000000b0: ed5f 753c 54bd ba3d d54a b2be 96ba e33d
000000c0: 01da 1a3e a8e3 dfbe fbe4 9dbe 9e98 fbbe
000000d0: 30f0 193f de90 0c3e 9c3d b93e 7af9 3e3e
000000e0: 7eee 35bd ffc3 67bd ae12 713d 5429 253f
000000f0: 9b31 073f 1b11 813d f5ba e3bd 5ae3 9f3d
00000100: 6add 75bc add1 083e 6f4c bebc 3a61 c33d
00000110: 3434 863d bb36 03be 6f78 b5bd 5860 8bbd
00000120: f790 f93d 8aa5 63bd 13ec 40bd f8ab eb3d
00000130: 1f36 a8bc bf4a cebd 77f7 cc3d b4c2 37bd
00000140: 0af6 f8bd 6712 893e 3155 423e 2cac 7c3e
00000150: 07ce 63be 5509 dabd a32c 57be 0ee2 49be
00000160: 2a5e d2bc 90af 6c3d 8bfb 91bc 0515 fbbe
00000170: 9521 c3be 1623 a4bd dcfa ac3d 48d3 5fbd
00000180: 6497 5bbe a099 6fbd 9f10 a93e e175 603e
00000190: cb91 f5bd 8c4c 23bd 6d6a eabd 1a88 813e
000001a0: af51 5b3e 5bc1 a13d eb22 c9bd 22ab 703c
000001b0: 7793 09be e0f8 973d 61be 6fbe e264 5fbd
000001c0: 758b d53d 7024 1abd a1cd 043e 02df 2a3e
000001d0: c72c 1b3e 9686 2dbe 5cec 92be 6350 55bd
000001e0: b44c dcbe 9e61 6dbd 181e cc3a 4569 aabe
000001f0: b591 60be 259a debe ab09 c6bd 69ad debd
00000200: 1f69 7a3e a15f 1fbc 667d 28bf 6c07 eabe
00000210: c98d 893e 5fff d1bc 28f2 b8bc 6681 c7be
00000220: 7fd5 e9be 9fdc b6be 196c 093e ac0d adbd
00000230: 5dab 8c3e fd8d 1ebe 50b8 ba3e 307d 843d
00000240: 0266 53be 8b4b bf3d 6b44 44be e682 a7be
00000250: 7241 e3be 7590 683e db3b ef3e a9f3 1fbd
00000260: cfc5 423f 548b 67bd 3a1b 1ebe 9f6d df3e
00000270: 522d 9f3e fb81 3d3f df71 423e 94e6 233e
00000280: 7e25 5abe a6cd febc fc5a a43e 3b26 713e
00000290: 3084 dcbd 70d0 37bd 6aa5 e0bd ac7a 853e
000002a0: 8903 4c3e bb06 9d3d 68de b9bd 7b9a eb3c
000002b0: b386 03be 53e4 8c3d 6dc4 79be ecd8 71bd
000002c0: 8a47 ce3d 8fff 10bd 53cb 043e 6531 2d3e
000002d0: 342d 193e 9812 30be 1e2b 90be 2ba5 80bd
000002e0: 9658 e2be 7f66 4dbd b121 28bc a315 b2be
000002f0: 6da9 5dbe 54e9 e7be f83c d1bd fc29 e5bd
00000300: ede7 573e 7041 b2be f85e 53bc df10 2b3e
00000310: 92ce a8be 7e70 0f3e 58b0 83be 21ac 503e
00000320: 069d 793e df2e 883e 84f6 d9bd bc97 e2bb
00000330: dbd2 0abe cc6d 2a3e d3d6 f1bd 18cd 9a3d
00000340: acf9 7f3e ae5c 773d db7f e73d f349 143e
00000350: ecc6 a2bc 7818 0bbe 5c3c 5dbe 144f 0ebe
00000360: 6bea 0d3d 1a26 f2bd eba5 36be bcef 60be
00000370: 96ab debd 74e6 e33d 9990 a8be 81ea 68be
00000380: 3cdb 02bf cd86 353f e2a2 c23e ac88 30be
00000390: 55aa 273f 5167 83be c452 0d3f 0d8e e1be
000003a0: 85f0 d5be 2308 18bf c0f0 633e fe95 96bd
000003b0: b8e4 573e a5f5 f4be 10e8 973d 4835 c0be
000003c0: 983c 2bbf 6a58 89be 8d1d 5ebe 629a 79be
000003d0: 463b 103e 1639 503e 7ac4 9d3e a6e0 5c3e
000003e0: 62bf 753d ca82 c63c 673c 043f 5a2b 433e
000003f0: 4f5a 453d 8c18 a3be 2256 583f 9472 e13e
-0.01451328 0.10499741 -0.009694152 0.092508 0.05892128 -0.13630582 -0.11223389 -0.11541424
0.12290388 -0.07264865 -0.08277716 0.1230933 -0.033936586 -0.11279154 0.11702684 -0.04122359
-0.09295457 0.27891177 0.2063967 0.24728003 -0.21943942 -0.058751855 -0.22906761 -0.1937784
0.009960036 0.053120602 -0.014078664 -0.47924694 -0.39748445 -0.09982195 0.09269199 -0.044434994
0.15424258 -0.18059409 -0.07944455 -0.17249964 -0.13492608 0.074707404 0.26981783 0.14449193
-0.14248914 0.052460883 0.060696486 -0.308931 0.014976484 0.09118143 -0.34822717 0.11119573
0.15122224 -0.43728375 -0.3083876 -0.49139875 0.6013212 0.13727137 0.36179817 0.18649855
-0.044416897 -0.0565834 0.058855705 0.64516187 0.52810067 0.06302091 -0.111196436 0.07807036
-0.0150064025 0.13361235 -0.023229806 0.09540029 0.06552926 -0.12813847 -0.088608615 -0.068054855
0.12185853 -0.055577792 -0.047100138 0.1150741 -0.02053362 -0.100728504 0.10008138 -0.044863418
-0.12156303 0.26771852 0.1897781 0.24675053 -0.22246562 -0.10646311 -0.21013121 -0.1971514
-0.025679667 0.057784617 -0.01782014 -0.49039474 -0.3811156 -0.080145046 0.08446285 -0.054644853
-0.2144447 -0.058496118 0.33020493 0.21919967 -0.119906984 -0.039867923 -0.1144608 0.2529915
0.21417879 0.07898208 -0.09821113 0.014689239 -0.1343516 0.07420516 -0.23412468 -0.05453957
0.1042699 -0.037632406 0.12969066 0.16686633 0.151538 -0.16945872 -0.28695953 -0.052078616
-0.4302727 -0.057954423 0.0015572933 -0.3328344 -0.21930583 -0.43476978 -0.09669813 -0.10872919
0.24454163 -0.00972739 -0.6581634 -0.45708787 0.26865986 -0.025634466 -0.022576407 -0.3896591
-0.45670697 -0.35715196 0.13420142 -0.08449873 0.2747449 -0.15483852 0.36468744 0.0646919
-0.20644382 0.093405806 -0.19166724 -0.32717055 -0.44385868 0.22711356 0.46725354 -0.03905073
0.7608308 -0.056529358 -0.15440074 0.43638322 0.31089264 0.7402646 0.18988751 0.16005927
-0.21303365 -0.03110392 0.32100666 0.2354974 -0.107674 -0.044876516 -0.1096905 0.26070154
0.19923224 0.07667299 -0.09075624 0.028760185 -0.12844352 0.06879487 -0.24391337 -0.059044763
0.10072239 -0.03539997 0.12968187 0.16913374 0.1495865 -0.17194593 -0.28157896 -0.06281503
-0.4420821 -0.050146576 -0.010261939 -0.34782133 -0.21646662 -0.45295203 -0.10216707 -0.111896485
0.21084566 -0.3481555 -0.01290106 0.16705655 -0.329701 0.14007756 -0.25720477 0.20378162
0.24376306 0.2659826 -0.10642722 -0.006915061 -0.13556997 0.16643447 -0.118085526 0.0755865
0.24997586 0.06039112 0.11303683 0.14481334 -0.019870244 -0.13583553 -0.21605057 -0.13897353
0.034647387 -0.118236735 -0.1783673 -0.21966451 -0.10872571 0.1112794 -0.3292282 -0.22745706
-0.51115775 0.70908815 0.38014895 -0.17239636 0.6549428 -0.25664762 0.55204415 -0.4405369
-0.41785064 -0.59387416 0.22259808 -0.073528275 0.21083343 -0.47843662 0.07417309 -0.3754065
-0.66889334 -0.26825267 -0.2169096 -0.24375299 0.14085111 0.20334277 0.30813962 0.21570072
0.05999697 0.024232287 0.51654667 0.19059506 0.048181828 -0.31854665 0.8450643 0.4403273

proj.2.bias f4 [192]
00000000: 7855 523b 2bf3 8a3b 67ce cdbc 176d 0ab7
00000010: de57 6cbd 42f8 473d ee56 3abd 4210 0b3e
00000020: c137 d9bc 4cd2 c6bd c1b1 0f3e b4b9 b6bc
00000030: f433 9fbd 3c93 4e3e 80ac f5bc 063f 9bbb
00000040: 6b7d 55bd d061 f3bb 112c 87bd 9fe9 d63d
00000050: a3f2 33bd 3b21 6fbc c809 3bbd e7d8 913d
00000060: 874e 8fbc 2910 47bd 2b80 823d 78b8 f23d
00000070: c232 44be fa86 113e c13e 9a3d 2075 353d
00000080: 73d3 aebd 41b0 2e3e d740 ff3d 2a63 f2bd
00000090: 1032 dd3d 6367 0dbe b466 803c f81e 043d
000000a0: 085e 4cbe 4b74 0d3e 19d6 913d 33c8 19be
000000b0: 57d0 053e 129a d4bd 3012 bc3d eefe 103c
000000c0: b53d b3bd 5a07 d83e 332c 3dbe a90d 853c
000000d0: b542 d73d d4df 3abd 4f76 7bbd af07 0dbe
000000e0: 1aca 413e 8f5c d1bc f939 f43d a14e 733d
000000f0: 5634 703e 50a6 c4bd dc53 f8bd c109 ea3d
00000100: 2e60 abbd ffe7 7a3d 5fe5 b2bd 25b0 a13d
00000110: 21f1 bb3d 9f19 42be 9082 973e e6f0 bfbd
00000120: 60d3 7ebd c794 533d a6c8 0bbd 13b0 063e
00000130: ad01 4abc 25d8 34bd fb10 4dbc 9c79 8ebd
00000140: a6a7 f83d ce09 cd3d 8137 74bd e574 483c
00000150: c5db 273e cc6d 78bd cf08 2fbd fc4e 023e
00000160: 39ba 0ebc 7af7 87bc 5dff d3ba 81d8 40be
00000170: e604 b33d 3540 47bd 4b2b 273e d165 19bd
00000180: 7140 83bd c437 d03d d435 9dbc 4ed8 f13c
00000190: 3453 1fbe 4674 a43d 79b4 2f3e 6481 90bd
000001a0: d5e8 37bd 7f3f a03d a1cd 6fbd 9d28 163d
000001b0: 61cd c03d d569 6cbd f998 a13c 7061 f8bc
000001c0: 67ef 79bd 65af 103e 5a6b 073e d8e4 8dbe
000001d0: dab3 6a3d 07c0 07be ba3b 5e3e 81f9 25bd
000001e0: 9870 47bd ea82 743d fb82 49ba 507a febc
000001f0: 8de9 143e b2e1 1cbd eb14 bd3d 7b45 debd
00000200: 360a e83c 5b14 e43d 112c 003d 54b9 0abd
00000210: 99d4 0abe 37f1 173e 246f 173e be4d 9ebd
00000220: d4c0 04be 1486 6a3e f73a fd3d fa75 75bc
00000230: 58cf a6bd bce2 ccbd fdda 2e3e e8eb f4bc
00000240: dadb c8bd d036 0e3e 35f9 51bd 0565 f83d
00000250: 29fe 05be 2c12 883d 8d70 9bbc 0fc9 b0bd
00000260: e502 f23d 209e 643d c082 d0bd 51ae dd3d
00000270: 72a7 343e ce76 8dbe 5fc2 44bc ecfc 833d
00000280: ffe1 c93d 0b05 4abd f60e 7d3c 44bf bbbd
00000290: f937 c53d 210a 98bc ff9d 0d3d daed 23bc
000002a0: de84 a53c aec7 9dbd 9062 993d d93e edbd
000002b0: f0ff 393e 4861 babd 7a5b 06be cd53 063e
000002c0: c3ad f3bc b754 cdbd 71b2 a73d 4805 2c3c
000002d0: 38d5 18be 99a7 cc3e 1d92 ecbd 419c 88bd
000002e0: a764 343e 7b7a b4bd bfb2 24bd 30d4 c53b
000002f0: 0083 203c 84db cabc 1307 9cbd 2f40 e63d
0.00320944 0.0042404137 -0.025122834 -8.25084e-06 -0.057700984 0.04882074 -0.04549306 0.1358042
-0.026515843 -0.0970808 0.14032651 -0.022305347 -0.07773581 0.20173353 -0.029989481 -0.0047377376
-0.05212156 -0.0074274316 -0.06600202 0.104937784 -0.04393257 -0.014595325 -0.045663625 0.07121449
-0.0174935 -0.048599396 0.06372102 0.11851591 -0.19159988 0.14211646 0.075315006 0.044301152
-0.085364245 0.17059423 0.12463539 -0.1183532 0.10800564 -0.1380897 0.015673973 0.032256097
-0.19957745 0.13813893 0.07120914 -0.15017776 0.13067757 -0.10380949 0.091831565 0.0088498425
-0.08752004 0.4219311 -0.18473892 0.016241865 0.1051077 -0.045623615 -0.061392125 -0.13772462
0.18924752 -0.02555683 0.1192512 0.05940116 0.23457465 -0.09602034 -0.1212537 0.11427642
-0.08367954 0.061256405 -0.08735155 0.07894925 0.09176851 -0.18955086 0.295918 -0.093721196
-0.0622133 0.051655557 -0.0341269 0.13153104 -0.012329501 -0.044151444 -0.0125162555 -0.06956789
0.121413514 0.10011636 -0.059623245 0.012234901 0.16392429 -0.060651585 -0.04273301 0.12725443
-0.008711391 -0.016597498 -0.0016174127 -0.1883259 0.08741169 -0.048645217 0.16325109 -0.037450615
-0.064087756 0.101668864 -0.019190706 0.029522087 -0.15559083 0.0802999 0.17158689 -0.07055929
-0.04489978 0.07824611 -0.058545712 0.036659826 0.09414173 -0.057718117 0.019726263 -0.0303199
-0.061019327 0.14129408 0.13224545 -0.27713656 0.057300426 -0.13256846 0.21702471 -0.04052115
-0.048691362 0.059695162 -0.0007687059 -0.031064183 0.14542218 -0.038301177 0.092325054 -0.10853096
0.028325181 0.11136695 0.031292025 -0.03386815 -0.13557662 0.1483811 0.1478849 -0.07729672
-0.12964183 0.22902709 0.12364762 -0.014981741 -0.081450164 -0.10004184 0.17075725 -0.029897645
-0.09807558 0.13888097 -0.051263053 0.12128643 -0.13085236 0.06644091 -0.018974567 -0.08632099
0.11816958 0.055814862 -0.101811886 0.10824264 0.17642 -0.27629703 -0.012009232 0.064447254
0.098575585 -0.049321216 0.0154454615 -0.091673404 0.096298166 -0.018559517 0.034574505 -0.010005439
0.020204958 -0.077041015 0.074895024 -0.11584253 0.18164039 -0.09100586 -0.13120833 0.13117905
-0.029745942 -0.10025924 0.08188332 0.010499306 -0.14925086 0.39971617 -0.115513064 -0.06670428
0.17616521 -0.08812424 -0.040209528 0.0060372576 0.009796858 -0.024762876 -0.07618537 0.11242711
