EWOthello/ckpts/battery_othello/state_tl32_random/layer0/checkpoint.ckpt (torch, 92819 bytes, 4 tensors)

proj.0.weight f4 [32, 512]
0	0x3f30c288	0.6904683
1	0xbd2689a1	-0.040658597
2	0xbeb44e85	-0.35216156
3	0xbe858071	-0.26074556
4	0xbde34f1b	-0.110990725
5	0x3b2db043	0.0026502765
6	0xbe410976	-0.18851265
7	0xbc89a775	-0.016803483
8	0x3e2bacd3	0.16765146
9	0x3e92ef88	0.28698373
10	0x3e0a76b9	0.13521852
11	0xbed17128	-0.40906644
12	0x3d9ea127	0.07745581
13	0x3d87964f	0.06620466
14	0x3d687898	0.056755632
15	0x3e4e463a	0.20143977
16	0x3ea0dd1a	0.31418687
17	0xbdfdbde2	-0.12389733
18	0x3eb1dbe4	0.34738076
19	0x3c6d10fe	0.014469383
20	0x3e2813f0	0.16413856
21	0x3da95845	0.08268789
22	0xbe9616ed	-0.29314366
23	0x3ee19d9d	0.44065562
24	0xbf1a9689	-0.6038595
25	0x3ea97cfb	0.33103165
26	0x3e1be8d5	0.15225537
27	0x3ebd1f91	0.36938146
28	0x3e05caa0	0.13065577
29	0xbe96851c	-0.2939843
30	0x3dea35e0	0.11436057
31	0xbeda98ac	-0.42694604
32	0x3cf62625	0.030047486
33	0xbe1d5ae4	-0.15366703
34	0xbe000398	-0.12501371
35	0x3c44e210	0.012016788
36	0x3c930840	0.01794827
37	0x3da5e0c9	0.08099515
38	0xbe1bb57b	-0.15205948
39	0x3dbf78be	0.093492016
40	0x3d1c259b	0.0381218
41	0x3db3db93	0.08782115
42	0xbd2cc2bb	-0.042177897
43	0xbef7bdbe	-0.4838695
44	0xbe696c50	-0.22795224
45	0x3e3e1186	0.18561372
46	0x3d90c252	0.07068314
47	0xbe632dbe	-0.22185418
48	0xbe9474ff	-0.2899551
49	0xbdeaf68a	-0.11472805
50	0x3cf3cf03	0.029761797
51	0x3e4511c1	0.19245054
52	0x3e03b398	0.12861478
53	0xbddb98da	-0.107225135
54	0xbd059fea	-0.03262321
55	0x3d7cf5e1	0.061757926
56	0x3d43914e	0.047745995
57	0xbd955a65	-0.07292632
58	0xbe58178b	-0.21102731
59	0x3e4dd88a	0.20102134
60	0xbeb6f940	-0.35737038
61	0xbb2d7c1d	-0.0026471682
62	0xbea836a1	-0.3285418
63	0xbb3ec80a	-0.0029110932
64	0x3e40dcc3	0.18834214
65	0x3dc66544	0.09687284
66	0x3e9657cb	0.29363856
67	0xbdbc2a43	-0.09187748
68	0xbdc162a1	-0.0944264
69	0x3d26b331	0.040698234
70	0xbbc81da4	-0.006107049
71	0xbeda6045	-0.42651573
72	0x3d8377ac	0.0641931
73	0x3e12390c	0.14279574
74	0xbe9ad138	-0.30237746
75	0xbdbc2969	-0.09187586
76	0x3d5bfeb5	0.053709704
77	0xbed3acd8	-0.41342807
78	0xbe55134a	-0.2080814
79	0x3edf4309	0.4360583
80	0xbb5de2e5	-0.0033857164
81	0x3e650aa1	0.22367336
82	0xbe8679fe	-0.26264948
83	0x3c9711ac	0.018441044
84	0x3dc04f92	0.09390177
85	0xbe15204d	-0.14563103
86	0x3dca4f91	0.09878457
87	0x3eae31bd	0.34022322
88	0x3e0cfc8d	0.13768215
89	0xbba08c8a	-0.004899566
90	0x3b5dfb04	0.003387154
91	0xbe9ff8a2	-0.3124438
92	0x3e82607d	0.2546424
93	0xbca9048d	-0.020632053
94	0xbde73462	-0.11289288
95	0xbeab25eb	-0.33427367
96	0xbe894e38	-0.2681749
97	0x3e297dba	0.16551867
98	0xbd91ad40	-0.07113123
99	0x3e31c4d4	0.1736024
100	0xbd3af62f	-0.045644935
101	0xbe217ed6	-0.1577104
102	0x3e932282	0.28737265
103	0x3d99b21c	0.07504675
104	0xbe64ee7f	-0.22356604
105	0xbd042c15	-0.032268602
106	0x3d643b22	0.055720456
107	0xbe59e605	-0.21279152
108	0x3e8a2908	0.2698443
109	0x3dee974b	0.116499506
110	0x3e855126	0.26038474
111	0xbd1c89cd	-0.038217355
112	0xbe9643bb	-0.2934855
113	0xbe820deb	-0.25401244
114	0x3d85b34d	0.065283395
115	0xbdd5a86f	-0.10432517
116	0xbe876cab	-0.26450095
117	0xbd8569ce	-0.06514321
118	0xbcd02bbe	-0.025411483
119	0xbed7a9af	-0.42121646
120	0xbdd0ef71	-0.1020192
121	0xbe2ba843	-0.16763406
122	0x3e0f41de	0.1398997
123	0xbd8422a3	-0.06451919
124	0x3d8f34b2	0.06992473
125	0xbc91ab41	-0.017781856
126	0xbe8e9321	-0.27846625
127	0xbe87c56d	-0.2651781
128	0xbef07287	-0.46962377
129	0x3e3791b3	0.17926674
130	0x3e16e388	0.14735234
131	0x3da35c8b	0.079766355
132	0x3efd10d8	0.49426913
133	0xbd7983f4	-0.060916856
134	0x3d802ad8	0.06258172
135	0x3e79aa3e	0.24381348
136	0xbddd2906	-0.1079884
137	0x3e0d6950	0.13809705
138	0xbe71f0d8	-0.23627031
139	0x3d50e841	0.051002745
140	0xbf00dc16	-0.50335824
141	0xbe2778a3	-0.16354613
142	0x3dfbbdab	0.12292036
143	0x3cbe90e3	0.023262447
144	0x3e20f6f7	0.1571921
145	0x3dfaa5fd	0.12238691
146	0xbe70941e	-0.23494002
147	0xbe9bd2c6	-0.30434245
148	0x3f16b42c	0.5886867
149	0xbdae3b6f	-0.0850743
150	0x3cef91b6	0.029244285
151	0x3eb999e1	0.36250213
152	0x3e34e624	0.17665917
153	0x3e5b4b28	0.21415389
154	0xbe401b9a	-0.18760529
155	0x3e8a33c5	0.26992622
156	0x3ea25142	0.3170262
157	0xbea67dc6	-0.32517833
158	0x3e2ef025	0.17083795
159	0xbe84fd8e	-0.25974697
160	0xbe3b39f5	-0.18283828
161	0xbe3543dd	-0.17701669
162	0x3e52405f	0.20532368
163	0xbe33ff25	-0.17577799
164	0x3e74d1ed	0.23908205
165	0xbf025021	-0.50903517
166	0xbd169fc8	-0.036773473
167	0x3e7defc5	0.24798496
168	0xbe19bc0e	-0.15013143
169	0x3e7471cf	0.2387154
170	0xbebaf77a	-0.36516935
171	0xbd2e624f	-0.042574223
172	0x3e18332e	0.14863274
173	0xbe9f398b	-0.3109859
174	0xbdc33b2b	-0.0953277
175	0x3e1528f3	0.14566402
176	0x3def439c	0.11682817
177	0x3cf3a685	0.029742489
178	0xbe36a52b	-0.17836444
179	0xbec063b8	-0.3757608
180	0x3e243cb5	0.16038783
181	0xbdf06f0a	-0.11739929
182	0x3d5c006e	0.053711347
183	0x3e3fa0c6	0.18713674
184	0xbe7e5d43	-0.24840264
185	0x3d2793d3	0.04091246
186	0xbe51a92b	-0.20474689
187	0x3d4a521f	0.049394723
188	0x3e54f8ae	0.20797989
189	0xbedc6336	-0.43044442
190	0x3eaf38f0	0.34223127
191	0x3ea71e0a	0.32640105
192	0x3e363778	0.17794597
193	0xbe791036	-0.2432259
194	0x3ea4af31	0.3216491
195	0xbe8ca908	-0.2747271
196	0x3e50d7cc	0.2039482
197	0x3dc2129f	0.09476208
198	0x3e20bdb8	0.15697372
199	0xbdcb225f	-0.09918665
200	0xbe828dd5	-0.25498834
201	0xbded6a4b	-0.115925394
202	0xbdeffdba	-0.117183164
203	0xbd977a21	-0.07396341
204	0xbe71f225	-0.23627527
205	0x3ed0c17b	0.40772614
206	0xbe9e34d3	-0.30899677
207	0xbbc51349	-0.006014262
208	0x3e82163f	0.25407597
209	0x3e2519e3	0.16123156
210	0xbde9ae8b	-0.114102446
211	0x3dd5bdb6	0.10436575
212	0x3eaa29bf	0.33234975
213	0x3e57d72c	0.21078175
214	0x3ec3d4e6	0.38248366
215	0x3e5c8c22	0.21537831
216	0xbe782154	-0.24231464
217	0x3d289d10	0.04116541
218	0xbd9a2cf5	-0.07528106
219	0x3e5ed599	0.21761169
220	0x3d80be7c	0.06286332
221	0xbeeba384	-0.4602319
222	0xbe0c8cbe	-0.13725564
223	0xbe9dd9e6	-0.30830306
224	0xbe3f5ec6	-0.18688497
225	0x3d5542f5	0.05206581
226	0xbd999fc2	-0.075011745
227	0xbd9eb411	-0.07749189
228	0x3dfefc40	0.124504566
229	0x3e1d6ab6	0.15372738
230	0xbe92980f	-0.28631637
231	0xbddd4fab	-0.10806211
232	0x3df47108	0.119356215
233	0x3e68f527	0.22749768
234	0x3d697464	0.056995764
235	0xbe75e77e	-0.24014089
236	0xbe1d7721	-0.15377475
237	0xbd84b1f7	-0.064792566
238	0xbea114be	-0.31461138
239	0x3e80aecc	0.2513336
240	0x3c9221e7	0.017838432
241	0xbe1b3572	-0.15157107
242	0x3e162be4	0.1466518
243	0x3e2285ef	0.15871404
244	0x3e9b7b52	0.30367523
245	0xbe73c733	-0.23806457
246	0x3e51b1b8	0.2047795
247	0xbd620cdc	-0.055188045
248	0xbec467ac	-0.38360345
249	0xbde4461a	-0.11146183
250	0xbe4f51fd	-0.2024612
251	0xbaf7e6f7	-0.0018913437
252	0x3d284e53	0.04109032
253	0xbe087ce3	-0.1332889
254	0xbe39db58	-0.18150079
255	0x3d7f8f5f	0.06239259

proj.0.bias f4 [32]
0	0x3e3b6eac	0.18303937
1	0x3e800c50	0.25009394
2	0x3e0aabcc	0.13542098
3	0x3e6d99f2	0.23203257
4	0x3dfb922a	0.12283738
5	0x3e3e72fc	0.1859855
6	0x3ec4f940	0.38471413
7	0x3ecd54b7	0.40103695
8	0x3df4a83e	0.11946152
9	0x3e622e71	0.22088028
10	0x3e207338	0.15668952
11	0x3e86c7e3	0.26324376
12	0x3e28787d	0.16452213
13	0x3e032324	0.12806374
14	0x3e383f96	0.17993006
15	0x3e2b8188	0.16748631
16	0x3e424fae	0.18975708
17	0x3e83c0aa	0.2573293
18	0x3e0ca01c	0.13732952
19	0x3e34ef0a	0.17669311
20	0x3ec92b9e	0.3929109
21	0x3ebce7de	0.3689565
22	0x3ed0ee14	0.4080664
23	0x3e0db252	0.13837555
24	0x3e2ebae2	0.17063478
25	0x3e21c131	0.15796353
26	0x3e32ac44	0.17448527
27	0x3e20f966	0.15720138
28	0x3e44c9e0	0.19217634
29	0x3e3d3627	0.18477689
30	0x3e4e0c17	0.201218
31	0x3ea1e136	0.31617135

proj.2.weight f4 [192, 32]
0	0xbd20c645	-0.039251585
1	0xbe87af22	-0.26500803
2	0xbeb3a610	-0.35087633
3	0xbe0630d7	-0.13104568
4	0xbe640269	-0.22266544
5	0xbe9d8ab8	-0.30769897
6	0x3e1a7e8b	0.15087335
7	0xbd424361	-0.04742754
8	0xbe7d794a	-0.247533
9	0xbe75a2be	-0.23987862
10	0xbe963817	-0.29339668
11	0xbe155086	-0.14581499
12	0xbe22b4dd	-0.15889306
13	0xbdd60740	-0.104506016
14	0xbd74c38f	-0.05975681
15	0xbc484fd6	-0.012226066
16	0xbe9ca858	-0.30597186
17	0xbef9301e	-0.48669523
18	0xbe7fd30c	-0.24982852
19	0xbe7f6261	-0.24939872
20	0x3e8b906c	0.27258623
21	0x3d7bec8f	0.061504897
22	0xbec40a21	-0.38288978
23	0xbe3fc0ea	-0.18725935
24	0xbe8cd51b	-0.27506337
25	0xbe1f11d2	-0.15534142
26	0xbe9fef38	-0.31237197
27	0xbdeccebe	-0.115628704
28	0xbec0a096	-0.37622517
29	0xbe72169e	-0.2364144
30	0xbda64592	-0.08118738
31	0xbec64a12	-0.38728386
32	0x3da48c1a	0.08034535
33	0x3eaaa4db	0.333289
34	0x3ea5bcbb	0.32370552
35	0x3cb3dbd4	0.021955408
36	0x3e5ff2f6	0.21870026
37	0x3ea19042	0.31555372
38	0xbe752604	-0.23940283
39	0x3d6dabdb	0.058025222
40	0x3e59e601	0.21279146
41	0x3e74560f	0.23860954
42	0x3e9d4bd5	0.30721918
43	0x3dff94da	0.12479563
44	0x3e1ee22a	0.15515962
45	0x3e03d466	0.12873992
46	0x3da3e22f	0.080021255
47	0x3d4983c8	0.049197942
48	0x3e818072	0.25293308
49	0x3f001e4f	0.5004625
50	0x3e67eb0e	0.2264826
51	0x3e8646f7	0.26226017
52	0xbeb8fb32	-0.36129147
53	0xbe24cdad	-0.16094084
54	0x3f12226b	0.5708377
55	0x3e3f12e8	0.18659556
56	0x3e66cc65	0.22538908
57	0x3e3b07a1	0.18264629
58	0x3eaf7944	0.34272206
59	0x3e550e0f	0.20806144
60	0x3ef24dae	0.4732489
61	0x3e9f144a	0.31070167
62	0x3d168025	0.036743302
63	0x3edfa134	0.43677676
64	0xbdac7ab6	-0.08421843
65	0xbe9c40fd	-0.30518332
66	0xbe8b0ef3	-0.27159843
67	0xbd1d3762	-0.038382895
68	0xbe4c3db7	-0.19945417
69	0xbe94f075	-0.29089704
70	0x3e0c1ae3	0.13682131
71	0xbd0b35e5	-0.033986945
72	0xbe778f1f	-0.2417569
73	0xbe69dffd	-0.22839351
74	0xbe9c949b	-0.30582127
75	0xbdb2e118	-0.087343395
76	0xbd9c8408	-0.076423705
77	0xbe45eaf0	-0.19327903
78	0xbdd7c9f6	-0.10536568
79	0xbe020f33	-0.1270111
80	0xbe435772	-0.19076326
81	0xbef04b16	-0.46932286
82	0xbe601ecb	-0.21886747
83	0xbe7cfe05	-0.24706276
84	0x3e649445	0.22322185
85	0x3df4eb92	0.11958994
86	0xbec9e143	-0.39429674
87	0xbe4604ce	-0.1933777
88	0xbe5a4baa	-0.21317926
89	0xbe47cf21	-0.19512607
90	0xbe92cfe1	-0.28674224
91	0xbe8943ad	-0.26809445
92	0xbef62e73	-0.48082313
93	0xbea65369	-0.32485512
94	0xbcfafecd	-0.030639077
95	0xbedc80e5	-0.4306709
96	0xbd1de4d8	-0.03854832
97	0xbd99e1ba	-0.07513757
98	0xbec5c3c4	-0.3862592
99	0xbe47e5a3	-0.19521193
100	0xbec3437e	-0.3813743
101	0xbe8e6176	-0.27808732
102	0x3c5206b8	0.012818985
103	0x3d0b7d33	0.034054946
104	0xbea0a6fa	-0.31377393
105	0xbc7acbe1	-0.015307398
106	0xbdea4df2	-0.11440648
107	0xbe2ca0c0	-0.16858196
108	0xbe28ccb7	-0.16484343
109	0xbe91ce96	-0.28477925
110	0x3dc0fe0d	0.09423456
111	0xbda4fc3f	-0.080559246
112	0xbe6dbfeb	-0.23217742
113	0xbeb183f9	-0.34671
114	0xbeaac6d2	-0.33354813
115	0xbe9275a6	-0.28605384
116	0x3d67f383	0.056628715
117	0xbcf2f54f	-0.029657988
118	0xbda4a6f5	-0.08039657
119	0xbdf50539	-0.11963887
120	0xbe7afcca	-0.24510494
121	0xbe21eb1c	-0.15812343
122	0xbeed5361	-0.46352676
123	0xbe5c813d	-0.21533675
124	0x3ed835ad	0.4222845
125	0xbeb9c3cc	-0.36282194
126	0xbe00669e	-0.12539145
127	0xbe5ae6e2	-0.21377137
128	0x3db93f13	0.090452336
129	0x3da9acf9	0.08284945
130	0x3ecefcf2	0.40427357
131	0x3e2a1420	0.1660924
132	0x3ee74b3f	0.45174596
133	0x3ea1304a	0.31482154
134	0xbe051dbc	-0.12999624
135	0xbd860681	-0.06544209
136	0x3e9606de	0.29302114
137	0x3c649b99	0.013953113
138	0x3e259a0c	0.16172045
139	0x3e0bcb9d	0.13651891
140	0x3e392850	0.18081784
141	0x3ec25176	0.37952775
142	0xbe1d7765	-0.15377577
143	0x3df4d330	0.11954343
144	0x3e43ded3	0.1912797
145	0x3ec360c2	0.38159758
146	0x3ea0f19a	0.31434327
147	0x3e8199ef	0.25312755
148	0xbe0eb59d	-0.13936467
149	0xbbb8c6f5	-0.005638952
150	0x3e12398d	0.14279766
151	0x3e379528	0.17927992
152	0x3e4fe6ae	0.20302841
153	0x3e04d4e3	0.12971835
154	0x3edf7a69	0.4364808
155	0x3e6f6126	0.23376903
156	0xbf12b6be	-0.5731009
157	0x3ec6f445	0.38858238
158	0x3d8c5a0c	0.068531126
159	0x3e73b42c	0.23799199
160	0xbd3b78b6	-0.045769416
161	0xbd791f60	-0.060820937
162	0xbeab29ec	-0.3343042
163	0xbdf40f22	-0.11916949
164	0xbec4243a	-0.3830889
165	0xbe955dc6	-0.29173106
166	0x3cb22c49	0.021749632
167	0x3d105e5c	0.035246238
168	0xbe653038	-0.22381675
169	0xbc84e763	-0.016223615
170	0xbe11b5db	-0.14229529
171	0xbe3f623d	-0.18689819
172	0xbe125989	-0.14291967
173	0xbeb21170	-0.3477893
174	0x3dacce49	0.08437783
175	0xbe3311d4	-0.1748727
176	0xbe3f56fc	-0.18685526
177	0xbebcab73	-0.36849555
178	0xbea2ce5e	-0.3179807
179	0xbe969388	-0.29409432
180	0x3da499ca	0.080371454
181	0xbc89cc16	-0.016820949
182	0xbdc6acab	-0.097009026
183	0xbe430af9	-0.19047154
184	0xbe1e2cfd	-0.15446849
185	0xbe49cdb5	-0.19707377
186	0xbee39ba7	-0.4445469
187	0xbe67dc65	-0.22642668
188	0x3ed602c7	0.41798994
189	0xbebe1245	-0.37123314
190	0xbd9ee3a6	-0.07758264
191	0xbe6fb896	-0.23410258
192	0xbd906104	-0.07049754
193	0x3d060afd	0.032725323
194	0xbe908b79	-0.2823141
195	0xbda52b09	-0.08064849
196	0xbe8df613	-0.27726802
197	0xbe0d07e0	-0.13772535
198	0x3e388814	0.1802066
199	0x3c89e1e1	0.01683134
200	0xbead55be	-0.3385448
201	0xbe12c90e	-0.14334509
202	0xbe6eba7c	-0.23313326
203	0xbed2254a	-0.41044074
204	0xbedabada	-0.4272068
205	0xbd3cd513	-0.04610164
206	0x3d2c01b4	0.04199381
207	0x3e164042	0.1467295
208	0xbcd32f42	-0.02577937
209	0xbe22cf4d	-0.15899391
210	0xbe7a54b1	-0.2444637
211	0xbe7c5f21	-0.24645664
212	0x3d75ad4d	0.059979726
213	0x3e1614c6	0.14656362
214	0x3e7a54d4	0.24446422
215	0xbe24b1df	-0.16083477
216	0xbe75be41	-0.23998357
217	0xbe480342	-0.19532493
218	0xbedb3ad2	-0.42818314
219	0xbe8f40c0	-0.27979088
220	0x3d8e7c79	0.06957335
221	0x3cf9fd80	0.030516386
222	0x3e114289	0.14185537
223	0xbe48d082	-0.1961079
224	0x3d563a8b	0.052301925
225	0xbdb134e6	-0.08652668
226	0x3e9029a1	0.2815676
227	0x3c289314	0.010288972
228	0x3e8a4c7d	0.2701148
229	0x3e539a77	0.20664392
230	0xbe814847	-0.25250456
231	0xbb8b2ff0	-0.004247658
232	0x3ec265fc	0.37968433
233	0x3e091231	0.13385846
234	0x3ea8101e	0.32824796
235	0x3f0702a7	0.5273842
236	0x3f0eeaa5	0.5582679
237	0x3d206cf6	0.039166413
238	0xbd59becd	-0.053160477
239	0xbe50276b	-0.20327537
240	0xbd4bb992	-0.04973752
241	0x3e52aabe	0.20572945
242	0x3e6f56a2	0.23372892
243	0x3e7141ec	0.23560303
244	0x3d1b3729	0.0378944
245	0xbe902bb3	-0.2815834
246	0xbea7a579	-0.32743433
247	0x3e101594	0.14070731
248	0x3e7a3482	0.24434093
249	0x3e4e5679	0.20150174
250	0x3f03dc78	0.51508284
251	0x3eb50fea	0.35363704
252	0xbdc0239b	-0.09381791
253	0xbddd955e	-0.10819505
254	0xbe52454c	-0.20534247
255	0x3e7e61f3	0.24842052

proj.2.bias f4 [192]
0	0xbdcd8fe2	-0.10037209
1	0x3dd42faa	0.10360654
2	0xbdd4e104	-0.10394481
3	0xbd607cd7	-0.054806557
4	0x3d552d34	0.052045062
5	0xbd61958d	-0.055074263
6	0x3b0b7c9d	0.0021283992
7	0xbc601ba3	-0.013678464
8	0x3bc19b79	0.0059084264
9	0x3c84e206	0.016221058
10	0xbc835d7b	-0.016035786
11	0x3b52c29a	0.0032159449
12	0xbb836397	-0.004009675
13	0xbaefde4c	-0.0018300503
14	0x3bff2b02	0.0077871094
15	0xbbbbb8c2	-0.005728812
16	0xbb062624	-0.002046951
17	0xba38816d	-0.0007038329
18	0xbd1cd390	-0.0382877
19	0x3cef16c2	0.029185656
20	0xbd0716fb	-0.0329809
21	0xbda3ba2c	-0.07994494
22	0x3da69076	0.081330225
23	0xbdab2ec1	-0.08358527
24	0xbd459444	-0.0482371
25	0x3d5612d2	0.052264042
26	0xbd7b1741	-0.061301474
27	0xbdf3742a	-0.11887391
28	0x3e0053b2	0.12531927
29	0xbdee80db	-0.11645671
30	0x3da72b36	0.08162539
31	0xbe01652a	-0.12636247
32	0x3ddf30ea	0.108980015
33	0x3e29a501	0.1656685
34	0xbe328401	-0.17433168
35	0x3e05f987	0.13083468
36	0x3deda63c	0.11603972
37	0xbde0d15a	-0.10977431
38	0x3de4afee	0.111663684
39	0x3d5c8e47	0.053846624
40	0xbd87eead	-0.06637321
41	0x3d733df5	0.05938526
42	0xbdda08ac	-0.10646185
43	0x3de3d7f4	0.11125174
44	0xbddaedb6	-0.10689871
45	0xbcdf841f	-0.02728468
46	0x3c20a1b5	0.009804179
47	0xbc402763	-0.0117281405
48	0x3c95d461	0.018289747
49	0xba4de5e5	-0.00078543863
50	0xbcc7e699	-0.02440195
51	0x3dd590fb	0.104280435
52	0xbdd4b01e	-0.10385154
53	0x3d84d61d	0.06486151
54	0x3e83ae26	0.25718802
55	0xbeb354a8	-0.35025525
56	0x3e6f493c	0.2336778
57	0x3e2f267a	0.17104521
58	0xbe6f4eba	-0.23369876
59	0x3e6417cf	0.22274707
60	0x3e57617e	0.21033284
61	0xbe686a72	-0.22696856
62	0x3e34164f	0.17586635
63	0x3e62d289	0.22150625
64	0xbe8b05e5	-0.27152935
65	0x3e4f25b2	0.20229223
66	0x3c6cf66d	0.014463049
67	0xbc755c77	-0.014975659
68	0x3cff8d50	0.031195313
69	0xbc983ee9	-0.018584685
70	0x3be334d7	0.0069337892
71	0xbae7e3d0	-0.0017691795
72	0x3cce3ae9	0.025174575
73	0xbc8b038d	-0.016969467
74	0xba05a979	-0.0005098801
75	0x3e3748ec	0.17898911
76	0xbe2182b4	-0.15772516
77	0x3dc1da6b	0.09465488
78	0x3e3945e5	0.18093069
79	0xbe61912e	-0.22028038
80	0x3e496966	0.19669113
81	0x3e6b45b1	0.22975804
82	0xbe8cd44d	-0.27505723
83	0x3e80391b	0.25043568
84	0x3e53f923	0.20700507
85	0xbe8ad5fe	-0.27116388
86	0x3e86cf04	0.26329815
87	0x3e3e914b	0.18610112
88	0xbe200479	-0.15626706
89	0x3e0aa93b	0.13541119
90	0x3dc1fda0	0.09472203
91	0xbdadf201	-0.08493424
92	0x3da2a9b1	0.07942522
93	0xbd07c82b	-0.03314988
94	0x3c973dad	0.018462026
95	0xbb4f6967	-0.0031648518
96	0x3cb92c1d	0.022604043
97	0xbc4dd5e4	-0.0125632025
98	0xbc43ce38	-0.011951022
99	0x3e220e6f	0.15825818
100	0xbe305026	-0.17218074
101	0x3e056368	0.13026202
102	0x3e6007c3	0.21877961
103	0xbe60d3d5	-0.21955808
104	0x3e1ed80b	0.15512101
105	0x3e25459a	0.16139832
106	0xbe8e32e1	-0.27773193
107	0x3e9fd480	0.31216812
108	0x3e659ffc	0.2242431
109	0xbe8c66a2	-0.27422053
110	0x3e8023f5	0.25027433
111	0x3e52e20a	0.2059404
112	0xbe679347	-0.22614776
113	0x3e4c0ed3	0.1992753
114	0x3de7d66c	0.113201946
115	0xbdcf6136	-0.101259634
116	0x3dc1a3d3	0.09455075
117	0xbd281ba1	-0.041041974
118	0x3d137ff1	0.036010686
119	0xbc6fc9a2	-0.014635475
120	0x3beb8e60	0.0071886033
121	0xbc1f21db	-0.009712662
122	0xbbcdd59c	-0.0062815677
123	0x3d8eb7e3	0.06968667
124	0xbd835d33	-0.06414261
125	0x3d3a04a7	0.045414593
126	0x3e1f4f83	0.15557675
127	0xbe3cb601	-0.18428804
128	0x3e53f5f0	0.20699286
129	0x3e5f8fd0	0.21832204
130	0xbe6c9d79	-0.23106946
131	0x3e2da55a	0.16957608
132	0x3e24f7e0	0.16110182
133	0xbe839e81	-0.25706866
134	0x3e8448db	0.25836834
135	0x3e7cb2cf	0.24677585
136	0xbeb5896f	-0.35456416
137	0x3e889987	0.26679632
138	0x3d573a97	0.05254611
139	0xbd62e731	-0.055396263
140	0x3d306d0c	0.043072745
141	0xbbb90445	-0.005646261
142	0xbc49a82a	-0.01230816
143	0x3c0bf3b7	0.008541993
144	0xbcd7d42b	-0.026346287
145	0x3cddcbfa	0.027074803
146	0xbd2e6151	-0.042573277
147	0xbde86179	-0.113467164
148	0x3df4c6eb	0.11952003
149	0xbdedcb56	-0.11611049
150	0x3d620dec	0.05518906
151	0xbda58571	-0.080820926
152	0x3d87af5a	0.066252425
153	0x3df5eef8	0.1200847
154	0xbe1fb311	-0.15595652
155	0x3e13d6bf	0.14437388
156	0x3e444d1e	0.19170043
157	0xbe6d62e8	-0.23182261
158	0x3e1c9cc3	0.15294175
159	0x3d262e30	0.04057139
160	0xbd5785f1	-0.05261797
161	0x3d536b5c	0.051616058
162	0xbdfbc61e	-0.12293647
163	0x3df25dd8	0.118343055
164	0xbdd548c9	-0.10414273
165	0xbd9a166f	-0.0752381
166	0x3d905855	0.07048098
167	0xbd84e660	-0.06489253
168	0xbdad26ee	-0.08454691
169	0x3dac7222	0.084202066
170	0xbdb13835	-0.08653299
171	0xbdb5f223	-0.088840745
172	0x3dc7a8be	0.09748982
173	0xbdc6f894	-0.09715381
174	0x3700873c	7.660881e-06
175	0xbbe22bd2	-0.0069021964
176	0xbb42d867	-0.0029731037
177	0xbc7e148f	-0.015507831
178	0x3c242a06	0.010019785
179	0xbb63370d	-0.0034670264
180	0x3b91eb54	0.004453102
181	0xbca54049	-0.020172255
182	0x3c870fdf	0.01648706
183	0x3bcb96be	0.006213038
184	0xbcc26382	-0.02372909
185	0x3c2c432b	0.010514061
186	0xbd869a88	-0.06572443
187	0x3d85abb0	0.065268874
188	0xbd87b9ac	-0.06627211
189	0xbdc391f5	-0.095493235
190	0x3dc88bc6	0.09792285
191	0xbdcbe66a	-0.09956057
