EWOthello/KLiScripts/KLi_Paper_Checkpoints/state_tl64_championship/layer5/checkpoint.ckpt (torch, 183059 bytes, 4 tensors)

proj.0.weight f4 [64, 512]
00000000: 2b3f ba3d e33d 6ebb c072 ff3d 630a 663e
00000010: 255b c33e efbc 09be 4509 973d f33c 86be
00000020: 163b 69be c0e6 b5bd cecf 283e e33d 7abe
00000030: e88a 14be de6b c1bd 88eb 043e 0817 d93d
00000040: a01e ae3d 1aed 023d ed34 6fbe 31f6 1a3e
00000050: 4b09 c73d 1ae6 2cbe 42a1 833c c56c 223e
00000060: 856e df3d 43c7 6b3c 7d0c 8e3c 25ee 61be
00000070: ebcb 193d 5895 8e3d 3b88 573d 7373 1b3e
00000080: cfa0 86be cce6 7b3e 92e4 d4bd cc05 45be
00000090: 5692 12be d5e7 4d3d c140 33be d60f 01be
000000a0: 2344 4c3e 5b00 47be 1855 a6ba 8c02 62be
000000b0: 55a8 38be 4490 2dbc f1fe 4a3e 9cb1 38be
000000c0: 8fe0 1a3e 772b a93e eb20 40be 5762 103d
000000d0: 15c5 8e3c 5518 893d b2ef 6dbe 9f18 183d
000000e0: 6fbb 653c 68a2 b2bc 5803 123b 5eb5 e13b
000000f0: 4b47 023e ed2e dabd 4ab4 86bd 9c76 35be
00000100: 7538 d93a 629f 953d e3de 48be 52b8 56bd
00000110: 3e8e 7c3d 23e6 33be de0d 69bd e27e 6fbe
00000120: 9b2c 953e 4615 a33c f5a0 d93d 34d9 63be
00000130: 1b7a 6fbc 67f8 453e c8f0 a6bd da7e 773e
00000140: 1c79 80bd 6831 5e3d 0b79 bfbd 40cc 543d
00000150: cddb 9ebd 3b5b bc3d f600 dc3d 15db e4bd
00000160: ee04 65be f445 ebbd 234d 80bd 8c30 47be
00000170: d703 27be d24f 33be 40db 3fbe fa1c 4e3e
00000180: 5166 d03c 6a27 673e ce2e 313e 1a4a 4abd
00000190: 8fa6 133e f2e9 323e 680e 863c da41 38be
000001a0: cc09 65be d7ed 10be dc89 3dbe 014d ff3d
000001b0: 9ab0 1abd b4b5 5c3d 8834 f2bd b4fa aabd
000001c0: de7b 873d 8a3b 383e 23fa c43d c268 9fbd
000001d0: 1dea 8f3d ee6e 1cbe 942e 49bd bcba 68be
000001e0: 1861 06be d135 fe3d 9e69 8cb8 8de4 e9bc
000001f0: 4322 51be 85d9 a13d ca29 3e3d 8949 34bc
00000200: dba3 d63d 9e8d 503e bf1e 5ebd a169 b33c
00000210: 075b 703d 9b95 a03b 17f5 7e3e b385 333e
00000220: cb3d 213e 6f3b b1bb f3ac a73d 5a56 fc3d
00000230: d3b8 43bd 9c3d 703e f578 85bd 2e1e a9bd
00000240: 6d5c fb3d eb8d f83c 81dc 75be 8bd5 a8bd
00000250: a193 fe3d 2d68 0c3e f332 92be 9818 793c
00000260: 0043 90bc e556 82be 7dcc 2b3d 4c5e 603d
00000270: d5a2 1dbd 3225 6e3b 8d47 153e 4eb2 3f3a
00000280: 63c4 07bd f48e 1cbc 5301 a0be 5851 d3bd
00000290: 2cce 383e 9271 88bc 1faf 28be 18f2 833e
000002a0: e7e5 ed3d 9c8c 68be a839 413e f101 bf3e
000002b0: 8e33 a1bd 9fb4 ccbd 0f97 303e a340 cb3d
000002c0: 784b a83d 6c74 c03d 7c0c 433e 9571 91be
000002d0: 062f f1bc 8809 febc ea5e 963d 31bd 803d
000002e0: 7102 b53d 34a5 2dbe 25b4 96bd f842 513d
000002f0: 5320 e13d db90 f5bd 589a 33be 5128 f4bd
00000300: 5009 023e 73aa 64be e0f4 17be f0b9 563e
00000310: 079b 01bd af20 083e 1917 50be 106a 573e
00000320: f5fd 103e 8fc7 ac3d f3cb ccbe ceb7 83bd
00000330: f83d 093d 9903 afb9 1b1b 1d3d 4c8d 413e
00000340: d22d c1bd 9b2e 113e d351 803e 0f03 78be
00000350: 8334 5bbe c123 a7bd 7ca5 19bd b16c b7bd
00000360: 3c15 e2bd afda dbba 3edc c53b 653f 29be
00000370: 251d 2bbe 67cb acbc 2c17 d4bd ec6e 053e
00000380: a04c efbe 1402 d7bd c012 65be 2b64 62bd
00000390: a481 7fbd 7e6b c33c d0cd ed3d 0569 913e
000003a0: 45be 73bd f6ea b0bd 9d31 673e a270 18be
000003b0: c46d 9a3c 14c1 43be d862 0fbc 33c1 143e
000003c0: 843e b43d 7494 2dbe b2e6 47be 3bfb ea3d
000003d0: a5f8 09be a283 fc3d de3f 2bbe 5ab1 f43c
000003e0: d7b4 95bd 0983 783e dd8c 1a3e c9ce d0bc
000003f0: 248b 17bc a8e0 18bd 595f b5bd 6cd6 403e
0.090940796 -0.0036352805 0.12473059 0.224649 0.38155475 -0.13450979 0.07374815 -0.26218376
-0.22776446 -0.08881903 0.16485521 -0.2443767 -0.14506114 -0.09444402 0.12980473 0.10600096
0.08501935 0.0319644 -0.23360033 0.15132977 0.09718569 -0.16884652 0.016068105 0.15861805
0.10909752 0.014390769 0.01733994 -0.22063501 0.037547987 0.06962079 0.052620154 0.15180759
-0.26294562 0.24599761 -0.10395159 -0.19240493 -0.14313635 0.05026992 -0.1750517 -0.12603697
0.19947867 -0.1943373 -0.0012690155 -0.22071284 -0.18032964 -0.010593478 0.19823815 -0.18036503
0.15124725 0.33040974 -0.18762557 0.035250034 0.01742796 0.06694094 -0.23235968 0.037132856
0.014021738 -0.021805957 0.0022279825 0.0068880757 0.12722509 -0.10653482 -0.06577356 -0.17721027
0.0016572612 0.073057905 -0.19616275 -0.052421875 0.06165909 -0.17568259 -0.05689799 -0.23388246
0.29135594 0.019907605 0.10626403 -0.22250825 -0.014616515 0.19333039 -0.08151394 0.24169484
-0.062731 0.054246336 -0.09349259 0.0519526 -0.077567674 0.09197088 0.10742371 -0.11174599
-0.22365162 -0.11487952 -0.06264713 -0.19452113 -0.16310059 -0.17510918 -0.18735981 0.20128241
0.025439413 0.22573629 0.17303011 -0.049387075 0.14419006 0.17472056 0.016364291 -0.1799387
-0.22367018 -0.14153229 -0.1850962 0.12465859 -0.037766077 0.053884223 -0.11826426 -0.08348599
0.06615423 0.17991462 0.09618022 -0.07783653 0.070270754 -0.15276691 -0.049116686 -0.22727484
-0.13122976 0.124126084 -6.695393e-05 -0.028551364 -0.20423226 0.07902817 0.046426572 -0.01100386
0.10480472 0.20366523 -0.05422854 0.021900954 0.05868056 0.004900647 0.24898182 0.17531471
0.15746228 -0.0054086964 0.08187284 0.12321158 -0.047783684 0.23461002 -0.06517211 -0.082577094
0.12273488 0.03034111 -0.24009897 -0.08243855 0.12430502 0.13711615 -0.28554496 0.0152036175
-0.017610073 -0.2545692 0.041943062 0.05477743 -0.038485367 0.0036338088 0.14578076 0.0007312641
-0.033146273 -0.009555567 -0.3125101 -0.103182495 0.18047398 -0.016655717 -0.16473053 0.2577064
0.11616116 -0.22709888 0.1886965 0.3730617 -0.078711614 -0.09995388 0.17245124 0.09924438
0.082175195 0.09397206 0.19047731 -0.2840697 -0.029441368 -0.031010404 0.07342322 0.062860854
0.08838356 -0.16957551 -0.073585786 0.051089257 0.109924935 -0.119905196 -0.17539346 -0.11921752
0.12698865 -0.22330646 -0.14839506 0.20969367 -0.031641986 0.13293718 -0.20321311 0.21036553
0.14159377 0.084365 -0.3999935 -0.06431542 0.033506364 -0.00033381282 0.038355928 0.18901557
-0.09432568 0.14177935 0.25062427 -0.24219917 -0.2140675 -0.081611164 -0.037511334 -0.08956278
-0.110392064 -0.0016773547 0.006038218 -0.1652809 -0.16710337 -0.021093084 -0.10355982 0.13030595
-0.46738148 -0.10498443 -0.22370434 -0.05527131 -0.062379494 0.023854967 0.11611521 0.28400436
-0.059507627 -0.08638565 0.2257752 -0.14886716 0.018851168 -0.19116622 -0.0087515935 0.14526825
0.088009864 -0.16951162 -0.19521597 0.114737 -0.13473757 0.123297945 -0.16723582 0.029869724
-0.07309883 0.24268736 0.15092798 -0.025489228 -0.009249482 -0.037323624 -0.08856077 0.18831795

proj.0.bias f4 [64]
00000000: f045 173f 96df 3e3f dac5 3b3f fb08 c3be
00000010: 9703 2a3f 228a 323f 599a ef3e e2c6 013f
00000020: 114a 5d3f 117e 8e3e 028b 2b3f 91cb 39bd
00000030: b1e6 593f f808 cf3e ad4d 5d3f 9ee9 2d3f
00000040: aa2e 1e3f ab3f 9c3e bbdb 213e 01bc 023f
00000050: 8bef 223f c139 653f e507 f03e 8c72 0b3f
00000060: c79e 1f3f 38b3 603e 795a 4d3f 8a70 0b3f
00000070: 3fba 113f 6bc2 353f 0d1d 073f 4f03 5e3e
00000080: 4eba 61bd 2eab f43e ba53 4c3f 6be6 64bd
00000090: 53e6 463f 4c1d 493d f8a1 363f 43cb 1e3f
000000a0: a732 d43e 7e09 753f b522 983d f885 283f
000000b0: f460 643f 0546 e43e 815a efbe 7f7c 173f
000000c0: c3d1 3f3e cef5 923e 182c bfbc d154 2e3f
000000d0: bb44 143e c5b6 0f3f f901 75be 94ba 363f
000000e0: 4bad 243f f005 963d a330 383f 8306 2f3f
000000f0: b7e5 803f cb90 413f cfa0 0d3d a306 fabd
0.5909109 0.74559915 0.7334877 -0.3809279 0.6641173 0.69742024 0.46797445 0.50694096
0.8644114 0.27830556 0.67008984 -0.04536015 0.8511763 0.4043653 0.8644665 0.67934597
0.61789954 0.30517325 0.15806477 0.5106812 0.63646764 0.8954125 0.46881023 0.5447166
0.6235165 0.21943367 0.80216175 0.54468596 0.56924814 0.70999783 0.527787 0.2168095
-0.055109315 0.4778685 0.79815257 -0.055883806 0.77695197 0.049100205 0.71340895 0.620289
0.41444895 0.9571761 0.07428495 0.6582942 0.8921044 0.4458467 -0.46748737 0.5917434
0.18732361 0.2870316 -0.023336455 0.6809817 0.14479344 0.5613826 -0.23926534 0.71378446
0.64326924 0.07325351 0.71949214 0.6836931 1.0070103 0.7561156 0.034577187 -0.12208297

proj.2.weight f4 [192, 64]
00000000: e7b3 71bc 483b 2cbe 31ef fbbd c89e d33c
00000010: f2b5 a9bd e2a2 adbc 93a6 0b3e 1845 843d
00000020: c17e 13be c921 9bbd 72bf fabc ff51 73be
00000030: 5fd9 eabd bdff 373c d9f8 10be 2bdb 80bd
00000040: 7d61 c23d 1bd9 433b 00df 7e3d a3d0 633d
00000050: c126 0cbe 516f 05be 414b 48be dabf 71bd
00000060: 887e 243d e35b bcbc 222a 2bbe 0cbf 31be
00000070: 2300 b7bc 9f54 48bd a68b 4f3c c188 d43e
00000080: 7720 dfbd 0449 89be c52d 0abe 8112 25bd
00000090: e5ce fabc 43d6 03bf 5a94 a5bd a715 7b3d
000000a0: 80c0 20be af03 cdbd ed3e 9c3e 9d4f f43d
000000b0: 34ae 99be f493 b23d 2752 603d 9ac8 9fbd
000000c0: c6e7 19be 5e6f 113e 7415 ed3e 1be1 8bbd
000000d0: b816 5dbe f21c 55bd ec81 293d e35c 0ebe
000000e0: d942 10bd 7611 6b3d db6e d13c c232 32bd
000000f0: 5c65 013e dcdd 9c3d 32ff fe3d 691a 923e
00000100: d205 ce3d e1d6 043e aadb d93c a8cd 61bd
00000110: 15c8 383e c9a6 113d 3d66 a4be ff6a bfbe
00000120: db4d 443e 4f4e 7e3d b571 1e3d e435 063c
00000130: b024 423e 8fe0 8ebd 18ea f43d 9508 2c3e
00000140: 6b3c c1be 471a d83d b35e 01be 9c8a a0bd
00000150: 66e7 483e d6d8 e63d 2195 a23e fcc9 4e3e
00000160: b8bc 1abe e0ee cfbd cf6e ea3e f9cb c73e
00000170: 6bc0 2bbe db42 4e3e 4334 c8bb 7cfd b5bd
00000180: 11a4 a83d c639 743e e677 783e ea80 0fbe
00000190: 1b8d 41bd b95f 523d 0e7f 793c ecbd 2abe
000001a0: a59b d43d f226 983e d18b 7fbc 3853 183e
000001b0: 05ce ca3e a3c4 89be 6650 2dbe faf5 983d
000001c0: 66e2 a9bc 558e 5ebe 8567 023e 010a 453e
000001d0: e6a2 d03c 3336 24bd 7a9a 483c 90fd 953d
000001e0: 1063 efbd ba3e 87be 8fa2 e5bd ca21 073e
000001f0: 4879 24be ba86 00be ba2c e3bd 1b32 18bf
00000200: 5077 5cbd 7e15 e8bd 08af 9dbd af1d 383d
00000210: f61f 1ebe 6d51 a33c 2b8b d83d 2373 183e
00000220: daad 3cbe 66be 28be 77aa c3bc d207 303e
00000230: 18ac 17be 3f83 0d3c fee4 08be 9ea3 d2bd
00000240: 3d5a f43d 9d09 dcbd 204c 503d 71e4 8b3d
00000250: 3ea5 b3bd 83fa 0ebe 512a 0cbe 207e 12be
00000260: 6dc3 653d ef62 8f3d 2ae6 4dbe beef 82be
00000270: 2f7a 823c 0ab9 ffbd cbc1 ca3c 9858 27bf
00000280: df7d 953d 9f16 36be 0655 26be 77b4 6e3d
00000290: 4165 8abb c3c0 fc3e 0b28 3fbb 9f74 953d
000002a0: d3c8 1abd 81b8 26be faaa cdbe 9933 84be
000002b0: b4cb 9cbd 3eb6 d13d 6df9 e43d e0a6 a7bc
000002c0: 2fa4 b43d 5616 bd3d cf72 1cbf 5cb9 66be
000002d0: 9efa 283e d554 cb3d 4810 ae3c 5643 55bd
000002e0: 6b13 01bd 4ec9 223d dc32 e03d 9899 0f3d
000002f0: a2d2 043e 94ac 8d3d 9817 3d3b 9a8e 7a3e
00000300: 6a7b 4ebd 5fcb 4fbe 0645 4dbe deb8 b43d
00000310: c7d8 48bd 65e8 90bd 0734 28be baec 8d3d
00000320: 9cb9 003d b724 b13e ae9f 113e c0a9 1d3e
00000330: 144b d7be 3b71 80bd b6de a6bd ea49 89bd
00000340: f631 62be 5965 b93d 4ac4 babc 6654 1ebe
00000350: cd0b 0e3e 322a 41bd 5231 e2bd a86b 4cbe
00000360: eb97 49be 0f9b f9bc 8127 64bb 4fe1 013e
00000370: d275 ce3d c6ab b83d feee 9ebd 3ff7 2abe
00000380: 6f9a 41be 0e56 e8bd 5453 2e3e a7fb 06bf
00000390: 5635 663d 6c84 9fbe c92d d63d 94c8 043d
000003a0: 947f 27be 1168 e53d d78e 953e 7979 823c
000003b0: 4604 7dbd 15bc 833e cc86 e83d b043 033e
000003c0: de9b a0be b1be d43d 9714 d73e f4c9 19be
000003d0: 0bae 7abe fb42 883a 0776 253c 92e3 a7bd
000003e0: e1ea e6bd 7ed5 533e 46b8 9cbd 0609 a7bd
000003f0: 1bad 71bd 1e76 afbd 4d2b aebb e7c8 d43d
-0.014752365 -0.16819489 -0.123014815 0.025832549 -0.082866564 -0.021195833 0.13637762 0.06458491
-0.14403822 -0.075748034 -0.030608866 -0.23761748 -0.114672415 0.011230406 -0.14157428 -0.06291803
0.09491251 0.0029884044 0.062224388 0.055618893 -0.13686658 -0.13030745 -0.19559957 -0.059020855
0.040159732 -0.022993034 -0.16715291 -0.17358035 -0.022338932 -0.048908826 0.012667572 0.41510585
-0.10894864 -0.2681352 -0.13494022 -0.04030085 -0.030616233 -0.5149881 -0.080849364 0.061299946
-0.15698433 -0.10010468 0.3051676 0.119292475 -0.3001572 0.08719626 0.054765847 -0.078019336
-0.15029821 0.1420264 0.4630543 -0.06830045 -0.21590698 -0.052029558 0.04138367 -0.13902621
-0.03522 0.0573897 0.025565555 -0.043505438 0.12636322 0.07659504 0.124510184 0.28535774
0.10059704 0.12972595 0.026594002 -0.05512777 0.18045075 0.03555945 -0.32109252 -0.3738632
0.19170325 0.0620864 0.03868266 0.008191559 0.18959308 -0.06976425 0.11958712 0.16800149
-0.37741408 0.10551887 -0.12633781 -0.07838938 0.19619521 0.11271827 0.317544 0.20194238
-0.15111053 -0.10152984 0.45787665 0.39022806 -0.1677262 0.20142691 -0.0061097457 -0.08886239
0.08234418 0.23850164 0.24264488 -0.1401402 -0.04725371 0.05136082 0.015228046 -0.16674012
0.10381249 0.29717213 -0.0155973 0.14875495 0.39610305 -0.26907834 -0.16925201 0.07468791
-0.020737838 -0.21733983 0.12734802 0.19242097 0.025468301 -0.04009075 0.012243861 0.07323754
-0.116888165 -0.26415044 -0.11212646 0.13196483 -0.1606189 -0.12551394 -0.11092515 -0.59451455
-0.053824723 -0.11332224 -0.076994 0.044950183 -0.1544188 0.019936288 0.10573419 0.14887671
-0.18425694 -0.16478881 -0.023884995 0.17190483 -0.14811742 0.008637249 -0.13368604 -0.10285114
0.11931274 -0.10744021 0.05085385 0.06830681 -0.08771752 -0.1396275 -0.13688017 -0.14305925
0.056094576 0.07001292 -0.20107332 -0.25573534 0.015927402 -0.12486465 0.02475061 -0.6536956
0.07299399 -0.17782067 -0.16243371 0.058277573 -0.004223496 0.49365816 -0.0029168155 0.07297634
-0.037789177 -0.1628132 -0.40169507 -0.25820616 -0.07656041 0.10239838 0.11180387 -0.020465314
0.08820378 0.09232776 -0.61112684 -0.22531646 0.16501853 0.0992829 0.021247998 -0.05206617
-0.03151266 0.03974276 0.10947201 0.035058588 0.12970975 0.06917682 0.0028853174 0.2446846
-0.050410666 -0.20292424 -0.20045862 0.08824323 -0.04903486 -0.07075576 -0.16426097 0.06929918
0.03142701 0.34598324 0.14221069 0.15396786 -0.42049468 -0.06271597 -0.081479475 -0.06703551
-0.22089371 0.09052534 -0.022798676 -0.15461883 0.13871689 -0.04715938 -0.11044563 -0.19962943
-0.19686858 -0.030469446 -0.0034813585 0.12683605 0.10081066 0.09017138 -0.07760428 -0.1669588
-0.18906568 -0.11344539 0.17023975 -0.5272774 0.05620321 -0.31155717 0.104579516 0.03241785
-0.16357261 0.1120149 0.2921054 0.015927063 -0.061771654 0.25729433 0.113538355 0.1281879
-0.31368917 0.10387934 0.42007896 -0.15018445 -0.24480455 0.0010395938 0.010098941 -0.081977025
-0.11275268 0.2068691 -0.07652335 -0.08156018 -0.059002977 -0.08567451 -0.0053152204 0.103898816

proj.2.bias f4 [192]
00000000: e924 60be 80b7 313e 34b9 123c 3b89 2c3b
00000010: 1705 053e e206 0bbe a8ee 0cbc 51d5 583e
00000020: 48b2 eabd dd4b c1bb 21bb 633e ca60 e4bd
00000030: 0625 c3bd ab2f 133e 2860 c93c d316 58b9
00000040: 4d5a 0a3e 5499 a9bd 2df7 d9bd e06f 423e
00000050: 0b43 babd 1aa0 84bd 7a33 333e 24ed 29be
00000060: e2f7 a0bd ca44 593e 13f7 fcbd 5eb3 a2bd
00000070: 739e 123e 81cf 73bd 0caa 7c3e ef41 57bd
00000080: 9304 54be f94c 9f3d b0a7 8bbe 789a 4cbb
00000090: 14a5 563d adf9 f2bd eae2 fb3c 8121 3d3d
000000a0: 01d2 dcbd f6aa 5d3c 568f 87bd 02ce 323e
000000b0: ad42 c5bd a2bd 0cbe 977d 493e f464 87bd
000000c0: c2b2 52bd e4ed 9b3d 0019 193c 5fdd 133e
000000d0: fb16 32bd 6add ecbd 1f58 dabd 4a9a 2ebe
000000e0: 63d7 423e e740 653d 11e6 b03a bfbe 783a
000000f0: 81f1 4bbb a1eb 16be 7788 cc3d bd00 cc3d
00000100: 69eb c8bd 3850 42bc ea1b 54bd 45cb 1f3e
00000110: 0545 a23b 3121 dcbc 1879 143e d4f8 25bd
00000120: 14c4 9f3b 942a d53d 500b 99bd f73c f43d
00000130: ea64 533d 93d7 cfbd 0f62 e83d 84eb 64be
00000140: fedf 27bc 2a88 f63c 89dc 1bbd 6ec5 393d
00000150: 48c0 533e 3930 23bd 27e8 fcbd fcb0 123e
00000160: 8b01 ecbd 0b04 86bd f73e 0c3e 0888 56be
00000170: 987c e6bc b923 aebc 72c6 ec3d 0d15 8fbc
00000180: 4126 83bd 1718 0b3e 4f30 263c 7126 173e
00000190: c724 50be 0c27 ffbc 3a03 3d3d 6284 f2bc
000001a0: 45f2 0a3d 69e0 923d 2b25 19bd 7d08 003b
000001b0: 637b 433d 393b 28bd 1949 083d 52e8 e63d
000001c0: 6392 8dbe 248f 113c e873 dfbc 4d2d 13be
000001d0: 3975 d93d fe20 f6bc 2fc0 aa3c ffba f03c
000001e0: 6c21 b5bd 564c 383e f652 89bc 8313 d7bd
000001f0: 63c7 95bc bab2 ea3d e8e5 bf3d 125d 20be
00000200: 77e8 8e3c 7138 903c 3c76 b2be fff7 0e3e
00000210: 24e2 cb3d fe36 d4be b3f9 e13d e9d6 43bd
00000220: 1a2c 74be 25a3 253e 0dd9 c3bd e02d d8bd
00000230: bb39 0f3e daac bdbd 3fd5 c83d 4959 2a3d
00000240: cf14 bebd 5886 0b3e aaa7 40bd 363b 92bd
00000250: 40cd fe3d 05df 6cbd d10d 103c dfe8 10bd
00000260: ce89 503c 14d1 743c 44d0 2dbe 02cc a03d
00000270: e935 8d3c 50d9 4cbe fc51 9d3d 4e00 b53d
00000280: 385a fdbd 836d 32bd a26b 16be dfaf 883d
00000290: e5a6 913d 45fc a1bd 6013 253e 50e3 9ebd
000002a0: 0ca4 dbbd b3b6 793e 2dad 48be bc5c 8fbd
000002b0: 84aa 513e 52ab 03be 503b a13d 278e 6a3d
000002c0: b7d0 08be 3659 b6bd 13f2 4b3e 3cc7 34bc
000002d0: 8432 c73c 47b6 003e a7c9 b8bd 2599 123d
000002e0: 4467 313e dd72 16be f579 3cbd 4a61 1c3e
000002f0: 8157 d7bd 9a53 05be 0500 393e 16cd d6bd
-0.2188908 0.17355156 0.008955289 0.0026326913 0.12990223 -0.13576844 -0.008601822 0.21175124
-0.11459786 -0.005898936 0.22239353 -0.111512735 -0.09528546 0.14373653 0.024581984 -0.00020607868
0.1351101 -0.08281198 -0.10642848 0.1898799 -0.09094819 -0.064758494 0.17500106 -0.16594368
-0.0785978 0.21217647 -0.12351813 -0.07944368 0.14318256 -0.059524063 0.24674243 -0.052553114
-0.2070487 0.07778353 -0.27276373 -0.003122 0.052403525 -0.11864028 0.03074785 0.04617453
-0.107822426 0.01352953 -0.06619136 0.17461398 -0.09631858 -0.13744214 0.19676815 -0.06611052
-0.051440008 0.076137334 0.009344339 0.14439915 -0.043478947 -0.11565669 -0.10661339 -0.17051044
0.19027476 0.0559701 0.00134963 0.00094888726 -0.003111929 -0.14738323 0.09986966 0.09961078
-0.09810526 -0.011859946 -0.051784433 0.15604885 0.0049520754 -0.026871296 0.14499319 -0.040520504
0.0048756693 0.10408512 -0.07472861 0.119256906 0.05160991 -0.101485394 0.11346828 -0.22355467
-0.010246275 0.030094225 -0.038052116 0.0453543 0.20678818 -0.03984091 -0.12348967 0.14325327
-0.11523732 -0.0654374 0.13695894 -0.2095033 -0.028135583 -0.021257268 0.11561288 -0.017466092
-0.06403781 0.13583408 0.010143354 0.14760758 -0.2032653 -0.031146549 0.046145655 -0.02960414
0.033922452 0.07171709 -0.03738896 0.001953631 0.047725093 -0.041072104 0.033272836 0.1127478
-0.27650747 0.008884225 -0.027276948 -0.1437275 0.106180616 -0.030045029 0.020843593 0.029386042
-0.08844265 0.1799787 -0.016763192 -0.105017684 -0.018283552 0.11459871 0.09370023 -0.15660504
0.017444832 0.017605038 -0.3485583 0.1396179 0.09955242 -0.41448206 0.110339545 -0.047812376
-0.23844948 0.16175516 -0.095628835 -0.10555625 0.13986866 -0.092614844 0.098062985 0.041589055
-0.09281313 0.13625467 -0.047034897 -0.071402 0.12441492 -0.057829875 0.008792357 -0.035378333
0.012728168 0.014942426 -0.16973978 0.078514114 0.01723762 -0.20004773 0.07681653 0.08837949
-0.123707235 -0.04356147 -0.14689496 0.0667417 0.07111911 -0.07909445 0.16120672 -0.077582
-0.10724649 0.243861 -0.19597311 -0.070001096 0.20475203 -0.12858322 0.07872641 0.057264473
-0.13360868 -0.089037344 0.19916563 -0.011033829 0.02431608 0.12569533 -0.09022837 0.03579058
0.17324549 -0.14692254 -0.046014745 0.15271488 -0.10514737 -0.13020173 0.18066414 -0.10488336
