EWOthello/ckpts/battery_othello/state_tl64/layer0/checkpoint.ckpt (torch, 183059 bytes, 4 tensors)

proj.0.weight f4 [64, 512]
0.32584447 0.49318832 -0.22639494 -0.0028780543 -0.1002452 -0.103378475 0.013308427 0.05712067
-0.2976554 0.06573672 0.01666856 0.08345869 -0.21337096 -0.04377263 0.24301566 0.028699463
-0.0091313645 -0.14520839 -0.06660639 -0.02117578 -0.0409088 -0.23693942 -0.048054684 0.11550823
-0.21058364 -0.25798714 0.0095568495 0.07525137 0.084399275 0.025786437 0.021225581 0.21963452
-0.20903821 0.21663494 0.22085564 -0.2303132 -0.20068644 0.11689031 0.0147967 -0.14265959
0.034475133 -0.42033073 -0.038523253 0.011210564 0.0031234827 -0.14268787 -0.19855945 0.02014841
0.2527983 0.21312805 -0.06803093 -0.025063263 0.2824675 0.17830494 -0.21071634 0.16432816
0.1594323 0.088281445 0.025227876 -0.16354503 0.15882623 -0.011420519 -0.24413887 -0.35223532
-0.08159372 0.13436113 0.06227852 -0.092405334 0.0008690814 0.14908238 -0.037095524 -0.014863433
-0.19904293 -0.33881283 -0.018618392 0.10245546 -0.19494085 0.019990148 0.109675445 0.14199606
0.7228978 0.27155018 -0.06460531 -0.22110747 -0.4192798 0.066647716 -0.10321642 0.3166724
0.09533576 0.04811561 -0.05677887 0.08635975 -0.17553586 0.3433478 0.049317252 0.028610041
0.12494484 0.12737991 -0.03400935 0.1709865 0.0020755103 0.08479277 -0.071946785 -0.005269154
0.09739426 0.23192522 -0.30912298 0.117756344 -0.012337589 0.1650763 -0.0781275 0.15497507
0.32918435 -0.14260595 -0.07934475 -0.22873935 0.009596136 0.20960048 0.0282045 -0.010824858
0.27903545 -0.29883155 0.31665614 0.26640555 0.18382053 0.1415832 -0.108875446 -0.11993069
-0.13446254 0.13503672 0.10522134 -0.074313395 -0.16611119 0.15539424 0.0075196987 0.058182247
0.16674908 0.0021444333 0.15281792 0.14787143 -0.04888447 -0.03868652 -0.06666741 0.20804252
0.02598583 -0.011186202 0.018185955 0.34384868 -0.3330512 -0.08011669 -0.04629199 -0.04257518
-0.09890638 0.009111714 -0.15044971 0.19843766 -0.30335784 -0.2981113 -0.1432758 0.05915677
0.16318461 0.2793142 -0.34884307 0.092367426 0.048822224 0.27632594 0.15430176 0.12914813
0.09502887 0.37735564 -0.75543153 0.1498135 -0.044652242 0.022134174 0.18117817 -0.022787552
0.092716545 -0.1950837 -0.007976415 -0.04766315 -0.039363965 -0.059760798 0.10749168 0.11177118
-0.15435944 -0.07320139 0.119165964 -0.11868156 0.100945175 0.05378761 -0.104720876 -0.0006486255
0.1389171 -0.22644784 0.041955594 0.10598265 -0.14944968 -0.047213636 -0.059997644 -0.22305666
0.24685971 0.13940395 -0.0938114 0.007849533 0.3759345 0.009931184 0.4784876 0.14025772
0.051080987 0.11267671 -0.17216608 0.0424329 0.28274533 0.18052825 -0.033759367 0.024844017
0.096129715 -0.06224336 0.0725179 0.13456047 0.46445802 -0.18505827 -0.07846448 -0.022682868
-0.17292078 0.081440546 -0.6185134 0.15566084 0.051384427 0.18140177 -0.060332563 -0.0919783
-0.07826262 -0.044083063 0.037333846 0.19600798 0.037161868 0.24155056 -0.015673226 -0.02454034
0.2867445 -0.12862198 -0.082402885 -0.02085707 -0.22454306 -0.024466578 -0.078770354 -0.2825396
0.020990264 -0.068044946 0.02791089 -0.096380524 0.32699424 0.01708116 -0.08303889 -0.054702856
00000000: 16d5 a63e 2e83 fc3e 13d4 67be bd9d 3cbb
00000010: 5b4d cdbd 18b8 d3bd 970b 5a3c 5df7 693d
00000020: 4a66 98be f9a0 863d 818c 883c 64ec aa3d
00000030: eb7d 5abe ee4a 33bd 19d9 783e 231b eb3c
00000040: b89b 15bc 82b1 14be ee68 88bd d478 adbc
00000050: fc8f 27bd 3fa0 72be fdd4 44bd 948f ec3d
00000060: 3da3 57be e416 84be 5594 1c3c 641d 9a3d
00000070: 87d9 ac3d 143e d33c 45e1 ad3c dfe7 603e
00000080: 1d0e 56be 8dd5 5d3e fb27 623e 39d7 6bbe
00000090: bf80 4dbe 3064 ef3d dc6d 723c 5b15 12be
000000a0: cc35 0d3d 9735 d7be 8fca 1dbd 83ac 373c
000000b0: 58b3 4c3b c51c 12be 2b53 4bbe 470e a53c
000000c0: c76e 813e 3d3e 5a3e cd53 8bbd 7951 cdbc
000000d0: 959f 903e 9295 363e 06c6 57be a445 283e
000000e0: 3942 233e e7cc b43d b1aa ce3c 5978 27be
000000f0: 58a3 223e 211d 3bbc 8aff 79be 3058 b4be
00000100: 9c1a a7bd f795 093e c317 7f3d 023f bdbd
00000110: 11d3 633a 0da9 183e 7af1 17bd c285 73bc
00000120: e9d1 4bbe e078 adbe 9985 98bc 2bd4 d13d
00000130: 939e 47be 61c2 a33c 859d e03d 6a67 113e
00000140: d50f 393f a008 8b3e ca4f 84bd ff69 62be
00000150: d8ab d6be 997e 883d 2163 d3bd e322 a23e
00000160: 653f c33d e014 453d f690 68bd 61dd b03d
00000170: acbf 33be 48cb af3e e300 4a3d 9b5f ea3c
00000180: 15e3 ff3d e16f 023e 634d 0bbd 1617 2f3e
00000190: 4905 083b d5a7 ad3d d658 93bd dea8 acbb
000001a0: a476 c73d ce7d 6d3e 5e45 9ebe 3d2a f13d
000001b0: 9923 4abc c309 293e 5001 a0bd c9b1 1e3e
000001c0: da8a a83e 4b07 12be 807f a2bd a63a 6abe
000001d0: 1d39 1d3c 82a1 563e 200d e73c bf5a 31bc
000001e0: bcdd 8e3e 7300 99be c120 a23e 4f66 883e
000001f0: 733b 3c3e 30fb 103e 17fa debd 399e f5bd
00000200: 8cb0 09be 1147 0a3e 497e d73d 9f31 98bd
00000210: 0d19 2abe ab1f 1f3e ce67 f63b 8250 6e3d
00000220: 45c0 2a3e 9f89 0c3b 4d7c 1c3e 9c6b 173e
00000230: 153b 48bd c275 1ebd ec88 88bd 1909 553e
00000240: 3ce0 d43c 5546 37bc b6fa 943c ef0c b03e
00000250: b085 aabe 3814 a4bd ab9c 3dbd 5063 2ebd
00000260: 6e8f cabd 4c49 153c 7d0f 1abe 3e33 4b3e
00000270: b851 9bbe 0ba2 98be e4b6 12be 5f4e 723d
00000280: de19 273e 4502 8f3e 8f9b b2be 222b bd3d
00000290: d0f9 473d 987a 8d3e 4801 1e3e 683f 043e
000002a0: 7f9e c23d c234 c13e f663 41bf b668 193e
000002b0: 45e5 36bd ba52 b53c c586 393e f6ac babc
000002c0: 2ce2 bd3d 05c4 47be 82af 02bc 6f3a 43bd
000002d0: 1c3c 21bd bdc7 74bd 9924 dc3d 4ae8 e43d
000002e0: 6710 1ebe 9cea 95bd 490d f43d 510f f3bd
000002f0: 58bc ce3d 6650 5c3d e677 d6bd 8508 2aba
00000300: 4940 0e3e f1e1 67be a1d9 2b3d 6e0d d93d
00000310: 5609 19be 1663 41bd 17c0 75bd f768 64be
00000320: cbc8 7c3e e9bf 0e3e 3120 c0bd 549b 003c
00000330: 7d7a c03e 68b6 223c 54fc f43e b89f 0f3e
00000340: 4c3a 513d 0cc3 e63d 4e4c 30be 1fce 2d3d
00000350: ffc3 903e 66dc 383e 4347 0abd ae85 cb3c
00000360: a8df c43d e5f2 7ebd 4484 943d 38ca 093e
00000370: 71cd ed3e ea7f 3dbe fcb1 a0bd 6cd1 b9bc
00000380: 2512 31be 4dca a63d e556 1ebf 8e65 1f3e
00000390: 7a78 523d 63c1 393e 471f 77bd 1e5f bcbd
000003a0: 2748 a0bd 7190 34bd 60eb 183d 51b6 483e
000003b0: 0b37 183d 0859 773e 2365 80bc d308 c9bc
000003c0: 2dd0 923e 7bb5 03be d8c2 a8bd 72dc aabc
000003d0: 9eee 65be 226e c8bc 5a52 a1bd 08a9 90be
000003e0: c6f3 ab3c 265b 8bbd 61a5 e43c 2763 c5bd
000003f0: ca6b a73e caed 8b3c 4b10 aabd 1a10 60bd

proj.0.bias f4 [64]
0.18087701 0.237445 0.22211659 0.34572306 0.009349445 0.13923989 0.12916145 -0.040624842
0.19812113 0.05357261 0.0920834 0.22973908 0.08372995 0.18165265 0.100068726 0.33032367
0.17031556 0.096282266 0.322817 0.003421945 0.099685796 0.30429897 0.0849593 0.048913192
-0.030463543 0.16469932 0.027342478 0.08320053 0.17481339 0.3298688 0.022225905 0.13817176
0.04997817 0.11120367 0.20747025 0.06531978 0.19792624 0.11275369 0.08696046 0.25562096
0.17788379 0.35144302 0.07926263 0.08858475 0.13438939 0.2382883 0.20100264 0.30007482
0.032442864 0.10888477 -0.06321476 0.14771542 0.14313045 0.01197011 0.13982305 -0.002705219
0.009396339 0.14396955 0.057279196 0.34536594 0.06547834 0.09099383 0.2395659 0.115169026
00000000: d337 393e c824 733e 8872 633e 9d02 b13e
00000010: 6a2e 193c e794 0e3e e642 043e 3c66 26bd
00000020: 44e0 4a3e f46e 5b3d 3996 bc3d b940 6b3e
00000030: 9c7a ab3d 2703 3a3e d5f0 cc3d 2f20 a93e
00000040: 3467 2e3e a32f c53d 4548 a53e b642 603b
00000050: 1128 cc3d 13cd 9b3e 24ff ad3d 3359 483d
00000060: ae8e f9bc f0a6 283e 55fd df3c 0a65 aa3d
00000070: 4802 333e 90e4 a83e 1a13 b63c e67c 0d3e
00000080: e9b5 4c3d c0be e33d 1573 543e 60c6 853d
00000090: 2dad 4a3e 68eb e63d 5318 b23d c0e0 823e
000000a0: 2b27 363e 57f0 b33e 7254 a23d ec6b b53d
000000b0: 5f9d 093e d901 743e a3d3 4d3e 68a3 993e
000000c0: cfe2 043d fafe de3d bd76 81bd b642 173e
000000d0: ca90 123e 481e 443c c62d 0f3e 0b4a 31bb
000000e0: 1af3 193c c16c 133e 979d 6a3d ced3 b03e
000000f0: 8219 863d f95a ba3d c350 753e bddd eb3d

proj.2.weight f4 [192, 64]
-0.2041903 -0.022597535 -0.17038676 -0.12899181 0.44852117 -0.21178661 -0.03152705 0.2074336
-0.31395614 -0.16130953 -0.19678089 -0.31180924 0.11101427 -0.10043195 0.057316214 -0.32676503
0.16213489 -0.2592884 -0.09854325 -0.16650228 0.04715243 0.067501895 0.103572376 -0.21102118
-0.339877 0.13562341 -0.44661567 0.1230051 -0.09624633 -0.15885891 -0.24071336 -0.2771662
-0.034580693 -0.14443964 -0.3695337 -0.15073536 -0.14839803 -0.2459172 0.052304752 -0.15150733
-0.27746862 -0.15876995 -0.17878157 0.013191825 -0.06304536 0.09696174 0.047113456 -0.33696845
-0.26185584 0.081689045 0.08505335 0.55343974 -0.21477604 -0.1406526 0.07643077 0.048483483
0.0012151342 -0.28616622 -0.095950305 0.0030303989 -0.028756205 -0.18403137 -0.066684835 0.0063456995
0.2258709 0.054719795 0.23243459 0.09029228 -0.2555205 0.1978102 0.20278238 0.13646382
0.3085306 0.23927872 0.25337857 0.26880348 0.03485958 0.02240243 -0.08130968 0.32677117
-0.25944227 0.1611204 0.16813031 0.1837897 -0.077286266 -0.07041016 0.005674927 0.1409838
0.12819411 0.0026943977 0.08652891 0.12780097 0.065067016 0.16774198 0.059071943 0.29886347
0.11852486 0.15230365 0.25885317 0.19155452 0.21775687 0.07085103 0.042603847 0.23984492
0.2152371 0.13480103 0.07443341 0.14012186 -0.10272584 -0.20972317 -0.1293137 0.24412388
0.008826389 0.12502001 -0.05867394 -0.4693088 0.2053096 -0.0035907982 0.027828053 -0.41247806
0.06468915 0.2524636 0.09342177 0.10387926 -0.007579007 0.16493687 0.07396237 -0.060024872
-0.17131998 -0.17096278 -0.21687032 -0.03244653 -0.17542504 -0.059928216 -0.3785853 -0.47989264
-0.22701867 -0.2499086 -0.2259543 -0.12799494 -0.23744279 0.07026511 0.065203615 -0.22283326
0.14696203 -0.070999585 -0.1269534 -0.20406413 -0.002638856 0.03427168 -0.17157301 0.023425296
0.0013777454 -0.26864752 0.27050516 -0.34997874 -0.08106625 -0.122739606 0.09498465 -0.30147463
-0.23056853 -0.15501831 -0.18556312 -0.1713368 -0.32705975 0.13568668 -0.14298826 -0.26272783
-0.17195815 -0.11081479 -0.0013304286 -0.313433 0.28216615 0.1428978 0.09644228 -0.105094366
0.2956125 -0.33650097 -0.046472453 0.11206951 -0.10399739 0.10076898 -0.023836503 0.57672083
-0.2017405 -0.24447387 -0.13935162 -0.18881905 -0.07024961 -0.15998942 -0.05283212 0.016567867
-0.1788598 -0.15876468 -0.10963385 -0.05575133 -0.03119494 -0.5536492 -0.13422301 0.17868128
-0.12999994 0.07997533 -0.2678531 -0.025836935 -0.053942453 -0.20205821 0.062990755 -0.12932926
0.0754586 -0.2561519 0.033713397 -0.230911 -0.07602777 0.03740869 -0.14665295 -0.025586529
-0.19482201 0.032878324 0.2995804 -0.22859763 0.06760316 0.007970468 0.29105157 -0.38400933
-0.1907314 0.053298455 0.02990184 -0.15555605 -0.006196693 -0.09118822 0.13414298 -0.018775897
-0.1780054 -0.13457079 -0.24659172 -0.087554075 0.0033463317 0.14814928 0.0027046674 0.08173108
-0.22919618 -0.15664454 -0.1363918 0.24187914 -0.08879501 -0.10090083 0.11121862 -0.054411326
0.031374205 -0.15115274 0.14623205 -0.04239657 -0.33095258 -0.15887012 0.04679237 0.0030214011
00000000: 4317 51be 771e b9bc de79 2ebe 6e16 04be
00000010: 91a4 e53e 97de 58be 8222 01bd 7969 543e
00000020: dcbe a0be 532e 25be ee80 49be 76a5 9fbe
00000030: 735b e33d 44af cdbd 68c4 6a3d bf4d a7be
00000040: b006 263e 73c1 84be 0bd1 c9bd 937f 2abe
00000050: e822 413d 6f3e 8a3d c11d d43d f015 58be
00000060: 5c04 aebe dde0 0a3e cfaa e4be 19ea fb3d
00000070: cc1c c5bd e9ab 22be 907d 76be bae8 8dbe
00000080: 7ca4 0dbd fce7 13be 8533 bdbe 5f5a 1abe
00000090: a7f5 17be b8d1 7bbe 823d 563d bd24 1bbe
000000a0: 5e10 8ebe 9794 22be 8412 37be 8622 583c
000000b0: ed1d 81bd e093 c63d 0afa 403d 2187 acbe
000000c0: f811 86be 964c a73d 7330 ae3d 3aae 0d3f
000000d0: 40ee 5bbe 3c07 10be bc87 9c3d 9e96 463d
000000e0: 2345 9f3a 6184 92be 9881 c4bd a899 463b
000000f0: 2292 ebbc b872 3cbe 0f92 88bd 96ef cf3b
00000100: b44a 673e dd21 603d 5503 6e3e 29eb b83d
00000110: 95d3 82be c28e 4a3e 2fa6 4f3e 2cbd 0b3e
00000120: b9f7 9d3e 7b05 753e d6ba 813e 9ca0 893e
00000130: ebc8 0e3d 4d85 b73c b185 a6bd 8d4e a73e
00000140: 9ed5 84be bffc 243e 5a2a 2c3e 5e33 3c3e
00000150: 4348 9ebd 3433 90bd bdf4 b93b 0f5e 103e
00000160: 5145 033e 7e94 303b 1236 b13d 42de 023e
00000170: db41 853d 8ec4 2b3e 6cf5 713d a204 993e
00000180: 29bd f23d 7df5 1b3e 6788 843e de26 443e
00000190: a8fb 5e3e 581a 913d 5f81 2e3d e899 753e
000001a0: 1d67 5c3e 4809 0a3e 8b70 983d 1b7c 0f3e
000001b0: ed61 d2bd acc1 56be d06a 04be 9cfb 793e
000001c0: 8f9c 103c 3f05 003e 1654 70bd 3e49 f0be
000001d0: ae3c 523e 9953 6bbb a8f7 e33c 5330 d3be
000001e0: bf7b 843d e942 813e ea53 bf3d a6be d43d
000001f0: 5259 f8bb 36e5 283e 9579 973d a4dc 75bd
00000200: 816e 2fbe de10 2fbe 4113 5ebe a7e6 04bd
00000210: 9fa2 33be 4a77 75bd efd5 c1be 7db4 f5be
00000220: 9577 68be 0ae8 7fbe 9060 67be 1b11 03be
00000230: 3424 73be 27e7 8f3d 7989 853d 672e 64be
00000240: 377d 163e 3b68 91bd 1200 02be 30f6 50be
00000250: a8f0 2cbb 7660 0c3d d6b0 2fbe 68e6 bf3c
00000260: 7795 b43a 2b8c 89be a77f 8a3e 6a30 b3be
00000270: 1006 a6bd e75e fbbd 5087 c23d e25a 9abe
00000280: 281a 6cbe 1fbd 1ebe 4204 3ebe ea72 2fbe
00000290: 6074 a7be 73f1 0a3e 846b 12be 4384 86be
000002a0: cc15 30be ddf2 e2bd c761 aeba 4a7a a0be
000002b0: 1578 903e cd53 123e 8883 c53d b73b d7bd
000002c0: 865a 973e db49 acbe e659 3ebd b384 e53d
000002d0: 95fc d4bd f85f ce3d c544 c3bc faa3 133f
000002e0: 1095 4ebe 5c57 7abe 31b2 0ebe c859 41be
000002f0: 07df 8fbd 44d4 23be 7e66 58bd 56b9 873c
00000300: 0627 37be 3593 22be b687 e0bd 825b 64bd
00000310: 888c ffbc f4bb 0dbf c271 09be 3af8 363e
00000320: b41e 05be 1bca a33d 0b24 89be fba7 d3bc
00000330: c3f2 5cbd 59e8 4ebe 4c01 813d e46e 04be
00000340: 0a8a 9a3d 5826 83be 0f17 0a3d ef73 6cbe
00000350: 73b4 9bbd db39 193d 312c 16be d79a d1bc
00000360: 6c7f 47be 6cab 063d 9a62 993e 7f15 6abe
00000370: 8773 8a3d 9196 023c b604 953e df9c c4be
00000380: 184f 43be 7b4f 5a3d b4f4 f43c 164a 1fbe
00000390: a10d cbbb e4c0 babd c75c 093e e9cf 99bc
000003a0: 0c47 36be edcc 09be 8a82 7cbe 8d4f b3bd
000003b0: 214e 5b3b 72b4 173e ca40 313b a062 a73d
000003c0: 67b2 6abe 6d67 20be 4baa 0bbe 2aaf 773e
000003d0: 28da b5bd 18a5 cebd 96c6 e33d 69de 5ebd
000003e0: 3d82 003d c9c7 1abe dbbd 153e 07a8 2dbd
000003f0: 9e72 a9be d9ae 22be 5ba9 3f3d b302 463b

proj.2.bias f4 [192]
-0.14562881 0.14967062 -0.11181118 -0.08206028 0.115153104 -0.1139938 0.011366997 0.029298078
-0.08542665 -0.058758475 0.10773225 -0.088457264 -0.047050275 0.04590276 -0.038059015 -0.116633505
0.09536561 -0.018784143 -0.092290044 0.11480384 -0.104705565 -0.122192994 0.119385816 -0.09023857
-0.073856026 0.093288355 -0.093235135 -0.10491094 0.10114694 -0.07854539 0.09505698 0.022833647
-0.11946107 0.0409867 -0.04263628 0.03524369 -0.0008240022 -0.023112703 0.058640584 -0.034119885
0.13669194 -0.09904251 -0.121313676 0.103965804 -0.06295482 -0.1428011 0.17620637 -0.14160311
-0.045676924 0.04274049 -0.037449528 0.0020788207 0.06772677 -0.07000861 0.055487927 -0.17084838
0.14530733 0.012501038 -0.14354505 0.16668311 0.13045654 -0.09048401 0.02440533 0.06985417
-0.21106194 0.18396138 -0.004719711 0.055582367 -0.060705934 0.010521584 0.00036525566 -0.04878133
-0.03510501 0.12122645 -0.12614037 0.06314659 -0.084865876 0.043577064 0.1573523 -0.15813811
0.04023977 0.025080029 -0.08432393 0.11216641 0.09671269 -0.088366956 0.05320865 0.11832875
-0.19245277 0.110110216 0.014305361 -0.03201175 0.04406629 -0.016599786 -0.045987953 0.030396763
0.015053358 0.03302365 -0.08327781 0.12124326 -0.058911987 -0.03379361 0.19593355 -0.12661475
-0.017863087 0.08998562 -0.08505769 0.053540476 0.07427552 -0.0877257 0.07101345 0.1234119
-0.14475201 0.06382666 -0.023280887 0.031209394 0.038566515 -0.06713752 0.103316724 -0.07015629
-0.043411013 0.06856203 -0.07343988 0.0551367 0.031408165 -0.095634736 0.07435963 -0.14204259
0.12697664 0.03257538 -0.12826736 0.15576537 0.062924236 -0.19430397 0.15426397 0.102818936
-0.21140316 0.12542956 0.03836826 0.036506213 -0.08633452 -0.024848614 0.056409236 -0.06923929
-0.0728763 0.086784445 -0.086554505 -0.1029602 0.11383691 -0.099795796 0.061417688 -0.0066439593
-0.0708089 0.002068516 -0.03503903 0.0745723 0.026888864 -0.049585886 0.06754815 0.018175453
0.052950285 -0.072540805 -0.06551474 0.10669261 -0.12601057 -0.05112241 0.0894288 -0.108120196
-0.12300689 0.094479024 -0.052949175 -0.102632485 0.15088627 -0.1453272 -0.07820448 0.1301398
-0.09639142 -0.06619924 0.073227696 -0.038986985 -0.076602206 0.10446849 -0.06358637 -0.024470674
0.03548814 -0.04790747 -0.10223863 0.13646778 -0.1230512 -0.10873676 0.106532216 -0.083985195
00000000: b81f 15be 4143 193e 43fd e4bd 380f a8bd
00000010: 64d5 eb3d 9575 e9bd a43c 3a3c 8602 f03c
00000020: 2bf4 aebd baac 70bd baa2 dc3d 1529 b5bd
00000030: cab7 40bd 8804 3c3d c5e3 1bbd 8cdd eebd
00000040: 0c4f c33d 34e1 99bc 9002 bdbd 471e eb3d
00000050: df6f d6bd 5240 fabd 8d80 f43d 00cf b8bd
00000060: d441 97bd f70d bf3d 10f2 bebd 8cdb d6bd
00000070: 2026 cf3d 68dc a0bd 3cad c23d a10d bb3c
00000080: 01a8 f4bd ace1 273d 61a3 2ebd b05b 103d
00000090: da01 58ba da56 bdbc 1c31 703d 4bc1 0bbd
000000a0: f9f8 0b3e cdd6 cabd 4e73 f8bd 06ec d43d
000000b0: 75ee 80bd 743a 12be 716f 343e 6800 11be
000000c0: ba17 3bbd a710 2f3d ad64 19bd d33c 083b
000000d0: 55b4 8a3d ad60 8fbd 4f47 633d e1f2 2ebe
000000e0: 72cb 143e 27d1 4c3c 79fd 12be faae 2a3e
000000f0: 6696 053e ae4f b9bd b0ed c73c b40f 8f3d
00000100: 9f20 58be 5f60 3c3e cea7 9abb 56aa 633d
00000110: c9a6 78bd b962 2c3c c97f bf39 efce 47bd
00000120: 45ca 0fbd 9345 f83d f12a 01be 0053 813d
00000130: 29ce adbd dd7d 323d f620 213e f5ee 21be
00000140: 75d2 243d a274 cd3c 06b2 acbd 81b7 e53d
00000150: 4e11 c63d bcf9 b4bd 50f1 593d 5856 f23d
00000160: 5712 45be 7781 e13d 0861 6a3c c11e 03bd
00000170: db7e 343d 46fc 87bc dd5d 3cbd a202 f93c
00000180: 5ca2 763c cf43 073d 8e8d aabd 634e f83d
00000190: b24d 71bd 2b6b 0abd cea2 483e 4ca7 01be
000001a0: 9c55 92bc 614a b83d ba32 aebd 424d 5b3d
000001b0: c41d 983d 88a9 b3bd 806f 913d 61bf fc3d
000001c0: df39 14be 8db7 823d 8fb7 bebc d8aa ff3c
000001d0: ecf7 1d3d 657f 89bd b897 d33d 1aae 8fbd
000001e0: bfcf 31bd 406a 8c3d a667 96bd 05d7 613d
000001f0: d9a5 003d 25dc c3bd dd49 983d 9d73 11be
00000200: 2a06 023e c36d 053d 8558 03be f580 1f3e
00000210: 6cde 803d 9ff7 46be 60f7 1d3e bc92 d23d
00000220: 127a 58be 9b70 003e 0928 1d3d 8a87 153d
00000230: 27d0 b0bd 528f cbbc 5f0d 673d 54cd 8dbd
00000240: 2b40 95bd 0bbc b13d 7d43 b1bd ccdc d2bd
00000250: 5323 e93d bd61 ccbd 1d91 7b3d 92b5 d9bb
00000260: 4204 91bd f18f 073b 1685 0fbd 5db9 983d
00000270: 0946 dc3c 921a 4bbd af56 8a3d b0e4 943c
00000280: 66e2 583d 4690 94bd 982c 86bd a881 da3d
00000290: ea08 01be bb65 51bd 7226 b73d 1f6e ddbd
000002a0: 09eb fbbd 387e c13d 3ce1 58bd fb30 d2bd
000002b0: ee81 1a3e a7d0 14be ac29 a0bd 5e43 053e
000002c0: dd68 c5bd 7893 87bd 67f8 953d d1b0 1fbd
000002d0: 9ee1 9cbd 93f3 d53d 9239 82bd b976 c8bc
000002e0: 035c 113d a03a 44bd 7d62 d1bd 36be 0b3e
000002f0: 4402 fcbd 61b1 debd 902d da3d 6e00 acbd
