EWOthello/KLiScripts/KLi_Paper_Checkpoints/state_tl128/layer4/checkpoint.ckpt (torch, 363539 bytes, 4 tensors)

proj.0.weight f4 [128, 512]
00000000: fe43 28be 0b34 40be 7e9c 0cbf f4ea edbd
00000010: 3cf8 9f3c db39 363e 812a 413c 6d48 4b3e
00000020: b0fc 46be 0473 2abe 492e b73d 546e c7bd
00000030: 8a8a a43c 8142 6dbe 4c0e 17be 43d7 993d
00000040: 50a7 293d 1e8e b6bd dd49 4bbb 307b 763e
00000050: f5b9 da3d 10bf 1ebe ba4a 6bbd 2ba6 243f
00000060: 420b 52bd fbc0 413d 8f09 af3e fbde a8be
00000070: b3e8 863e 17e2 aabd 05d6 c0bc 971b 3f3d
00000080: 9f45 223e bf28 9a3e 0c77 e63d c4e8 f1bb
00000090: cacf 313e 6a8e c7bd 4125 4b3e 2ba5 6e3c
000000a0: 6599 f0bd 7a65 8abd c438 843e 250a eabd
000000b0: 537f b9bd 985f acbc f251 5dbe bfbc 933d
000000c0: 2266 703e cf93 1e3c d274 35be 7dc7 803e
000000d0: a8ee c5bd dc61 2a3e 2e01 663e ad01 86bd
000000e0: a810 f23c 6223 823d e3ff da3d 4d38 d73d
000000f0: ff7f 493d 5970 d8ba 1d41 71bd d536 0abd
00000100: 9325 67bd fbca b63d eced 983d be65 a0be
00000110: 60c7 31bd 04b1 e9bd deba 07bc d434 62be
00000120: c090 2fbe 8a4e 96be 580b aa3d 1e91 cfbd
00000130: a032 3d3d 1fe4 483d 038e c7bc 902e 1dbe
00000140: 0048 41be 51b4 8ebe 999c 53bd 3ea4 93bc
00000150: 0459 233e 3d7f a73e 6ef3 1b3e 1847 523d
00000160: dea9 b33d 5200 413e 0fcf 10be f810 3e3d
00000170: face ef3c b61d f63d 888b b63d 9548 663e
00000180: 2b65 903d 05d6 69bd 6366 6a3d 0601 26bd
00000190: 3dcc a83d d30f 053e b402 643e 9c02 333e
000001a0: 9c86 a43d 2262 01be 0af4 97be f83c 7c3e
000001b0: 1482 8b3d 6b83 a7ba 4ac9 923c b130 55bd
000001c0: 000f 7a3e 166d 61be a369 d4bd 3000 b4bc
000001d0: 4af7 c0be 30e7 d1bc f126 33be 6f07 21be
000001e0: d46b 573e edab 0d3e aded fd3c a91b e73b
000001f0: f7c4 2c3c 8c87 28be f8ee 2e3e 9e64 87be
00000200: c915 503d 31e6 353d 1cec 273e 989f 11be
00000210: 9e78 8a3e 429a 313e e4c0 cd3e 1a37 ad3b
00000220: 239b 353e f9bf 77bc 4733 1abe a063 3a3d
00000230: 53de 29be ac73 aebd d5a8 9ebe 750a 29bd
00000240: 302a 0b3e 1ab4 113e 6b6c 18bd 23da 0fbe
00000250: 7176 13be 0858 48be b496 48bd 7200 73be
00000260: e673 a63c b4f8 24bd 7ec6 93be e6e5 a33e
00000270: 7569 df3d fbf9 763c 57c2 e8bd ad3a 1c3c
00000280: 68a7 04be 1fec 1e3d 94df 4c3d 4fe4 52be
00000290: ef70 533d 66e4 d33d b69f 7ebe 534f c53d
000002a0: 397a b4be 8eed 973e 6158 1dbc 265b 0cbe
000002b0: a7cc 6a3c 3023 e2bd 95bc d0bd 334d 9ebe
000002c0: 115b c03d dfad b03e 0460 08be dac4 3638
000002d0: 0739 c03e e300 28be 8000 d9b9 0f3e 27be
000002e0: dd90 57be a274 8dbe 2559 923d b129 bebe
000002f0: 9859 6e3e a54f 953d 5204 de3c 6f5c cbbd
00000300: 4991 813e c38c 33bd 40fb 553e 6247 eb3d
00000310: 9f71 2ebd b9da 27bd 3655 623d ad81 dabc
00000320: db4d 5ebe 92bb 3d3e 5940 8d3d 85c6 9e3d
00000330: 4b50 9c3e e0f4 2b3c b5ab 0bbe 23ce 6d3d
00000340: dc56 eeb9 d865 71be 25c3 26be cb67 3c3c
00000350: 0b05 04be 6450 26bd 15a3 8abe 075f 84bd
00000360: 4895 f4bd 4fd4 703e 3176 e6bd 6d3d 5b3e
00000370: b529 00be db9d 83bd 9fc6 243e 1282 27bd
00000380: c409 02be c390 d9bd 274d b2bc a014 313d
00000390: 1d80 45be f828 1bbe 43d4 073e 00d8 893c
000003a0: 32df 1dbe 4486 313e 9587 e5bc 753b 60be
000003b0: 7016 25bd 3c6b 3cbe 8a22 a03d 9484 6b3e
000003c0: 5e12 31bd 69ac 61bc 4e36 a5be f060 933e
000003d0: 5541 e8bb 1a29 b7bd c128 aabe 67d0 18be
000003e0: 174d babe daad 243e e61b 0abe 9529 c6bd
000003f0: 587e 403e 4ef1 1dbd 0b9e 373d 2407 283d
-0.16432187 -0.18769853 -0.5492629 -0.116170794 0.019527547 0.17795508 0.011789919 0.19851847
-0.1943233 -0.16645437 0.08944375 -0.0973784 0.020085592 -0.231699 -0.14751548 0.07511761
0.041419327 -0.089138255 -0.0031019368 0.2407043 0.1068 -0.15502572 -0.05744431 0.6431605
-0.051280268 0.04730318 0.3418698 -0.3298262 0.2634941 -0.083439045 -0.023539552 0.04665717
0.15846871 0.30109212 0.11253175 -0.007382484 0.17364421 -0.0974396 0.1983843 0.014565746
-0.11748008 -0.06757636 0.2582456 -0.11427716 -0.09057488 -0.021041676 -0.21613291 0.07213735
0.2347646 0.009678795 -0.17720345 0.25152197 -0.09664661 0.16638893 0.22461388 -0.065432884
0.029548958 0.06354405 0.10693338 0.105087854 0.049194332 -0.0016512974 -0.058899987 -0.0337437
-0.056432318 0.08925434 0.07467255 -0.31327623 -0.04340303 -0.11410716 -0.008284299 -0.22090465
-0.17145061 -0.29356796 0.08302945 -0.10135101 0.046190858 0.04904568 -0.024359709 -0.15349793
-0.18875122 -0.27871946 -0.051663015 -0.018022653 0.15951926 0.32714263 0.1522958 0.05133733
0.08772634 0.18847778 -0.14141487 0.0464029 0.029273499 0.12017386 0.08913332 0.22488625
0.07050546 -0.05708887 0.05722655 -0.04052832 0.0824208 0.12994318 0.22266656 0.17481464
0.08033487 -0.12635091 -0.29678375 0.24632633 0.0681192 -0.0012780254 0.017918248 -0.05204839
0.24419785 -0.22014269 -0.10371711 -0.021972746 -0.37688667 -0.025622934 -0.17495324 -0.15725492
0.21037227 0.13835116 0.030997122 0.007052858 0.010545007 -0.16457957 0.17083347 -0.26443952
0.050802026 0.04440898 0.16398662 -0.14221036 0.2704515 0.17344001 0.40186226 0.0052861096
0.17734961 -0.015121453 -0.15058623 0.045505166 -0.16588716 -0.085181564 -0.30988184 -0.04126974
0.13590312 0.1422886 -0.03721277 -0.14048056 -0.1440065 -0.19564831 -0.048971847 -0.23730639
0.020318937 -0.040276244 -0.28862375 0.32011336 0.10908786 0.015074248 -0.113651924 0.009535474
-0.12954485 0.0387994 0.05001791 -0.20594905 0.051621374 0.10346298 -0.24865612 0.096342705
-0.35249498 0.29673427 -0.009603591 -0.13706645 0.0143310195 -0.11041868 -0.10192219 -0.30918273
0.093923695 0.34507653 -0.13317877 4.3575514e-05 0.37543508 -0.16406588 -0.00041389838 -0.16332267
-0.21051355 -0.27628046 0.07145909 -0.37141183 0.23276365 0.072905816 0.02710167 -0.0992974
0.25306156 -0.043835413 0.20896626 0.114882246 -0.042588826 -0.040980075 0.055257045 -0.026673162
-0.21709387 0.18528584 0.06897039 0.07752708 0.3053001 0.0104953945 -0.1363972 0.058057915
-0.00045459613 -0.23574007 -0.16285379 0.011499356 -0.12892549 -0.04060401 -0.27077547 -0.064634375
-0.11942536 0.2351849 -0.11253012 0.21410151 -0.1251591 -0.06426593 0.16091393 -0.04089553
-0.12699038 -0.10623314 -0.021765305 0.04323256 -0.19287153 -0.15152347 0.13264565 0.01682663
-0.15417174 0.17336375 -0.028018752 -0.21897681 -0.0403046 -0.18400282 0.07819088 0.22999793
-0.043230407 -0.013774016 -0.32267994 0.28784895 -0.0070878663 -0.089433864 -0.33234218 -0.14923249
-0.3638694 0.16081944 -0.13487205 -0.096759 0.18798196 -0.038560204 0.044828456 0.041022435

proj.0.bias f4 [128]
00000000: 418b 813e 9af9 d23e b306 b73e d1ae bc3e
00000010: cbd7 753e 1866 733e 1b4c e93d 9d6d 713c
00000020: 649d c63e 2206 d0bd f7c7 c43e 3985 f5bc
00000030: ae4d 233e f331 a23e 166b 453e f98f acbd
00000040: ce75 7a3e 7a66 14bc 96ff bd3e 39a4 64be
00000050: a60c 8f3e 8e12 0f3f 1686 f2bd 11e9 c03e
00000060: 5232 8e3e a4b4 06bd eed3 223e 5aba 0b3f
00000070: e981 813e 7a17 be3d ee30 15bc c237 ba3e
00000080: 3165 ca3e 6759 b93e d2eb a93e c70f a83e
00000090: c430 8e3e 7e30 0d3f 5c18 91bd 05ec f03e
000000a0: 7f60 f93e fb95 d4bd 4481 18bd f87f bf3e
000000b0: e947 623e c113 8fbd d407 e03e fd86 843e
000000c0: 0806 6ebd 2d5d d73d 108f 043d b111 33bc
000000d0: 7533 1c3e 90ae 873e d52c 2d3e 884d b73e
000000e0: e563 893e ffc6 8dbd ef46 483e 00a1 493e
000000f0: ddac 7e3e e188 8dbd 6687 063f 6524 413e
00000100: dc4c c7bd 2d7c d33e b50a 5fbd 474a b03e
00000110: c1d2 a53e 299f f63e e44b 8bbd 96c7 463e
00000120: 870d 9d3e 2bdc 0bbd c7e2 d73e ff73 5abd
00000130: 4e23 86bd 5c04 6b3e 0f59 c5bc c58f 0a3f
00000140: b9b6 38bd afcd e73e 3b6d 12bd 05ae d23e
00000150: 5054 a73e 5d72 d23e acf9 e43e 3e42 9ebd
00000160: 7f85 c8bd 899d 0d3f e6f5 af3e a019 2bbd
00000170: c50c 5bbd d14b d63e 4be1 883e c490 0b3f
00000180: 762d 883e a1ee b63e e449 94bd 47b5 c83e
00000190: b881 9b3e 1169 633e e84c 9d3e d160 663e
000001a0: 3fff 1c3f e8fc c2bd c36a c03e d83b c53e
000001b0: 96bd 453e 4431 d13e 6519 0cbd f606 37bd
000001c0: 7e2e 6abd 6c68 a83e af4c 3d3e 7754 6f3e
000001d0: 30f9 e9bd 0cd4 7e3e c6ef de3e 88ab d73e
000001e0: 1040 df3e 3edc 983e f7f0 9a3e 65d4 863e
000001f0: 9257 b03d 483c e43e 601c 003f 08b9 243e
0.25301555 0.41206056 0.357473 0.36852124 0.240081 0.23769414 0.11391469 0.0147356065
0.38791955 -0.1015742 0.3843381 -0.029970752 0.15947601 0.31678733 0.19279131 -0.08425898
0.24459001 -0.009057635 0.3710906 -0.22328271 0.27939337 0.5588769 -0.11841981 0.37677816
0.27772766 -0.032887116 0.15901157 0.54581225 0.25294426 0.092818215 -0.009105904 0.36370665
0.39530328 0.3620102 0.3318773 0.32824537 0.2777158 0.5515212 -0.07084724 0.4705507
0.48706433 -0.10380169 -0.037232652 0.3740232 0.22097744 -0.0698619 0.43755972 0.25884238
-0.05811122 0.10515819 0.032362998 -0.010929511 0.15254004 0.26500368 0.16911633 0.3580134
0.26834026 -0.06922721 0.19558309 0.19690323 0.2487063 -0.06910873 0.5255035 0.1886154
-0.09731457 0.41305676 -0.05445357 0.3443167 0.32387355 0.48168305 -0.06801584 0.19412073
0.30674383 -0.034145515 0.42165205 -0.05333328 -0.065497026 0.22950882 -0.024090318 0.54125625
-0.045096133 0.45274112 -0.0357487 0.4114839 0.32681513 0.41102877 0.44721735 -0.077274784
-0.09791087 0.55318505 0.34367293 -0.041772485 -0.053478975 0.41854718 0.26734385 0.5451777
0.26597184 0.35728934 -0.07240656 0.39200804 0.30372405 0.22208048 0.30722737 0.2249787
0.61326975 -0.09520894 0.37581453 0.3852222 0.19310603 0.408579 -0.034203906 -0.044684373
-0.057173245 0.32892168 0.18486284 0.23372065 -0.11424482 0.24885577 0.43542308 0.42123055
0.43603563 0.2985553 0.30261967 0.2633392 0.08610453 0.4457724 0.50043297 0.16086209

proj.2.weight f4 [192, 128]
00000000: 1269 c23c 362a 20bd 68d1 993b e6c3 92bd
00000010: 1e78 bdbd 18e8 713d b99d d93d 4986 63be
00000020: 3439 e33c 2588 803e 1d1d ca3d 1206 343d
00000030: f0c2 563d 66dc 123c b458 16bd 2067 763d
00000040: 43e9 99bd 4c0c 363c 03ce e83d 7795 81be
00000050: b004 d1bd b0c2 8d3d 5ef7 52bd e69b b13b
00000060: 2c6f c23c 94dc 5ebe ac26 88bd ea47 143e
00000070: 5ab1 b73d 3b2f a73c f221 4c3e ed03 92bd
00000080: a34b 2fbd 2cfd 84bd ffa1 c93d d551 d13d
00000090: c52b 943c 087c 1abd e294 1abe 8ac5 4dbd
000000a0: dbe3 a03d 10ce c8bd 5b8c 8b3e 38a4 483e
000000b0: 1615 cabc 957a 473e 7181 cf3c 4291 e1bd
000000c0: 581b e9bd 2489 87be 4b48 103e fe5a 263e
000000d0: cc8e d4bd 4748 103d b150 113d 9716 5d3e
000000e0: c31d 8cbd 1f08 913c 7951 f8bd 6927 23be
000000f0: 1115 98bd 4854 0c3c 46ed 4a3d 9457 a43c
00000100: 95f3 603e c92f 13be d6aa 69bd bba4 fcbd
00000110: b546 97bc d05c da3c 2a46 8dbd c5d5 8bbc
00000120: 2688 0fbe 92d6 42be 3e19 24be 62b0 893c
00000130: d375 80bd d2a3 a83d 36b0 3cbd ffbf 38be
00000140: 541b 30be c39d d53c afce cabd 3948 0fbc
00000150: ad86 b2bd b4cc e0bd ca19 7abc 5eaa 08be
00000160: af69 6fbe 7c3e 00be db95 a0bd 77d5 76bd
00000170: 5524 e8bc 888b a73b 97d7 4abd 8779 4bbe
00000180: 22ce 10be 956c 453d 50c1 e6bd ba22 bb3c
00000190: 0673 033d 3ecc ab3d 77ba 393e 7a21 a2bd
000001a0: a366 8a3e 78c9 b3bc 0e24 b4bc 7072 033e
000001b0: 9e18 8bbb bc1e d9bd 9861 683d 52ea d7bd
000001c0: 0777 56bc 5506 f1bd 67e9 1bbe 1f88 5c3d
000001d0: 405c c6bd a43c 3ebe 0560 84bc 5911 173d
000001e0: 6e05 79bc 69ef b5bd 0403 97bd 1a08 9abd
000001f0: d3b3 1e3b 3902 053d 7411 233e 12af 093e
00000200: 0541 83be e64a e13c 5454 89bd 1188 93bd
00000210: a932 553d ae2e 86bd 5388 4dbe 124a 90bc
00000220: 0a24 b5bc dd6f 94bd 0f8b 363c 0c69 653c
00000230: 1fcc 46be d08e 0dbc 6b38 903c 0f84 e73b
00000240: 4b6c e33c 1c60 84bd f4a4 6fbe db21 483d
00000250: b4fb 2f3e 0c00 91bd 9204 f0bb 575a 633c
00000260: 5ac9 50be c266 23bc 7ba2 a93b 374b 1ebf
00000270: 78c2 51be 26c5 b1bd 9295 633d b997 593d
00000280: 7d60 493e 81c7 383e 41c5 30bd fad8 9fbe
00000290: f192 703d 7d07 e2bc d66d f93c a490 733e
000002a0: 036f f3bd 5a61 dfbd 4ecf 3abd e7dc 08bf
000002b0: ba34 c3bd 0500 42bd 2530 2e3c c9f2 623e
000002c0: 2e74 e8bc caca 023f 16ff 623d 948d d3bd
000002d0: dc5e ad3e b705 d0bd 9fae debd c7a0 10bf
000002e0: f874 a93e af78 2cbd dca4 973e 9fea ad3e
000002f0: dcdc febc 5685 c3ba 9ae5 033e d129 d8bd
00000300: 6962 88bc ef99 e43e 2404 953d 8758 8e3e
00000310: 7ac0 da3c c474 5abd 3a02 673d 5063 1ebe
00000320: 8e74 993e 370c ef3c 2013 dd3e b1ca 82bd
00000330: 9da6 d9bc e8e7 9ebe 7129 363d 2408 b83e
00000340: 66f7 ba3c 02f0 083e 9353 c5b9 65a5 d13d
00000350: 5831 f33c 11eb d03d ae99 473e 0a8b 65bc
00000360: 7831 adbd 9262 8c3e a748 a23e 4610 043d
00000370: 7448 003c 0dbc 3ebe 14fb 89be 65de 013f
00000380: 5c0f 563e dd4c 1dbe b094 893d e54a 8f3d
00000390: 79c3 cdbd bf48 56be 4146 02bf 1c08 823e
000003a0: 3bb2 05bf 827f ac3c dd33 513c 4e6c abbe
000003b0: b221 6cbd 5e62 4e3e f488 ac3d ab46 633c
000003c0: ab85 d1bb daf1 5b3e 19fc 1c3e fcdc 16be
000003d0: cdd8 b7bb 13b0 a63e cc55 c43d 2b5d 37be
000003e0: 9d9b 2fbd 3eb8 933e 7339 99bd 23f4 5a3d
000003f0: 81b4 633d 7b69 45bc 5d42 90be 2de0 2cbe
0.023731742 -0.039102755 0.0046941526 -0.07166271 -0.09251426 0.059059232 0.10625786 -0.22219194
0.027737238 0.2510387 0.09868834 0.0439511 0.052432 0.00896368 -0.036705688 0.06015694
-0.07515194 0.01111133 0.113674186 -0.25309345 -0.10205972 0.06921899 -0.05150544 0.005420196
0.023734652 -0.21763831 -0.06648001 0.14480558 0.08969374 0.020408263 0.19934824 -0.07129655
-0.042796742 -0.06493601 0.098453514 0.10220686 0.018087277 -0.03771594 -0.15095857 -0.050237216
0.0785596 -0.09804928 0.2725552 0.19593894 -0.024668258 0.19480355 0.025330277 -0.11014034
-0.113821685 -0.26471817 0.14090078 0.16245648 -0.10378799 0.03522518 0.035477344 0.21590649
-0.06841614 0.017704068 -0.12124915 -0.15933003 -0.07425893 0.008565016 0.049542688 0.020061292
0.21967919 -0.14373697 -0.057047687 -0.12336107 -0.018466333 0.026655585 -0.06898148 -0.017069707
-0.1401678 -0.19027165 -0.16025254 0.016807739 -0.06272473 0.08234371 -0.046066485 -0.1804199
-0.17197925 0.026076203 -0.09902703 -0.008745247 -0.087170936 -0.10976544 -0.015264938 -0.1334624
-0.23380159 -0.12523836 -0.07841083 -0.06026217 -0.028337637 0.005113069 -0.04952201 -0.19870578
-0.14141133 0.048199255 -0.1126734 0.022843707 0.032092117 0.083885655 0.18137537 -0.079165414
0.2703143 -0.021946654 -0.021989848 0.12836623 -0.004244878 -0.10601565 0.056733698 -0.1054274
-0.013089902 -0.11768786 -0.15225755 0.053840753 -0.09685564 -0.1857782 -0.016159067 0.03688178
-0.015199048 -0.088835545 -0.07373622 -0.075210765 0.002421607 0.032472823 0.15924627 0.1344569
-0.25635543 0.027501535 -0.067055374 -0.07203687 0.052050266 -0.06551872 -0.20071535 -0.017613444
-0.022111911 -0.07247899 0.011141553 0.014002096 -0.19413804 -0.008640006 0.017605027 0.007065303
0.027761599 -0.06463644 -0.23402768 0.048860412 0.17185861 -0.07080087 -0.0073247636 0.013876519
-0.2038931 -0.00997323 0.00517684 -0.6183352 -0.2048434 -0.08680181 0.055562563 0.05312321
0.19665714 0.18044855 -0.043156866 -0.31220227 0.058733884 -0.027591461 0.030447882 0.23785645
-0.11886408 -0.1090724 -0.045607857 -0.5346207 -0.09531541 -0.0473633 0.010631596 0.22162928
-0.028375711 0.5109068 0.05541905 -0.10329738 0.33861434 -0.1015734 -0.1087315 -0.56495327
0.33097053 -0.04210728 0.29617965 0.33968064 -0.031111173 -0.0014917057 0.12880555 -0.10554851
-0.016648488 0.44648692 0.072761804 0.27801916 0.026703108 -0.053334013 0.056398608 -0.15467572
0.29971737 0.02918063 0.43178654 -0.063863166 -0.026568705 -0.31036305 0.044473115 0.3594371
0.022823047 0.13372806 -0.00037637036 0.10236625 0.029686615 0.10201085 0.19492218 -0.0140102
-0.08456701 0.27418953 0.31696054 0.032242082 0.007829774 -0.18626423 -0.2694937 0.5072997
0.20904297 -0.15361352 0.06717813 0.06996707 -0.10047049 -0.20926188 -0.5088845 0.25396812
-0.52225083 0.021056894 0.012768713 -0.33481067 -0.05764932 0.20154712 0.08424559 0.013871829
-0.0063941083 0.21478978 0.15330543 -0.14732736 -0.0056105615 0.3255621 0.09586677 -0.17906635
-0.042873014 0.28851503 -0.07481661 0.053455483 0.055592064 -0.012049074 -0.2817563 -0.16882391

proj.2.bias f4 [192]
00000000: 11fc f23c 7a95 5f3c a067 61bd 3316 c2bc
00000010: 723e 663c 023f f4ba cb02 1a3d f51c 983c
00000020: e710 86bd d3b6 213e ba30 c53c 5b08 49be
00000030: b827 f03d cdb6 083c c3f1 04be 0746 6a3c
00000040: ff6b 3e3c 4ada 06bd cdb7 e9bc f682 663c
00000050: eaa1 c43a 3631 cbbc 11a8 c63c 8a33 a4bc
00000060: 22a3 bfbc 0e97 1e3c 3d56 da3b d00b b3bd
00000070: b2f8 46bc 63b2 ce3d 9c1d cbbd d427 0cbd
00000080: f32f 0f3e 6d44 ad3d 52b4 98bc 0897 22bd
00000090: 29cd f03d fd01 fabc d1ff a1bd 5e71 e4bd
000000a0: cc6d 1a3b de89 df3d d5db 9fbc 85c4 23bc
000000b0: f0d3 fa3c 441a 1c3c 075f bd3c b0d5 5ebd
000000c0: 9923 acbd 3a59 4b3c 826c 873d 1003 eabd
000000d0: 0ab9 c2bc a34a 113e fc2f 233d a8c0 10bd
000000e0: e3ad b43c cce1 013e 285c db3a 2bc5 b1bd
000000f0: eb49 38bd f2aa 94bc 0cec c13d 22b4 bdbb
00000100: 4567 02bd a44f 6c3d d43e b63d dd51 34bc
00000110: 9d54 a4bd 474f 0a3e db4f de3c 047c 2cbe
00000120: 9bcc 613d 8a53 3dbb 3dc6 50bd e2b5 29bc
00000130: 304b 05bd cf6f 863d a4fb 513e 86d2 53bc
00000140: 4711 1bbe fd5e 253e 3c7e eebc ab20 cdbd
00000150: 2e23 f6bb 0fa8 eebc ce7d 833d 9a91 d4bd
00000160: 4638 9bbc 3b87 213e 5d76 1f3d acbc 213c
00000170: ebc7 0ebd ba94 d1ba d81c 8a3c aa52 babc
00000180: cf1c ba3d 54cf de3b 6c29 c7bd 5fdf 453e
00000190: 2b21 a3bc f8ae 17be 8c80 87bd ecd4 d6bc
000001a0: 661f 033e cebe e73d 9770 f4bc c214 4ebd
000001b0: f6fa 5dbd 548d f5bc c463 e83d c792 4b3c
000001c0: 70ad 51bc ef8c 153d 31d3 24be f197 97bb
000001d0: 4c29 3c3e fc5e 1fbe 7ffc 003d 162b e63d
000001e0: 53b6 843c 4519 d63c f4dd 43bd 637c b3bd
000001f0: 501f 26bc 6f6b d73d 2ed9 6f3d 94d7 13bd
00000200: 00ee 0e3b 3623 1ebe 02dc 3abc 7dd4 4c3e
00000210: 2b99 373e 48a3 d3ba ca93 0fbe 0630 da3d
00000220: 5cdf 15bd 1209 3bbd d677 25bb 35c0 a9bb
00000230: f719 a43b 7692 13bd 3ed2 983c 7d35 6a3b
00000240: 3c3f a7bc 7e1c 393c 44ba 11bb 1887 37bc
00000250: 01d6 0abc 3bf0 b73c f2a3 ae3c 18f4 8abc
00000260: 73d4 373b 65b6 c43d 02ab 7ebc f9da 7cbd
00000270: caa9 27ba bcb7 86bc b7ad 283d 1e6c 3b3e
00000280: 344e 05bc 3bee 33be fac4 553d 242d 62bc
00000290: 992a 14bd 1995 4e3c d01b 3b3c 488b 13bd
000002a0: 97f1 e2bc 7751 983c 676e 02bc 7113 87bd
000002b0: 274c 653c 76d3 253d 1a43 3cbd 5c34 f63c
000002c0: 8600 163c d6a4 abbd 8728 8b3c 2cba 713d
000002d0: fca8 39bd 6b3f 813c 70b5 fd3c 3717 b23c
000002e0: 8f92 f43c 536f 84bd 823e 153d 8057 7f3c
000002f0: 5294 88bd abcd 69bd d6f8 bb3c be4e 993c
0.02966121 0.013646478 -0.055030465 -0.023692226 0.014052974 -0.00186345 0.03760032 0.018568495
-0.065461926 0.15792398 0.024071086 -0.19632094 0.11726326 0.008344364 -0.1298285 0.014298922
0.011622428 -0.03292302 -0.028530026 0.014069309 0.0015001867 -0.024803739 0.024250062 -0.020044107
-0.023393217 0.009679569 0.0066631124 -0.087424874 -0.0121442545 0.10092618 -0.09917757 -0.03421767
0.13983135 0.08460317 -0.01864067 -0.039694816 0.11757881 -0.030518526 -0.07910121 -0.111544356
0.002356398 0.10914968 -0.019514004 -0.009995584 0.030618638 0.009527747 0.023116602 -0.054403007
-0.08405227 0.01241141 0.06612493 -0.114263654 -0.023769874 0.14188628 0.039840683 -0.03533998
0.022055572 0.12683791 0.0016735839 -0.08680185 -0.04499237 -0.01814792 0.094688505 -0.005789296
-0.031836767 0.05769314 0.08898702 -0.011005846 -0.08023951 0.13506804 0.027137687 -0.16844183
0.055126768 -0.0028888904 -0.050970305 -0.010358306 -0.032542408 0.065642945 0.2050615 -0.012928611
-0.1514331 0.16149516 -0.029112928 -0.100159965 -0.007511518 -0.029132871 0.0642048 -0.10379334
-0.018947732 0.15774243 0.03893124 0.009871643 -0.034858625 -0.0015989759 0.016859457 -0.022744495
0.09087526 0.006799618 -0.097246975 0.1932349 -0.019913277 -0.14812839 -0.06616315 -0.026224576
0.12804946 0.1131569 -0.029838843 -0.050312765 -0.054194413 -0.029974617 0.11347154 0.012425131
-0.012797698 0.036511358 -0.16096188 -0.004626267 0.18375129 -0.15563577 0.0314908 0.11238687
0.01620022 0.026135096 -0.047819093 -0.08763959 -0.010139301 0.10518538 0.058556728 -0.036094263
0.002180934 -0.1544312 -0.011404993 0.20002933 0.17929523 -0.0016146684 -0.14021221 0.10653691
-0.036589965 -0.045662947 -0.002524843 -0.0051803836 0.005007978 -0.036028348 0.018654939 0.0035737448
-0.020415895 0.011298297 -0.0022236267 -0.011201642 -0.008473874 0.022453418 0.02131841 -0.016962096
0.0028050214 0.096051015 -0.015543701 -0.061732266 -0.0006395845 -0.016445033 0.041181292 0.18302962
-0.008136321 -0.17571346 0.052189805 -0.013804708 -0.036173437 0.01260879 0.011420205 -0.0360215
-0.02770309 0.018593533 -0.007960892 -0.06595505 0.013995207 0.040484868 -0.04596243 0.030054264
0.009155398 -0.08381049 0.016987098 0.059015438 -0.04532717 0.01577731 0.030970305 0.021739585
0.02985504 -0.06466546 0.036436565 0.0155848265 -0.06668915 -0.057080906 0.022945803 0.018714305
