EWOthello/KLiScripts/KLi_Paper_Checkpoints/state_tl256_championship/layer8/checkpoint.ckpt (torch, 724499 bytes, 4 tensors)

proj.0.weight f4 [256, 512]
00000000: e1e8 b0bc 113a 0abe dc6e cabc 2722 c0bd
00000010: b9e9 ab3a 63f5 8dbc b2c2 ae3d 52d9 3f3e
00000020: 5e76 56be 145f 8e3d bbd4 f2bc c0e8 003e
00000030: e3a9 01be 2d49 fd3d 0eeb 703d b5e9 0fbe
00000040: 3090 bbbd 8b3d 15be 16da 523d 314b 86bd
00000050: 6c5c ce3d 57a2 153e cb3c cbbd 6891 e1bc
00000060: 7f43 79bd be32 17bc 417e 72bd 9655 0abe
00000070: 54bb 41bd 26a6 773b 1db2 d93d 8a0b 1abe
00000080: 6d80 f4bc 24d2 fabb d885 9dbd dc48 403e
00000090: 6794 82bd f920 1bbd 1fe2 eebc 316f 293e
000000a0: 74e1 babd c6f3 133e 76b2 e1bc 5e87 e0bd
000000b0: 9a98 9ebd 5be4 8f3d bc74 1a3d 4fb3 953d
000000c0: 2aeb eb3d b123 efbc 4168 f93d f047 f0bc
000000d0: f770 89bd 37c5 fabc 78d5 153d 15ca d83c
000000e0: e0ea febd bdcf 19bc ec4b 70be 18c3 a83d
000000f0: ec02 d13d dd07 06be 439e be3d b5de 13be
00000100: 3a62 11be 03be 37be 341c 3e3e 38f9 d3bd
00000110: 84ce 3b3d 4b44 e43d c7df 92bd 66f6 e5bc
00000120: 68a2 683e 5b71 04bd f833 38be 5f72 9d3d
00000130: 92d4 7bbd ca1d 72bc f6bf db3d 9614 053e
00000140: f14d b5bc d4eb 8c3d 82a1 973d 330e fabd
00000150: eeef 3fbe a125 4abe 2a10 bb3d 1e73 a53b
00000160: 13aa 4f3d 5fe4 5cbe 0d57 503e c875 1b3d
00000170: 63b4 333d c3de 16be 59da 2fbd 7283 3d3d
00000180: 594a 3cbd 9ffc dcbd e29e 58bd ae9f e23d
00000190: 3c90 8b3d 8754 c33d 98ce 8b3c 3bf9 aabd
000001a0: 9ed5 173d 8193 64bb 74a6 283d 969d 623d
000001b0: aab5 4b3d 5e25 4cbe 95c6 093e 42b8 2a3e
000001c0: 79e3 563e fb3f 7f3d 9c30 cfbc 6edd edbd
000001d0: 9329 3cbe 51a3 d13d 7750 beba c0d2 883d
000001e0: fa9c 82be 624e 833c addc 49ba 4655 ee3d
000001f0: ea24 c2bd 9c81 ed3c e5a6 42bd 3b12 6d3e
00000200: 366a 10be 7a28 07bc 2290 b5b7 d0a0 2dbe
00000210: 4205 b33d a975 c83d 1a28 b03c 3ccc aabc
00000220: cc84 55bd 28bb 83bd 2da3 10be fdbe 24be
00000230: 82ba 8fbe 0345 723d 383b 24be 701c e6bc
00000240: 57e4 c7bc 9573 ca3d cad2 fcbd 0e3b c4bd
00000250: e895 1e3d e2c5 683c 249b c4bd 5a04 39be
00000260: f2ee 063e e53a 15be 8601 40be 5cda 63bd
00000270: dc22 20b7 5e79 9a3d cc3b 3b3e cc70 f5bd
00000280: 3d07 eabc a3ba 49be ca4b a5bd f072 013e
00000290: b85d 3dbe 2e44 213d 9fac 6fbe f113 b2bc
000002a0: 36c3 00be a907 443e 75b7 e73d 9c20 2c3d
000002b0: c5b4 5a3e d950 babd e966 bcbc 0cd0 143e
000002c0: 7cda 823e b96d 90be 1013 dcbc 8b55 5e3c
000002d0: 9840 37be bea2 ad3d ea2a 463e 1c1a 43be
000002e0: 4979 1d3d 52c9 bd3d 4bce b4bd 6f6d 393d
000002f0: 2217 2fbe b714 413d fb8b 0a3e dda4 1f3d
00000300: 958f 333d d516 293d 5ed1 4ebd e43f 5e3d
00000310: ed7b 633d 1d66 eebc 02ad 373d ce57 47be
00000320: e307 82bc 0f51 0e3d d750 dd3b 2b7d cfbd
00000330: f5ac 963d 20bb 4ebd ed0d da3d 32da 3f3e
00000340: fefc 20be 3634 58bc 7bd5 8cbb 81ad 073d
00000350: b907 14be 9b16 dc3d 2d97 57be 8d3c 68bd
00000360: 8ead 133d 7a98 1d3d 2019 0ebe 73c0 bb3c
00000370: 32ae 7f3b 3be3 b13d cbc2 063d 1e6a 09be
00000380: 3b89 38bd 64f6 003e e449 b3bd e0e1 a73c
00000390: 8972 e23c baed bf3d 6919 aa3c d5af 8c3d
000003a0: 69b6 8bbd 44f0 663e 9626 27bd 710f 88bd
000003b0: b8ee d33d b47d 0c3d f314 1dbd 0a5f 9dbd
000003c0: 2c05 02be d71e f03d dc4b 25bd 2bc5 9f3d
000003d0: 53e7 203e 0e36 1a3c 462f 81bd 531b 543e
000003e0: 5de6 123d e60d 903d 9546 7cbd 5852 7bbd
000003f0: a566 72bd 456c 08be d6ac 06be f2b2 19bb
-0.02159542 -0.13498713 -0.024711065 -0.09381514 0.001311592 -0.017328924 0.08533229 0.18735245
-0.20943591 0.069517285 -0.029642453 0.12588787 -0.12662463 0.12367473 0.058817916 -0.14053996
-0.09158361 -0.14574258 0.051477514 -0.065573104 0.10076222 0.14612709 -0.09923705 -0.027535155
-0.060855385 -0.0092284065 -0.059202436 -0.13509211 -0.04729779 0.0037788241 0.106296755 -0.15043464
-0.029846394 -0.0076544452 -0.07691544 0.18777794 -0.06375962 -0.037873242 -0.029160557 0.16546322
-0.09125033 0.14448461 -0.027550917 -0.10963319 -0.0774395 0.07025977 0.037708983 0.07309591
0.11519463 -0.029191824 0.12178088 -0.029331177 -0.067109995 -0.030611617 0.036580533 0.026463548
-0.124471426 -0.009387908 -0.23466462 0.08240336 0.102056354 -0.13088937 0.0930753 -0.14440425
-0.14197627 -0.17943577 0.18565446 -0.10350269 0.045851246 0.11145838 -0.071715884 -0.028071593
0.22718203 -0.032334667 -0.17988575 0.0768783 -0.06148202 -0.01477761 0.10729973 0.12996134
-0.022131892 0.06880918 0.07403852 -0.122097395 -0.1874387 -0.19740917 0.091339424 0.0050491234
0.050699305 -0.21571492 0.20345707 0.03795412 0.043873202 -0.14733414 -0.042932842 0.046267934
-0.04596934 -0.10790371 -0.052885897 0.11065613 0.0681462 0.09537607 0.017066285 -0.08348318
0.037068956 -0.0034877958 0.041174367 0.055326067 0.049733795 -0.1993613 0.1345466 0.16671851
0.20985211 0.062316876 -0.025291733 -0.116145 -0.18375234 0.10236228 -0.001451983 0.06680822
-0.2551039 0.016028587 -0.0007700425 0.11637358 -0.09479697 0.028992467 -0.047522444 0.23151486
-0.14103016 -0.008249396 -2.1643998e-05 -0.16955876 0.08741237 0.09788067 0.021503497 -0.02084934
-0.052128598 -0.064321816 -0.14124747 -0.16088481 -0.28071982 0.059147846 -0.16038215 -0.028089732
-0.024400873 0.09885327 -0.12344892 -0.09581576 0.03871718 0.014207335 -0.09599903 -0.18068066
0.13177088 -0.14573248 -0.18750581 -0.055628166 -9.5448595e-06 0.0754268 0.1828453 -0.11984405
-0.028567905 -0.19700103 -0.08071096 0.12641501 -0.18492782 0.03937166 -0.23405693 -0.021738024
-0.12574467 0.19143547 0.113142885 0.042023286 0.2135802 -0.09097452 -0.02299829 0.14532489
0.25557315 -0.28208712 -0.026864558 0.0135702 -0.17895734 0.08478306 0.19352308 -0.19052929
0.038445745 0.092669144 -0.0882841 0.04527038 -0.17098668 0.047138896 0.13529961 0.038975585
0.043838102 0.04128154 -0.050492637 0.05426015 0.055538107 -0.029101426 0.044842727 -0.19467089
-0.015872901 0.034745272 0.0067540216 -0.10131296 0.07357208 -0.050471425 0.106471874 0.18735579
-0.15721509 -0.013196042 -0.00429791 0.03312445 -0.14456071 0.10746499 -0.21053763 -0.05669837
0.036054187 0.03847549 -0.13876772 0.022918915 0.003901374 0.08685919 0.032900613 -0.13419387
-0.04505275 0.1259399 -0.08754328 0.020493448 0.027642505 0.093715146 0.02076407 0.06869475
-0.06821901 0.22552592 -0.040808283 -0.0664357 0.10348266 0.034299567 -0.038350057 -0.07684143
-0.12697285 0.11724632 -0.04035555 0.07801279 0.15713243 0.009412302 -0.06307845 0.20713548
0.035864223 0.07033901 -0.06159075 -0.061357826 -0.05917992 -0.13322552 -0.13151869 -0.0023452607

proj.0.bias f4 [256]
00000000: 3fcb 0f3e 7ebb e33c 35c6 483f 14ae 863e
00000010: 3af4 b03d 5562 c03d afb2 053f 9945 7abf
00000020: e8e3 8cbe eaa9 083f 7371 bc3d 710c 4fbf
00000030: 4c57 c83e 0371 4ebd c2f3 b73e dcde 5f3e
00000040: c532 db3e 2695 b23e 5c92 b23d 042c eeba
00000050: 5975 5dbd 0961 0c3e 9673 f83e a313 263e
00000060: e952 9abe 187c 8c3e 4b5c 073f ae40 48bf
00000070: f22d 93bc a830 1c3d 50a3 47bd 0988 c9bd
00000080: ac06 4d3f 8554 d63e 5843 db3e 118e b33e
00000090: 6e89 bc3e ffa8 043e 99da 0d3f 9140 c63e
000000a0: 4b30 18be be4a bd3e 1fb5 c83e 32a4 543e
000000b0: fdbd e7bd a5c2 cabd ce0e 04bf d017 ab3e
000000c0: e948 e53e 0b67 a8be 27f7 03bf fdd9 173f
000000d0: a874 783e 7cea c7bd d078 0a3f 5234 9b3e
000000e0: 9202 d83e a659 ef3e e4bf 833e 4331 9f3d
000000f0: 6dd2 f73e f7f5 003e df16 003f ef93 fc3d
00000100: 7904 073f 39d3 aa3e cc80 823e fa72 18be
00000110: f066 493d 9ae3 babd 88e9 1bbe 6fe0 dc3e
00000120: 44dd c13e 81cd 29bf 00a2 cc3e 26b7 363e
00000130: e436 04bf 5807 c83d d784 cf3e f686 f53e
00000140: 7cdd 093f aee7 333d b8bd c13e f189 0ebf
00000150: 4410 a23e 271d 743e 3d8f 1ebf be8f f1be
00000160: 4a8d 25bc 0023 0b3f fb33 0ebe 6d00 0cbe
00000170: a101 5dbe e47e 89be 80d4 9d3e 6386 aa3e
00000180: eb38 b43e 7879 41bf be0c 6e3e fe6c 0abf
00000190: d9e1 983e abea a5be 768c eb3e d01d d33e
000001a0: 00c2 f23e aa59 c2be 89bc 22be 1e73 28bf
000001b0: ded3 023e 0c6a 0e3f 0cf8 a1be 2908 0bbe
000001c0: a863 f1bd d67b 6cbe 2d0a f23e dee5 883c
000001d0: cbf8 e83e 5e26 90bd b19c 8ebe c81b 3d3e
000001e0: 07cd f33e 4437 f13e a338 4b3f f46d 52be
000001f0: def7 47bf 3b92 9f3c 9044 82bd abad be3e
00000200: ab19 8f3e d33f 0cbe 40e7 2a3f 1062 e73e
00000210: d92f 1b3f bc4a 0d3f 6953 873e 5812 8c3e
00000220: c1cd 2abe a193 fe3d 8f15 9dbe 11f4 dabe
00000230: 0ba1 d33e ea50 00bf 9c11 e23e 1897 83bf
00000240: 8c95 403d c6c8 9ebe b961 ca3e c64a 773d
00000250: 7374 47bf 9880 47be 00e7 c13e a74b 783e
00000260: bb2e 54bd d99c a5bd 8247 e73e 752f a23c
00000270: e98e 093c b952 fabd 0e1b a8bd 8e4a 36be
00000280: 058e b43d bf24 d13d 4a26 32bf a482 9b3e
00000290: f89d 223e 47b8 a93e 8974 d6bc 6362 95be
000002a0: 3cc8 563e 44b7 d5be 4801 81be f3b6 42bf
000002b0: b939 0b3f 696b e33e a5db 183f e10c 203e
000002c0: 80c0 3b3e 6db4 a13e 47e1 f9bd a8ef 083e
000002d0: 2846 8bba 4a02 583e b495 c3bd e7a7 df3e
000002e0: b7a3 823e 0abc 6ebf d010 76be c2fa da3d
000002f0: 184b ee3b 2272 993d 2a78 803e 3a63 363d
00000300: dafa b83e be29 26bf 5917 ed3e 430f 3fbe
00000310: b0fd b3bd b8bb d0bd 9f24 dc3e bf11 db3e
00000320: 8966 043f 9e7d 883e 5498 3ebe 729a 8abe
00000330: 3542 203e 36b0 553e 49ab 003d 0a82 e03e
00000340: 19f2 b83e 7b49 e83e 1e86 9b3e 8804 b2be
00000350: 80cd 4f3e 1a0f de3e 49d8 13be a743 003f
00000360: d783 a8be a157 06be d85d ebbd dbeb 46bd
00000370: 3b56 983e d712 a2bc 0318 15bf 804f dc3e
00000380: bf46 d13e 907e 8b3d cbee bdbe 774c 53be
00000390: 6c9e 08be a5d9 b83e 817e 03be 2e52 be3e
000003a0: 6079 f73e bb4b aa3e c56b 43bf 9d3b 303e
000003b0: 15d9 54bd d05f 953e c8e1 8cbe 4cd6 ee3e
000003c0: e0c5 a23e e483 70bd 3959 7f3e d55a 033f
000003d0: ee8b 53be dc38 0a3f d7f4 68bf 40ef be3e
000003e0: 4ae5 273e 3a2f f6bd 891f 6ebd b48a 9f3e
000003f0: aeda c13c 32b2 c7bd 1084 333f 350f 173f
0.14042376 0.027799364 0.7842744 0.26304686 0.086403325 0.09393755 0.52225775 -0.9776245
-0.2751763 0.5338427 0.09201326 -0.8087836 0.39129102 -0.050400745 0.3592816 0.21862358
0.42812172 0.34879416 0.08719322 -0.0018171077 -0.05406699 0.13708891 0.48525685 0.16218428
-0.3014138 0.27438426 0.528752 -0.78223693 -0.017966244 0.03813234 -0.04873973 -0.098404
0.80088305 0.41861358 0.42824817 0.35069326 0.368236 0.12955092 0.5541168 0.38721135
-0.14862172 0.36971086 0.39200684 0.2076576 -0.11315534 -0.09900407 -0.5158509 0.33416605
0.4478219 -0.32891116 -0.51549 0.59317 0.24263251 -0.09761521 0.54090595 0.30313355
0.4218946 0.46748084 0.25732338 0.07773068 0.4840273 0.12593828 0.500349 0.123329036
0.527412 0.33364275 0.2548889 -0.1488761 0.049170434 -0.09125443 -0.15225804 0.4313998
0.37864125 -0.663292 0.39967346 0.17843303 -0.51646256 0.09767026 0.40531036 0.4795453
0.53853583 0.04392212 0.37840056 -0.5567923 0.31653035 0.23839246 -0.61937314 -0.4717998
-0.010104487 0.5435028 -0.13887016 -0.13672037 -0.21582653 -0.26854622 0.30826187 0.33305654
0.35199675 -0.7557597 0.23247048 -0.5407256 0.29859808 -0.324056 0.460056 0.41233683
0.47413635 -0.37959033 -0.15892233 -0.65800655 0.12776133 0.55630565 -0.31634557 -0.13577332
-0.11786586 -0.23094115 0.47273389 0.016711172 0.45502314 -0.07038568 -0.2785392 0.18467629
0.4761736 0.47112477 0.79383296 -0.20549756 -0.7811259 0.019478908 -0.063607335 0.37241873
0.2794927 -0.13696222 0.6675911 0.45192003 0.60619885 0.5519216 0.26430824 0.27357745
-0.16680051 0.12430502 -0.3068051 -0.42764333 0.41333804 -0.50123465 0.4415406 -1.0280485
0.04701762 -0.31012553 0.3952768 0.060374044 -0.7791206 -0.19482648 0.37871552 0.24247609
-0.05180238 -0.08086557 0.45171744 0.01979802 0.008395889 -0.12222809 -0.08208285 -0.17801878
0.088161506 0.10212087 -0.69589674 0.30373108 0.15880573 0.33148405 -0.026178615 -0.29176626
0.20974821 -0.41741383 -0.2519629 -0.7606041 0.5438495 0.44417885 0.5971015 0.15629913
0.18335152 0.31582966 -0.12201171 0.13372672 -0.0010625767 0.21094623 -0.09550038 0.43682787
0.2551553 -0.93255675 -0.24029851 0.106923595 0.0072721355 0.07492472 0.25091678 0.044528224
0.36128885 -0.64907444 0.46306875 -0.18658166 -0.087886214 -0.101920545 0.4299669 0.42786977
0.51718956 0.26658338 -0.18612796 -0.27070957 0.15650256 0.20868 0.03141335 0.43849212
0.36122206 0.4536856 0.3037576 -0.34769082 0.20293236 0.43370897 -0.14437975 0.5010323
-0.32913086 -0.13119365 -0.11492509 -0.048564773 0.2975329 -0.019784374 -0.58239764 0.43029404
0.40874287 0.06811249 -0.37096247 -0.20634638 -0.13341683 0.3610355 -0.12841226 0.37172073
0.4833479 0.33260903 -0.7633632 0.1721024 -0.051964838 0.29174662 -0.27516007 0.4664787
0.31791592 -0.05871953 0.2493638 0.51310474 -0.20658848 0.5399301 -0.90998596 0.37291908
0.1639606 -0.120207265 -0.058135543 0.3116051 0.023663845 -0.09750785 0.70123386 0.5900758

proj.2.weight f4 [192, 256]
00000000: d99a 423d 172d d93e f760 1fbe 2bda bfbc
00000010: 87fe 083e fe80 6cbd 4e92 5fbd 8ef2 0dbe
00000020: 5330 abbc f9a0 8b3d 8288 b8be a0c7 4fbb
00000030: 3814 28bd 5fc1 783d a722 0d3e 4321 aebd
00000040: af96 923c 5b27 a2bd cd7e 0fbe 3d3c 283e
00000050: 2ac9 dabd 8073 01bd dc4e 9fbd 6eef b8bc
00000060: 11a0 80bd 6af2 023e 49c2 ee3c 38b0 60bd
00000070: 492f 31bd 841b f93d c05f a1be ada5 133e
00000080: df1b 05bd 6970 4dbe 451d 213e a9a1 4cbd
00000090: 6925 8b3d ff8b 953d b3f8 1d3e f918 41be
000000a0: afb7 54bd d25a 02be 5651 29bb 964b e53d
000000b0: 1c28 c2be 65df dbbc 9226 553c 3e4d 6bbd
000000c0: 1c57 96bd 0af3 103e dff3 d1bc 1d21 883c
000000d0: fdc6 96be 5a16 45bd 246d bdbc a0ec e5bc
000000e0: 40cb eebd c1f8 a03c 45d5 b4bd 5fb1 34bf
000000f0: b5ff 9abd 3f94 24be c4b2 80be 49b8 443e
00000100: 4d0b f5bc 3b58 19bd 3723 8dbd a8b9 0cbe
00000110: b458 3e3e 9b79 d53e c69a 983c 101f d83b
00000120: a3c0 19bc 6e39 813c 22fe aabd d518 d13e
00000130: 9b26 9fbd 4525 5cbd 6e05 933c 15dd c3bc
00000140: f74f 93bc fa56 c6bd bf50 983b 7dcf 023e
00000150: 3d40 873c fbb9 50bc a596 12bc b450 cfba
00000160: 1281 1abd 308b 1b3c 4573 cbbc 05f6 69bb
00000170: 26fa c0bd 60fb edbd ce56 293e a77a 4a3d
00000180: c24a 2fbe 908c 47be 9786 033c a947 0c3d
00000190: b40a 15bb f463 e23d b02e 7e3d 1205 5dbd
000001a0: 46c5 d63d c2e4 b53d eba4 0fbe 3aa5 91be
000001b0: d8c7 d33d 1215 c1bd e318 aabd 848e 193e
000001c0: d7db 843e bf2e 36bd aec8 cd3d d5e3 92be
000001d0: 48b2 a13c 56c8 78bd c600 51bc 06d7 0c3d
000001e0: b0ec ad3c 36bd 2abe 6afb dcbd 93db 09be
000001f0: 6308 c2bd ee0c d5be a745 9d3d daed a3bc
00000200: 0b32 73bd 94cd 47be 9a80 90bc 3f75 bdbd
00000210: 9768 67bd fa25 3fbe d4f4 adbc ba90 423d
00000220: 4c6a 143d 61ce 25be c30d 77bc 3538 88bd
00000230: a604 17bd 7603 82bd 083b 1cbe 1878 83bd
00000240: 24ce c63e 0ff7 acbc 7ced 1c3e d154 c73d
00000250: d888 33bd 9500 afbb aecf f23d a6e3 013e
00000260: 538e 8abd d57a e4bd ef47 783d d6fd 39bd
00000270: 7ff2 64be 83a7 3b3d debf a03e 357f 34bd
00000280: d8fb 1fbf c453 dc3c 0774 2bbd 2e0b 8cbd
00000290: 65e4 c53c d2da 0b3c 34db ad3d 64e9 2a3c
000002a0: 34c3 56bd 6113 c5bd 0175 d93c 9f72 513d
000002b0: 81d1 073d 4076 f3bc 80bc ca3d 5236 a1bc
000002c0: 7367 163d 808f 16be 4241 0c3d 6598 84bd
000002d0: e25d 67bd a495 d33c 1520 4a3e 0e36 e23d
000002e0: 80f2 52be 9f5f b33d 4e36 13be 0628 a53d
000002f0: 8b89 493e 449f 1f3b 9e81 1e3d 587b cd3e
00000300: 8fca aeba fbbb 8f3d 1682 463c 782b 80bd
00000310: 6430 b53c e76b 87bd 1bb6 d3bc 737e 623c
00000320: 69c4 8fbd afae 173d fb94 ee3d 6c64 53be
00000330: 4e45 b2bd b760 20be f523 a23c b30f 78bd
00000340: 728b 9f3d 2209 51bd 538f 10be 532c 95bd
00000350: 8ee2 6ebc 60bb 4e3d 159b 38bd 72ce dcbd
00000360: f094 04be d628 bb3b e635 75bd 7832 ecbd
00000370: 6fac 013c e0f7 84be e02f a6bd 58d4 09bc
00000380: a7d5 89bd 256b 93bd c5d3 48bd f284 053e
00000390: 0bef c5bd 7de1 c6bd 26d8 573d cc5a 31be
000003a0: e3e1 9cbd b58a b1bd 99ae d3bb d83a 81bd
000003b0: 3460 a7bb ad63 84bb 239e 0cbe 4fbe 1d3d
000003c0: f310 543d 4682 35bc 7a58 e63c 9c39 d6bd
000003d0: 2367 ac3c b63c a4bb 2bd2 17bd 01ab 2a3e
000003e0: 7f05 5fbe 8f89 05be 60b0 5a3e 33be b8bd
000003f0: d821 46bd b08b dabd dcae 933c 3f9c bcbd
0.047510955 0.42417213 -0.15564333 -0.02341946 0.13378344 -0.057740204 -0.054582886 -0.13862059
-0.020897066 0.068178125 -0.36041647 -0.003170468 -0.041034907 0.060731288 0.1378275 -0.08502438
0.017894117 -0.07917663 -0.14013214 0.16429229 -0.106829 -0.03160429 -0.07778713 -0.022575106
-0.0628053 0.12787786 0.029145377 -0.054855555 -0.043257985 0.12163451 -0.31518364 0.14418669
-0.032497283 -0.20062412 0.15733822 -0.04995886 0.06794245 0.07302093 0.15426902 -0.18857183
-0.051932987 -0.12729958 -0.0025835834 0.111960575 -0.37921226 -0.026839921 0.013009684 -0.05744671
-0.073408335 0.14155212 -0.025628982 0.016617352 -0.2944869 -0.04811702 -0.023123331 -0.028066933
-0.116598606 0.019649865 -0.088297404 -0.70583147 -0.075683035 -0.16072176 -0.25136387 0.19210924
-0.029912615 -0.03743766 -0.06891482 -0.13742697 0.18588525 0.4169434 0.01862849 0.0065955
-0.009384307 0.015774455 -0.08349253 0.40839258 -0.07771035 -0.05374648 0.017946925 -0.023909131
-0.017982466 -0.09684558 0.0046482976 0.12774463 0.016510123 -0.012739654 -0.008947049 -0.0015816898
-0.037720747 0.009493634 -0.024835238 -0.0035699618 -0.09422712 -0.116202116 0.1653702 0.049433377
-0.17118362 -0.19487214 0.008027694 0.034248028 -0.0022741975 0.11054221 0.062056243 -0.053959914
0.10486846 0.08881523 -0.14027755 -0.2844637 0.103408515 -0.09427847 -0.08305528 0.14995772
0.25948974 -0.044478174 0.10048042 -0.28689447 0.019738331 -0.06073793 -0.012756532 0.03438475
0.021231025 -0.1667374 -0.10790141 -0.13462667 -0.09474256 -0.41611427 0.07679301 -0.020010877
-0.059373897 -0.19512016 -0.017639447 -0.092508785 -0.05649623 -0.1866683 -0.021234907 0.047501303
0.036234185 -0.16192009 -0.015078965 -0.06651346 -0.036869667 -0.06348316 -0.15256894 -0.064193904
0.38829148 -0.0211139 0.15324968 0.09732974 -0.043831676 -0.0053406456 0.11856018 0.12684497
-0.067654274 -0.11156241 0.060615476 -0.045408092 -0.2235813 0.04581405 0.31396383 -0.044066627
-0.6249366 0.026895411 -0.0418587 -0.0683807 0.024156759 0.008536058 0.08489075 0.010431621
-0.052432254 -0.09622837 0.02654505 0.0511347 0.033158783 -0.029719472 0.09899235 -0.019679222
0.03671975 -0.14703178 0.034241922 -0.064743795 -0.056486018 0.02582819 0.19738801 0.11045466
-0.20600319 0.08758473 -0.14376184 0.080642745 0.19681375 0.0024356404 0.03869783 0.40133166
-0.0013335514 0.07018276 0.012115976 -0.06258291 0.022117801 -0.066123776 -0.02584367 0.013824093
-0.07019884 0.037031826 0.116495095 -0.20643777 -0.08704625 -0.15661894 0.019792536 -0.060561847
0.07790269 -0.0510341 -0.14117174 -0.07283845 -0.014580382 0.050471663 -0.045069773 -0.10781564
-0.1294744 0.005711655 -0.059865855 -0.11533064 0.0079146465 -0.25970364 -0.081146 -0.008412443
-0.06730204 -0.071981706 -0.049030084 0.13038996 -0.096647345 -0.09710977 0.05269637 -0.17319793
-0.07660272 -0.086690344 -0.0064600226 -0.06310052 -0.005107904 -0.0040402026 -0.137322 0.03851157
0.051773977 -0.011078423 0.02811836 -0.10460207 0.021045273 -0.00501212 -0.037065666 0.16666795
-0.2177944 -0.13040756 0.21356344 -0.090206526 -0.04837212 -0.106711745 0.018027715 -0.09209489

proj.2.bias f4 [192]
00000000: 21de 5dbb 8c53 d43c b6ae 21bd 4605 debb
00000010: e443 3d3d 2866 43bd efc6 293d da07 48bd
00000020: 9c5a 61bc 73a2 233c 64a7 04bd c2eb 103c
00000030: 83d8 4e3b 823f a9bd 6e59 2f3d 12bd 223c
00000040: 8099 b5bd 0a20 333d a57f 79bd 43dd 7a3d
00000050: 8f03 82bc 3fb6 c4bc aee7 0c3c 468e 0bbb
00000060: 945a 09bd 791a 7c3d 3438 1fbd 95de 213d
00000070: 0c2b 543c 43c7 8dbd 9ca6 a83d 7ea6 3bbe
00000080: 1b0a 8f3b 2c19 033e 2766 64be 4e88 28bc
00000090: 0750 e53d fa12 31be f592 8ebc 8e5f a43d
000000a0: bfd2 94bd b8ff 00bd d1f5 0fbc d9b5 593b
000000b0: d7e9 46bc e4bf 08bd 7a43 183d 6e1d a2bc
000000c0: 40b3 743d 424c 08be 14da 9d3c ff9b 8f3d
000000d0: 870c ddbd 724f 63bc 956d ca3d 0fbe 7ebe
000000e0: ea4e 0a3c 76d8 8e3d c3fa fbbd 2c8c 8fbb
000000f0: 0e19 4f3d f419 0fbe 0f2d d03c e721 763d
00000100: 486d 64be 5207 553d 5c71 323d a371 c2bd
00000110: cc87 523c 6c50 333d c84c 8ebd 62b3 8dbb
00000120: b923 013d 91d9 8cbd 2d07 5e3c 6b44 933d
00000130: bb38 47be bd43 d83c 4a51 733d 8bc5 2dbe
00000140: 71ae 853c 0d19 543d 8b14 cbbc 6dd7 51bb
00000150: 9784 6e3d 41d8 c3bc 857d 35bc 7d92 243d
00000160: 75c8 1ebe efec 143d 9681 9b3c 379e 41be
00000170: 875d 993d 18f7 463d b5a7 c9bd 4314 173c
00000180: 8231 0f3d e682 eebd d2fb 283d 9dec 923c
00000190: 397d 05be ed5f 733d 82a4 053d 64a9 0abe
000001a0: c81d 333d 80ff 9a3d c204 cbbc 5264 e7bc
000001b0: 2d87 4b3d fdd8 ccbc 94bd 173a c7e9 1c3d
000001c0: 7c31 2cbe ecff 303d dd93 8d3c b292 67be
000001d0: 1f57 b53d 722a 5c3d da0d 2bbe daac 4b3d
000001e0: f7e6 0a3d e19e d1bd 2e0c d63c 0b1b 173d
000001f0: 031d aabd 7c27 863c 2779 af3d 18b2 6bbe
00000200: 8384 da3c bade 9e3d 20b3 7cbe 739a fe3c
00000210: c628 f33d 5a73 b4be aa69 103d 2fc1 df3d
00000220: 29eb 75be e504 f43b 8d65 9f3c c570 0cbe
00000230: bfb1 7d3d 1495 773d 9d81 89bd c268 1cbc
00000240: f3b2 86bc b5c4 a13d 9673 89bd c827 b1bb
00000250: cce1 6ebc 0424 793b f4c1 6e3d a68c 1dbe
00000260: d422 c13c 720a d93c 2fd0 17be b35e 5b3d
00000270: 1e3a b93d 407c 77be b617 ce3c b580 aa3d
00000280: 22cd 69be f3fb 043d 543d c6bc 3113 9a3c
00000290: 3cf2 22bb fe2e 283c 2b0b f3bb 84a0 4ebc
000002a0: acc6 c83b 81c4 6e3b 2f10 bebc c904 cb3c
000002b0: 016f 8f3c c085 4bbd 2963 853d 26e3 8abd
000002c0: 5e3b 50bc 2e06 313d 7671 1ebe 25ba 4e3d
000002d0: d435 7f3d a50c 2ebe b840 243d 2ab0 043e
000002e0: 3133 04be b38f 0dbd 206f c5bb 77fc 953c
000002f0: c90b adbc a28c e33b 4550 e33c 59cf 57bd
-0.0033854323 0.025918745 -0.039473258 -0.006775531 0.046207324 -0.047704846 0.041449483 -0.048835613
-0.013754513 0.009987461 -0.0323862 0.008845272 0.0031562157 -0.08264066 0.042809896 0.009932773
-0.088671684 0.043731727 -0.060912747 0.061246168 -0.015870837 -0.024012683 0.008600159 -0.0021294518
-0.033533648 0.061548684 -0.03887196 0.03951891 0.012949716 -0.06922772 0.08234903 -0.1832523
0.0043652183 0.12802571 -0.22304593 -0.010286404 0.11196905 -0.17292395 -0.017404059 0.08026038
-0.07266759 -0.031493872 -0.008786635 0.0033219962 -0.012140713 -0.033386126 0.037173726 -0.019789424
0.05974126 -0.1331034 0.019269027 0.07012176 -0.10793405 -0.013873922 0.09884182 -0.24877189
0.008441666 0.069748804 -0.123036884 -0.0043807235 0.050561003 -0.13974744 0.02541211 0.060090926
-0.22307312 0.052008934 0.04356514 -0.09494331 0.012849759 0.04377787 -0.069482386 -0.0043243626
0.03152821 -0.06877435 0.0135515155 0.07190784 -0.19455235 0.026399488 0.059403695 -0.16969888
0.016318532 0.051781703 -0.02479007 -0.0032019273 0.058231916 -0.023906829 -0.0110772895 0.040178765
-0.15506156 0.03635877 0.01898269 -0.1890801 0.07488542 0.04857549 -0.09846441 0.009221139
0.034959324 -0.11646061 0.04125578 0.017935092 -0.1303605 0.059417654 0.03262759 -0.1354118
0.043729573 0.07568264 -0.024782542 -0.028246079 0.04968946 -0.025005812 0.0005788442 0.038308885
-0.16815752 0.043212816 0.01728242 -0.22614554 0.08854508 0.053751417 -0.16704503 0.04972539
0.03391167 -0.10235382 0.026128855 0.036891025 -0.08306315 0.01637625 0.0856803 -0.23017156
0.026674515 0.077573255 -0.24677706 0.031079507 0.11873011 -0.35244256 0.03525702 0.10925519
-0.24015488 0.0074468725 0.019457603 -0.13714893 0.06193709 0.060444906 -0.06714175 -0.009546461
-0.016442752 0.07898847 -0.067114994 -0.0054063536 -0.014580201 0.0038015852 0.058290437 -0.15385684
0.023576178 0.026494239 -0.1482551 0.05355711 0.09044288 -0.24168491 0.02515779 0.0832533
-0.22832158 0.03246684 -0.024199165 0.01880798 -0.0024863621 0.01026511 -0.007417103 -0.012611512
0.006127199 0.0036433043 -0.023201076 0.024782555 0.017508985 -0.0496881 0.06513054 -0.067816064
-0.012709467 0.043218784 -0.1547297 0.05047049 0.062307194 -0.16997011 0.040100783 0.12957826
-0.12910153 -0.03456087 -0.00602521 0.018308861 -0.021123784 0.006944255 0.027748236 -0.052687977
