EWOthello/KLiScripts/KLi_Paper_Checkpoints/state_tl32/layer6/checkpoint.ckpt (torch, 92819 bytes, 4 tensors)

proj.0.weight f4 [32, 512]
000000 10 10 c0 bd b0 57 93 3e b9 ed ff 3d 4f a4 46 bd
       -0.09378064 0.28777838 0.12496514 -0.04849654
000010 df be a0 3d 52 5a 7e be 52 ca 30 be 24 10 c9 3d
       0.07848906 -0.24839142 -0.17264679 0.09817532
000020 b9 6e 8a be 63 2a 8f be 2b 2a 2a 3e 09 ca 41 be
       -0.270376 -0.27962026 0.16617648 -0.18924727
000030 a8 b3 21 bc 98 d4 65 bd b9 38 92 bd 5c e5 a4 bd
       -0.009869494 -0.05611095 -0.07139725 -0.08051559
000040 04 a8 ba 3d 8c bb 40 bd 8c f5 89 be c4 e2 43 3e
       0.09114078 -0.04705386 -0.2694515 0.19129473
000050 fe f0 b0 3d 3e a8 3c 3e 91 50 77 be 92 27 bf 3d
       0.086397156 0.18423554 -0.24151827 0.09333719
000060 13 77 46 3e be 72 9a 3d cb 99 00 3e 8d 15 d8 3c
       0.1938136 0.075414166 0.12558667 0.026377464
000070 fb 32 f0 3c 06 d1 34 be f9 03 11 be 72 9e 9e 3c
       0.029321184 -0.17657861 -0.14161672 0.019362662
000080 5a 69 aa 3d 9f b6 07 3f f1 8c 46 3c ab 1e 52 3d
       0.083208755 0.5301303 0.012118564 0.05129878
000090 db 45 fc bd 4d 0a a6 be 98 e5 ed bd 1a 10 b2 be
       -0.123180114 -0.32429734 -0.11616057 -0.3477791
0000a0 f4 33 45 3e b2 70 b7 be a7 c2 02 3e 05 a1 c6 bb
       0.192581 -0.35828167 0.12769566 -0.0060616755
0000b0 42 bf b9 3c 30 74 61 3e 5f 78 03 be 14 b5 b4 bd
       0.022674207 0.22016978 -0.12838887 -0.088236004
0000c0 8e c5 24 be 62 46 34 3e e7 c1 d1 bd 69 58 84 bd
       -0.16090986 0.17604974 -0.10242062 -0.064621754
0000d0 e2 9b 9b bd 88 4b ef bc 59 f3 73 3e 30 0f ed 3d
       -0.07598092 -0.02921082 0.23823299 0.115751624
0000e0 7d dc 30 3d 9f d6 d9 be 14 69 7c bd 70 90 df 3d
       0.043179024 -0.42546555 -0.061623648 0.10916221
0000f0 50 c3 77 bd 7e ec bd be 7f 18 16 bd 65 52 c0 3c
       -0.060489 -0.37094492 -0.036644455 0.023476789
000100 ab 8a db 3d 21 f5 11 3e c4 bd 09 be d0 1b 70 3e
       0.10719808 0.14253666 -0.13451296 0.2344811
000110 89 e2 59 bd fa 25 e0 3d 19 1e 4c 3d 77 aa 92 3c
       -0.053194556 0.109447435 0.04983339 0.01790355
000120 2a 62 ea bd 46 29 16 bd c2 de ed 3d 8e 3d 21 be
       -0.114445046 -0.036660455 0.11614753 -0.15746137
000130 1b a6 85 bd 72 28 18 3d 75 e9 22 3e 72 fb 43 3e
       -0.06525823 0.037147947 0.1590937 0.19138888
000140 a9 78 24 bd 6f 14 12 bc 2b 7f 8b 3e ff d1 e5 3d
       -0.040154133 -0.008916005 0.2724546 0.11221694
000150 15 df e7 3d ed 14 45 bd a3 a3 5f 3e 32 d4 9b bc
       0.113218464 -0.04811566 0.21839766 -0.019022081
000160 fe ee 00 be ec 63 e3 3b 0a 90 82 bd 99 7f 8c bd
       -0.12591168 0.006939402 -0.063751295 -0.06860275
000170 66 68 e4 bd 1c 7f 9a 3d 81 48 6c bd 45 22 7d 3c
       -0.11152725 0.075437754 -0.057686333 0.015450065
000180 3c 49 1e 3e c4 ed 20 3e 54 ab 25 3e 47 21 56 3e
       0.15457624 0.157157 0.16178638 0.20911132
000190 50 24 ab bc dc 78 14 3e df 68 f2 3d ba 75 b6 be
       -0.020891339 0.14499229 0.11836409 -0.35636693
0001a0 d6 6c c9 bb 9a 6c 61 be 72 14 03 3d e9 76 1e be
       -0.0061470075 -0.22014084 0.03200192 -0.15475048
0001b0 34 16 0f be ab 07 1d be 79 7b 3f be 53 db 6d 3e
       -0.13973314 -0.15334956 -0.18699445 0.23228197
0001c0 87 53 4b 3d d1 32 9c be 41 ba 66 be e5 a9 d0 3d
       0.049640205 -0.3050752 -0.22531988 0.10188655
0001d0 f4 1d e9 3c 13 84 f5 3d 0e cc 30 be 9d 01 dd bc
       0.028456666 0.11988082 -0.1726534 -0.026978308
0001e0 cf bf 07 bc 5b 16 f3 3e 39 78 3d be bb b4 7a bc
       -0.008285477 0.47477993 -0.18502893 -0.015301879
0001f0 fd 7f 23 3e c8 cd 0a be d8 e3 a5 bd d1 1a a8 bd
       0.15966792 -0.13555062 -0.08100098 -0.0820824
000200 fe 03 0a 3d fb 36 41 3d ad 04 8e bd 09 9c 37 bd
       0.033695213 0.047171574 -0.069344856 -0.04482654
000210 96 c8 a9 be 6f 18 ae bd 41 d2 02 be ce 6a f0 bd
       -0.33160847 -0.08500754 -0.12775518 -0.117391214
000220 09 10 40 bd dc 6c d5 bc 9f a1 05 be af 8c 52 bd
       -0.046890292 -0.026052885 -0.13049935 -0.051403698
000230 c9 9a ad 3d 8c ba 2d bb 0e 92 e1 3d 4f db 17 be
       0.084767886 -0.0026508896 0.11014186 -0.14829753
000240 0a f2 a6 bd 3c 1e 5f 3e 8e 3c 74 3e 24 c8 fc bc
       -0.08151634 0.21788877 0.23851225 -0.030857153
000250 38 9d 8b 3d ce 70 5d 3d 2c b8 34 be 50 d2 87 3d
       0.068170965 0.054062657 -0.17648381 0.06631911
000260 e8 f6 09 be a9 e7 49 3d eb 56 ef bd 16 7d 16 3e
       -0.13473094 0.049293194 -0.116865 0.14696154
000270 cd e0 7c be dd 42 b7 3c a0 86 1d bf b3 cc 6f be
       -0.2469513 0.02237075 -0.61533546 -0.2341793
000280 6f a1 a6 bc e6 23 04 3e 99 31 ae bc d3 2e 25 3e
       -0.02034065 0.12904319 -0.021263884 0.16131143
000290 30 a3 29 bc 09 0e 3c be 92 0b fd 3b b8 10 81 3e
       -0.010353848 -0.18364729 0.0077223266 0.25208068
0002a0 41 84 f4 3d 1b e7 a3 3d da c6 f5 bc de 91 e6 3d
       0.11939288 0.08003064 -0.030002046 0.11258291
0002b0 5b 4f a4 bd 77 67 0c be ab 78 75 be 0b 4f 80 bb
       -0.08022948 -0.13711344 -0.23971812 -0.0039156727
0002c0 01 da f6 bd 86 26 07 bf e9 cf e5 3d a8 ce 59 3e
       -0.120533 -0.5279316 0.11221296 0.2127024
0002d0 07 ce 8d 3e 1a 50 30 be 21 21 c7 3e 1d df 38 3e
       0.2769625 -0.17218056 0.38892463 0.18053861
0002e0 95 8b 4f be b8 35 9d be 14 fa 85 3e 61 7b e9 3d
       -0.2026809 -0.30705047 0.26167357 0.11400486
0002f0 c1 13 19 3e 06 b3 1b 3b 23 67 3d be 39 91 c0 3d
       0.14948942 0.002375783 -0.18496375 0.09402699
000300 7c c6 96 be 84 85 51 be 2e 88 3a be 60 67 0b 3e
       -0.29448307 -0.20461088 -0.18216011 0.13613653
000310 d0 e4 bb 3d fa 57 ac 3d 17 b5 30 be 47 d9 02 bc
       0.09174502 0.08415218 -0.1725658 -0.007986373
000320 63 e3 0e bc d3 07 31 bd 52 bf e0 3d ee d3 df bd
       -0.008721205 -0.043220352 0.109739915 -0.10929094
000330 1c 21 b4 3d d2 b3 ce 3c 98 f9 1e be ef 47 6e 3e
       0.087953776 0.02523223 -0.155249 0.23269628
000340 6c 0e 19 be ee ff b1 bc 0d a9 f2 3d 1e 6e d6 bc
       -0.14946908 -0.021728482 0.1184865 -0.026175555
000350 94 f6 32 bd 72 1a 6d 3d e7 e7 e9 be b4 76 af 3d
       -0.043692186 0.05788655 -0.4568474 0.08567563
000360 1f 11 63 3e f8 da 42 3e a2 c7 13 be a1 1f cc bc
       0.221745 0.19028842 -0.14431623 -0.024917426
000370 ee b2 ae be 27 c3 05 3d 24 3e c8 bc f8 ba ee bb
       -0.34120888 0.032656815 -0.024443693 -0.007285472
000380 e2 87 83 be 1f f6 9c bd e0 7a 7c be c8 37 32 3e
       -0.25689608 -0.076641314 -0.24656248 0.17404091
000390 e0 50 08 3e f5 38 88 be 1f cc 6b 3d 5f 13 99 3e
       0.13312101 -0.26605955 0.057567712 0.2989759
0003a0 3f 59 9b be 79 9f 59 3d 89 aa e6 bd eb f1 93 3d
       -0.30341527 0.0531306 -0.11262996 0.072238766
0003b0 49 ef 37 3c de 68 e5 bc 0a 78 67 bd d2 a0 c6 3d
       0.011226484 -0.028004106 -0.056510963 0.09698643
0003c0 e0 9d aa 3c b6 1f 9e be 3a 33 b5 3d 08 5a 69 be
       0.020827234 -0.3088357 0.08847661 -0.2278825
0003d0 a1 bf 34 3e 78 09 aa 3c 95 8f 92 be fa a8 07 bd
       0.17651226 0.020756468 -0.2862517 -0.033120133
0003e0 40 a6 75 bd 3e 18 10 3e 32 1e ab 3d 35 74 af bd
       -0.059973 0.14071748 0.08355369 -0.085670866
0003f0 f0 49 88 be 0e 98 85 bd 6a ac 50 be 88 52 3b 3e
       -0.2661891 -0.06523143 -0.20378271 0.18293202

proj.0.bias f4 [32]
000000 e4 67 b9 3e f1 2e 2a 3f 56 a7 ae 3e 97 bf 1e 3f
       0.36212075 0.66477877 0.34112042 0.6201109
000010 cf 34 fd 3e 35 63 a8 3e b4 64 12 3f 30 49 52 3f
       0.49454352 0.3288819 0.5718491 0.82142925
000020 7e d8 bc 3e e5 5e ac 3e 2c 60 f9 3e c8 a6 f9 3e
       0.3688392 0.3366615 0.48706186 0.48760056
000030 fa 7c f3 3e 96 5e 17 3f cf c3 90 3e 53 4d a1 3e
       0.47556287 0.591287 0.2827439 0.31504306
000040 e1 67 99 3e 24 61 fa 3e 59 7e a1 3e 26 bc 46 3e
       0.29962066 0.48902237 0.31541708 0.1940771
000050 bd ff 9b 3e 75 a8 f5 3e 6a f4 2f 3f 64 5f e9 3e
       0.3046855 0.47980085 0.6873232 0.4558059
000060 c9 55 6a 3e a9 c6 a7 3e 15 fc d0 3e f5 c9 ff 3e
       0.22884287 0.32768753 0.40817323 0.49958768
000070 2f 44 ab 3e 70 8f 0b 3f 34 4d 16 3f fd 3b fe 3e
       0.33450457 0.54515743 0.5871155 0.49655142

proj.2.weight f4 [192, 32]
000000 2a fe 14 3c 90 7d 1b 3d f1 e4 c8 3c b5 8e 5c 3d
       0.009093801 0.037961543 0.02452323 0.053847034
000010 dc 2f 05 bc 33 e5 82 bc 8f 02 c2 bd 3e a9 e0 bc
       -0.008129086 -0.015978431 -0.09473144 -0.027424451
000020 96 27 3d 3e ad 40 b0 bd 04 9d ee 3c b6 11 9f bd
       0.18472132 -0.08606086 0.029127605 -0.0776705
000030 9e 9d 96 bd 75 aa 79 be 5f 12 74 bd 80 04 3b 3d
       -0.07354282 -0.2438143 -0.059587833 0.04565859
000040 7a f2 ab bd 3b 89 95 3d 1f 9c e5 3d f0 6d f5 3d
       -0.08395858 0.07301565 0.11211418 0.119838595
000050 6e 3d 96 bd 5b c2 af 3b b4 4a 5e be f3 e2 14 be
       -0.073359355 0.005363745 -0.21708184 -0.145397
000060 15 44 10 3c 1a bb 6c 3c 28 81 98 3b 4e f4 d9 bc
       0.0088052945 0.014448905 0.0046540685 -0.026605751
000070 dc c5 c6 bd 6e ba 4d bb 77 dc 06 3e 19 bb 1d be
       -0.097057074 -0.0031391638 0.13170038 -0.15403403
000080 5c 87 8c 3c 01 a0 ba bc 22 93 2f be 25 58 c7 bd
       0.017154388 -0.022781374 -0.1714597 -0.09733609
000090 93 87 90 3d 4a fc bf 3b 22 19 65 3e 23 02 a0 3d
       0.07057109 0.0058589326 0.22372869 0.078129075
0000a0 db cf 9c be 8c 90 a8 3c 65 14 92 bd 90 84 2a 3e
       -0.3062733 0.020576738 -0.07132796 0.16652131
0000b0 9d 94 1d 3e 7b 9d 9a 3e 26 d7 cd 3d d0 0f 05 be
       0.15388723 0.30198273 0.10050802 -0.12994313
0000c0 64 a2 f8 3d d3 62 e8 bd ba 2f e4 bd d1 37 7e be
       0.121403486 -0.11346974 -0.111419156 -0.2482598
0000d0 24 c1 92 3e a3 46 3b bd 73 6a c7 3e 2e 92 25 3e
       0.2866298 -0.04572166 0.38948402 0.16169044
0000e0 22 43 12 bd 17 23 ca bd a2 6b ef bd 82 2c 5b 3d
       -0.035708554 -0.09869974 -0.11690451 0.053509243
0000f0 d6 39 65 3d 70 84 a5 3c a2 05 8d be 36 90 81 3e
       0.05596336 0.020204753 -0.2754336 0.25305337
000100 c9 1c b5 3c ac 05 75 3d 56 c6 88 3c 92 ad 7c 3d
       0.022108452 0.059819862 0.016696136 0.061688967
000110 42 d0 7b bc 12 42 b0 bc 11 40 b9 bd 8d 3d ca bc
       -0.015369477 -0.02151588 -0.09045423 -0.024687553
000120 4c b1 45 3e 2f 29 b9 bd b2 50 28 3d b1 8c a7 bd
       0.19305915 -0.09041058 0.041092582 -0.08181132
000130 1e 5d a6 bd 06 ce 82 be 3e 07 82 bd 11 58 2b 3d
       -0.081232294 -0.25547808 -0.063490376 0.041832034
000140 d7 36 b9 bd 29 67 94 3d 81 75 e8 3d 7c 1c 05 3e
       -0.09043663 0.07246239 0.11350537 0.12999147
000150 ac e8 96 bd 4e bb bd bc f4 ca 60 be 76 09 20 be
       -0.073685974 -0.023160603 -0.2195242 -0.15628609
000160 06 5e b4 bb ac 6e 00 3d f2 43 88 3c 53 f0 d7 bc
       -0.0055043725 0.031355545 0.016633961 -0.026359713
000170 c0 60 ce bd b1 aa 92 bb 03 96 12 3e c1 f0 24 be
       -0.10077047 -0.0044759144 0.14315037 -0.16107465
000180 54 64 14 be a8 6f ef bd 12 8b 96 3c 7e 4e f4 3d
       -0.14491397 -0.116912186 0.01837686 0.11929034
000190 bb a9 0d be ab 6a fe bd b1 69 bc bd 24 cf 0e 3e
       -0.13834278 -0.12422689 -0.091998465 0.13946205
0001a0 f0 54 06 3e c7 47 a0 3d 4b e4 18 be cb 1a b2 bd
       0.13118339 0.078261904 -0.14930837 -0.086965166
0001b0 84 71 d9 bd ed 0a 43 bd 10 c3 56 be f1 41 8b 3d
       -0.106173545 -0.04761784 -0.20972848 0.06799687
0001c0 aa 7b 01 be 10 d3 bb 3c c0 0e da 3c 89 55 02 3e
       -0.1264483 0.02292779 0.026618361 0.12727942
0001d0 1f aa 54 3e 4f c7 cd bc 4b 05 81 bd 8d 64 17 bd
       0.20768021 -0.025119452 -0.06299838 -0.036961127
0001e0 26 4d 78 bd 57 bf e1 bd 07 13 8b bc 1b ce 14 3d
       -0.06062045 -0.11022823 -0.016976846 0.03632937
0001f0 72 f0 6c 3c d9 cb bd bd e8 0e 81 3c a0 a8 93 be
       0.0144616235 -0.092673965 0.015754178 -0.28839588
000200 a1 93 3c 3e 04 ae 64 3e 6d 72 90 3d 58 36 73 be
       0.18415691 0.22332007 0.07053075 -0.23751199
000210 1c 41 4c 3e 26 69 1b 3e 2e 52 d2 3d af 86 8e be
       0.19946712 0.1517683 0.10269581 -0.2783713
000220 17 c7 93 be 99 55 d6 be 87 c9 93 3e f7 61 f3 3d
       -0.2886283 -0.4186218 0.2886469 0.1188392
000230 da 0a 2d 3e d0 ca 51 3d 20 67 94 3e 47 13 86 be
       0.16898671 0.051218808 0.28984928 -0.26186582
000240 59 bb 66 3e 51 dd 10 be 8a c4 05 bd 46 80 9d be
       0.22532405 -0.14146926 -0.032658137 -0.30761927
000250 6a 49 c6 be 70 a8 a6 bc 08 83 05 3e 28 3b ae 39
       -0.38727885 -0.02034399 0.13038266 0.0003323194
000260 d0 fa 67 3d 99 e2 f8 3d 5c 6b 3a bd 78 94 9c bd
       0.056635678 0.12152595 -0.045512542 -0.07645506
000270 a8 87 23 be f1 0a 23 3e c5 2e ac 3d ac 53 f3 3e
       -0.15969718 0.15922143 0.08407358 0.47524774
000280 10 b3 0d be fa 73 d0 bd 4b 94 df 3a b2 72 f5 3d
       -0.13837838 -0.10178371 0.0017057745 0.11984767
000290 41 4d 0a be 13 1a fe bd ac 11 b6 bd 19 78 0b 3e
       -0.13506033 -0.12407317 -0.088900894 0.13620032
0002a0 7c 4f 00 3e b5 91 93 3d 64 33 0c be b7 e0 a8 bd
       0.12530321 0.07205526 -0.13691479 -0.08245986
0002b0 d2 6e db bd d8 85 7b bd 50 da 52 be f3 f5 91 3d
       -0.10714497 -0.06140694 -0.20591092 0.07126989
0002c0 0d a8 f9 bd c9 9e 88 3c f9 9e 11 3d 66 75 08 3e
       -0.12190256 0.016677277 0.035552 0.13326034
0002d0 e4 3d 50 3e 92 34 28 bd 27 c4 76 bd 97 be 2f bd
       0.2033611 -0.04106576 -0.06024566 -0.04290637
0002e0 ce 03 73 bd cf 72 d1 bd b5 bb 81 bc e2 b6 05 3d
       -0.0593298 -0.10226976 -0.015836576 0.032645114
0002f0 6e 16 7b 3c b8 a4 c3 bd 3c 2a 3e 3b f0 94 93 be
       0.015325172 -0.09552902 0.0029016873 -0.28824568
000300 13 79 43 3e ee 8e 2b be c6 3a 14 bc 93 8f ed 3d
       0.19089155 -0.16753742 -0.009047216 0.1159965
000310 ce 45 ed bd 21 b2 8b 3d 15 8c 09 be 59 14 7c 3d
       -0.1158558 0.06821085 -0.13432343 0.061542843
000320 22 5b 20 3e 3f 73 1e 3e d0 f8 5a 3c 10 d8 64 bc
       0.15659764 0.1547365 0.013364986 -0.013967529
000330 1f 7f 88 bd 78 6d ad 3d e5 ad 88 bd 16 be 7a 3d
       -0.066648714 0.08468145 -0.06673793 0.061216436
000340 0a 44 02 3e c4 63 52 bd b7 8b 19 3d 88 da 05 3e
       0.12721267 -0.051364675 0.037486758 0.13071644
000350 29 18 8c 3d 00 10 df bd f4 d7 b5 be 94 a5 2f 3b
       0.06840546 -0.10891724 -0.35516322 0.0026801573
000360 c6 d8 b7 bd 4e 2f b4 3c c3 61 da bd 61 8f 02 bd
       -0.08976893 0.021995213 -0.10663178 -0.031875018
000370 db b7 36 bd 60 4c 7a bc 60 95 17 be 3d 9e c5 bd
       -0.044608932 -0.015276998 -0.14803076 -0.09649322
000380 b0 69 f7 be 0f 6b 5a 3e e2 7e f1 3a 20 f4 0a be
       -0.4832282 0.21329902 0.0018424655 -0.13569689
000390 98 eb 54 3e 5d 96 cc bd b4 31 a7 3e 41 64 0f be
       0.20792997 -0.09989617 0.32655108 -0.14003088
0003a0 9f 9d 58 be 4f 24 3a be a1 31 e7 bd 9e 64 53 be
       -0.21153878 -0.18177913 -0.11288763 -0.20643851
0003b0 98 70 74 3d c4 e4 80 be af d5 e0 3d 5e 45 3f be
       0.05967769 -0.25174534 0.10978257 -0.18678805
0003c0 67 a1 e4 be 7d b8 19 3e 88 86 eb bc e9 bc 8d be
       -0.4465439 0.15011783 -0.028750673 -0.2768319
0003d0 85 b6 f9 bd b6 8e 9e 3e 2c 12 4b 3f 36 fc dd bc
       -0.12193016 0.30968255 0.79324603 -0.027097803
0003e0 cf 29 85 3e a7 40 a6 bd fe c3 8e 3e 36 7b 81 bd
       0.2600846 -0.081178 0.27883905 -0.06322329
0003f0 f7 ec 5d be 84 6e de 3d 04 a3 ee 3e 13 71 fb 3d
       -0.21672426 0.10860923 0.46608746 0.122774266

proj.2.bias f4 [192]
000000 28 2b 7e 3c 79 dd 0a bd ef 0c d1 3c ef 93 aa 3c
       0.015513219 -0.03390262 0.025518863 0.020822493
000010 46 76 f7 bd 9d 23 a1 3d 4f d0 84 bd bf cf af 3e
       -0.12083106 0.07868121 -0.06485044 0.34338185
000020 78 d9 be bd 63 80 bf bd 05 3f 9d 3e 01 28 6f bd
       -0.093188226 -0.0935066 0.30712143 -0.05838776
000030 94 39 0f 3d 89 74 31 be ec d0 7b 3d ca f4 57 bd
       0.03496702 -0.17329611 0.06147854 -0.052723683
000040 1e 3d 6d 3e 99 9a bc bd a3 c7 63 bd bd 22 f0 3d
       0.23167846 -0.09209175 -0.05561031 0.11725376
000050 bd 3d 7e bd 5f e1 a0 3c 07 ab a6 bd 62 09 84 3d
       -0.062070597 0.019638715 -0.081380896 0.06447102
000060 7c 65 2c bd c0 16 22 3d 34 46 9d bb bd 22 1c 3e
       -0.04208897 0.039572477 -0.0047996286 0.15247627
000070 c6 c7 94 be 82 cf 2c 3e ec d2 33 3e f3 50 4f be
       -0.29058665 0.16876033 0.17560929 -0.20245723
000080 97 b2 82 bd 6a 97 4e 3e fc 86 3c 3d 51 89 e5 bd
       -0.063817196 0.20174947 0.04602717 -0.11207832
000090 7d 13 93 3d 94 c8 1e 3e d8 97 18 bc 19 e1 7c 3d
       0.071814515 0.15506202 -0.009313546 0.061738107
0000a0 55 eb 9b be 34 cb d5 3d 1a 6a 2c 3e e4 be 73 be
       -0.30452982 0.104391485 0.1683735 -0.23803288
0000b0 33 a7 b1 3d c8 b8 fa bd e0 af 46 3e a2 62 8e bd
       0.08674469 -0.122422755 0.19403028 -0.069524065
0000c0 48 3d b5 bc 8a 67 80 3e a6 9d bf bd 91 ba 32 3d
       -0.022123948 0.25078994 -0.09356241 0.043634955
0000d0 20 fb c0 bc c4 3c f1 bc ad 27 8a 3d 8c 93 c5 be
       -0.023557246 -0.02944792 0.06745849 -0.38589132
0000e0 5e bb c6 3d c0 c1 a1 bd 32 4a 8f 3b 7d a6 15 3e
       0.09703706 -0.07898283 0.0043728584 0.14614291
0000f0 e5 fe af 3e 85 80 59 be a6 48 69 be 0c 26 22 3e
       0.34374157 -0.21240433 -0.2278162 0.15834826
000100 b6 bc c4 be cf 4f b1 3c c6 a3 d8 bc dc 1f 17 3e
       -0.38425225 0.021644501 -0.02644528 0.14758247
000110 88 c1 f7 3b 88 d4 e8 bd 05 af a7 3e f5 a2 bd bd
       0.0075609125 -0.11368662 0.32750717 -0.09259597
000120 27 8e b5 bd 07 f2 87 3e 43 4c c1 bd 01 8c 2b 3e
       -0.08865004 0.2655184 -0.09438374 0.16752626
000130 88 28 a5 be f7 a3 f4 bc 0c 75 ad bc 51 70 72 bb
       -0.32257485 -0.02986334 -0.021173976 -0.0036993215
000140 36 27 ba 3d c7 92 e5 3c bf 5e 31 bd d5 1e 47 3d
       0.0908951 0.02802409 -0.043303248 0.048613388
000150 c7 73 e3 3d 02 42 32 bd a3 3c af bc 4f cc 8e 3e
       0.11106067 -0.04351998 -0.021391219 0.2789025
000160 ba fb bd 3c 00 3c 57 be b2 a8 82 3d 8a a6 30 be
       0.023191322 -0.21018982 0.06379832 -0.1725103
000170 24 b2 9c 3c db 65 90 3d 05 a9 46 be dc ec 1e bd
       0.019127913 0.070506774 -0.19400413 -0.038800105
000180 41 1f 9a bd e5 94 17 3e c9 10 36 bd f8 00 e5 bb
       -0.075254925 0.14802893 -0.0444496 -0.006988641
000190 22 d1 83 3e 3d df 0d 3d 1d 0a 9d 3e 47 84 44 bc
       0.25745493 0.034636725 0.30671778 -0.011994428
0001a0 0b 47 74 be 02 e3 d9 3c 20 99 29 bd d4 13 62 3d
       -0.23855226 0.026597504 -0.041405797 0.05519469
0001b0 b7 26 dd 3d 0d 67 29 bd f9 19 df bc de 30 85 bd
       0.107984 -0.041358043 -0.027234064 -0.06503461
0001c0 43 ea 91 3e e0 c0 92 3d f9 24 4c 3e 30 da 07 bf
       0.2849904 0.07165694 0.19935979 -0.530673
0001d0 b4 42 a9 3b d4 39 80 bd 94 a6 9e 3e 9b 24 f3 bd
       0.0051654223 -0.0626103 0.30986464 -0.11872216
0001e0 5c e4 7d bd a4 6b d5 3c 1f d6 40 3c e2 f2 cb bd
       -0.06198536 0.026052304 0.0117698 -0.099584356
0001f0 a9 7e de 3d 03 96 56 3d da 2d c0 3d 23 d5 f2 bd
       0.10864002 0.052389156 0.093837455 -0.11857059
000200 f3 06 39 3d 8d 73 2c 3e 16 10 8d bb cd 1b b0 bd
       0.045172643 0.16840954 -0.004304896 -0.085990526
000210 ef 69 5d be 63 fe d1 3c 88 54 81 3e 95 d6 11 bd
       -0.21622442 0.025633996 0.25259805 -0.035605032
000220 7b 45 2e bb 21 9a 07 3e 34 26 c1 3d 28 90 36 be
       -0.0026591707 0.1324239 0.09431115 -0.17828429
000230 c3 0e ed bc b4 d2 8b bc 39 af 10 3d 7d 5b 57 bd
       -0.028937703 -0.017068245 0.035323355 -0.052577484
000240 36 ed da bc 7a 69 88 bd 78 46 bf 3d b8 99 1c 3e
       -0.02672444 -0.06660743 0.09339613 0.15293014
000250 e8 4f 52 be c5 65 ae 3d e3 a1 1e bd 30 72 6c be
       -0.20538294 0.08515505 -0.038728606 -0.23090434
000260 55 35 15 3e 48 8c b9 3c 8b ed 7b be c3 56 ef 3d
       0.14571126 0.0226499 -0.24602334 0.1168647
000270 1b b1 4a 3e 28 28 f8 be 21 de 33 3c 21 0f ae 3d
       0.19794123 -0.48468137 0.010978253 0.08498979
000280 be c3 1b 3e 51 cd a2 bd 87 c1 96 3d 05 d8 3d be
       0.15211388 -0.07949317 0.07361131 -0.18539436
000290 90 7b f8 3d 1b aa 48 bd 4b ec d7 3d ed 80 7e bd
       0.12132943 -0.04899035 0.10543116 -0.062134672
0002a0 26 1c 81 bd 44 a0 37 3d 36 60 d2 bb 93 44 7a 3b
       -0.06304197 0.044830576 -0.0064201606 0.0038187846
0002b0 e0 63 8f bc e7 e7 a4 bc 51 a8 0e be 3e eb c7 3e
       -0.017503679 -0.02013011 -0.13931395 0.39046663
0002c0 1e 16 cd bd 45 9c d9 bd ed 4e 43 3e 02 7b 56 bc
       -0.10013984 -0.10625509 0.19073077 -0.013090851
0002d0 18 36 78 bd e9 24 b9 3d 6e d3 95 bb 17 ae 96 bd
       -0.060598463 0.09040243 -0.0045723235 -0.07357424
0002e0 34 2b d0 3e c9 78 1a be 71 6e cb bc 9d 85 bc 3c
       0.4065796 -0.15085138 -0.024832936 0.02301293
0002f0 41 d8 91 bc 30 c3 f5 bb fa 4a ab bd 00 5c 98 3d
       -0.017803313 -0.007500075 -0.0836391 0.074394226
