EWOthello/ckpts/battery_othello/state_tl128/layer5/checkpoint.ckpt (torch, 363539 bytes, 4 tensors)

proj.0.weight f4 [128, 512]
000000 ea 6f 85 bd a5 9e 8d be 33 81 6b be cb 01 36 bd
       -0.065154865 -0.276601 -0.22998504 -0.044435304
000010 a0 f8 ba 3c 7c 88 10 3e 48 d6 54 3d 5e 7a 81 3e
       0.022823632 0.14114565 0.051962167 0.2528867
000020 06 cb 13 be 4d 77 69 be e5 5b a9 3d 1f a4 84 be
       -0.14432916 -0.22799416 0.082694806 -0.25906464
000030 bd 20 74 bd 12 a2 51 be e5 12 f4 bd 8a 46 a1 3d
       -0.059601534 -0.20471981 -0.11917666 0.078747824
000040 a8 7c c5 3d dd ee 2d be 90 91 47 3d 1e 35 38 3e
       0.09642917 -0.1698565 0.048722804 0.17989013
000050 50 91 c3 3d 5f cf 09 be f2 d1 9f bd 62 c1 a7 3e
       0.095492005 -0.13458012 -0.07803716 0.32764727
000060 1d 9e 8a bc 01 1e 65 3b 31 49 3f 3e 8b fc bd be
       -0.016921097 0.003496051 0.18680264 -0.37106737
000070 97 ad 62 3e a5 f2 d9 bc a2 01 7b bc 60 c6 8a bd
       0.22136532 -0.02660496 -0.0153202135 -0.06776118
000080 1f 18 8c 3e fe 1e 85 3e ec 2a c9 3d 79 40 7e 3d
       0.27362153 0.26000208 0.0982264 0.062073205
000090 3f 26 88 3d 87 46 f0 bd 85 da 23 3e e5 f0 e3 3d
       0.0664792 -0.11732202 0.16001327 0.11129931
0000a0 ea 7f 4d be a6 85 38 be 3c b5 8d 3d 39 a9 14 be
       -0.20068327 -0.18019733 0.06919333 -0.14517678
0000b0 da a5 ea bd 7f 9a 6c 3d 5b 19 56 be 57 28 bf 3d
       -0.11457415 0.057764526 -0.2090811 0.09333866
0000c0 30 bc 41 3d 96 65 3e 3c e3 8a 56 bd fe a2 1d 3e
       0.04729861 0.0116209 -0.052378546 0.15394208
0000d0 18 71 a1 bd 7d d8 7a 3c 7b a1 e0 3d 89 eb ab 3e
       -0.07882899 0.015310404 0.109683 0.33578137
0000e0 e9 60 d0 3c ce 72 49 3e 88 78 4e 3d 5c 24 6a be
       0.025436835 0.19672701 0.050407916 -0.22865433
0000f0 b9 c3 f8 3d 04 89 14 bc bc e9 66 3d c1 8e 0f be
       0.12146706 -0.00906587 0.05637525 -0.140193
000100 31 c8 93 bd 6a 63 3e 3e f6 2c a7 bd d5 aa 3e be
       -0.07215918 0.18592611 -0.081628725 -0.18619855
000110 76 f9 22 3c 52 6e fe 3c ac bf ad 3c 38 ae 53 be
       0.009947171 0.031058464 0.02120956 -0.20671928
000120 35 12 45 bd 97 09 64 be 4c 66 b1 3d ec d2 fc bd
       -0.048113067 -0.22269283 0.0866209 -0.12344918
000130 70 41 cb 3d aa 6d 01 bd ec 87 7c 3d 71 fd c5 bd
       0.099245906 -0.031598724 0.061653063 -0.09667481
000140 a9 94 01 be de cb f1 bd 7d 68 13 be 69 39 99 bd
       -0.12654366 -0.11806463 -0.14395328 -0.07481653
000150 59 fb 59 3d e4 31 8d 3d cf 16 2c 3e cf 00 ef 3d
       0.05321822 0.068942815 0.16805576 0.11670076
000160 d2 c2 01 3c 1d 3f a2 3e de 33 8f 3d 89 43 0e bb
       0.007919984 0.31688777 0.06992315 -0.0021707735
000170 62 5c 83 3d 36 46 cb 3d 66 81 ac bd 60 1b 27 3e
       0.06414105 0.09925501 -0.08423118 0.16319036
000180 9c 4e 87 3d 1c 54 6b be 1f f0 3b bd 5e 46 5c be
       0.066067904 -0.22981304 -0.045883294 -0.21511218
000190 ad a7 7a bd 24 bd a3 3e 2f 5d 77 3e 3a 3f 60 3c
       -0.061195064 0.3198024 0.2415664 0.013686949
0001a0 45 31 0f bc 20 eb df 3d 44 ff 31 bd e4 00 68 3e
       -0.008739774 0.109335184 -0.04345633 0.2265659
0001b0 a6 da 2c be 2f 04 55 be 22 94 08 be 1b 38 39 3e
       -0.16880283 -0.20802377 -0.13337758 0.18087809
0001c0 20 10 a5 3d 85 6a cb bd 8b a7 84 bd 04 7c 22 be
       0.08059716 -0.09932426 -0.06477269 -0.1586762
0001d0 4a 87 98 be 04 e3 b4 bc 57 6a e1 bd aa d7 0a 3e
       -0.29790717 -0.022080906 -0.11006611 0.13558832
0001e0 50 0d 2a 3e 86 4b b9 bb e4 70 c4 3b 84 fa 05 bc
       0.16606641 -0.005654755 0.005994903 -0.008177403
0001f0 33 c3 b7 3d 6d 6b b7 3c a1 77 7c 3d 13 c2 76 be
       0.08972778 0.022390092 0.061637525 -0.24097471
000200 88 ee 0b bd 46 d0 78 3c f0 e9 5c 3e ab d9 ef bd
       -0.034163028 0.015186375 0.21573615 -0.11711439
000210 ca 0f 82 3e 62 a6 08 3d ba 44 96 3e 42 33 b1 bc
       0.2540267 0.0333618 0.2934931 -0.021630887
000220 a4 97 55 bc 54 4c 3b 3d c2 a3 90 be 23 3f 38 bd
       -0.013036642 0.04572709 -0.28249937 -0.044982087
000230 14 75 cf bd 59 92 05 be ed e5 10 be 2d 88 a7 3d
       -0.10129753 -0.13044108 -0.1415021 0.0818027
000240 41 46 34 bd 53 8f db 3d d3 f5 7c 3d a0 03 44 be
       -0.04401231 0.10720696 0.061757874 -0.19142008
000250 60 d8 62 be 25 ea 3f be b2 c5 79 3d f6 58 7c be
       -0.22152853 -0.18741663 0.060979553 -0.24643311
000260 e4 79 22 3e fe 1d b8 3d 2d d5 0a be 76 06 b7 3e
       0.1586681 0.089900956 -0.13557883 0.35747117
000270 c0 59 68 3e b6 ab 1a bd 4a 9c dc 3b 7c 4a 05 be
       0.22690487 -0.037761413 0.0067324983 -0.13016695
000280 3f f8 fc bd 16 1e af 3d dd d8 1f be e0 56 a9 bd
       -0.12352037 0.0855066 -0.1561007 -0.08268523
000290 3f fc 67 3c dc de 85 3c 78 79 1e be 74 d3 3c 3e
       0.014159261 0.01634162 -0.15476024 0.18440038
0002a0 be 6e 4f be 2a 90 2d 3e 61 a7 29 be f0 7e f1 bd
       -0.20257089 0.16949525 -0.16567756 -0.117917895
0002b0 fa 8a 8c 3d 88 c1 0c bd 08 8f 3d 3c af e9 03 be
       0.06862445 -0.034364253 0.011569746 -0.12882112
0002c0 aa 1d fa bc 54 40 d0 3d 18 c3 79 be a3 3c aa bd
       -0.030531723 0.101685196 -0.24390829 -0.08312347
0002d0 26 3a 8e 3e 92 0f a6 3d b7 1c 02 3e b4 7f 80 be
       0.2777874 0.081084386 0.12706266 -0.2509743
0002e0 69 ed 97 3c 63 84 b6 be 68 ae 50 3e e4 88 9f be
       0.018545823 -0.35647878 0.2037903 -0.31159127
0002f0 1e 37 90 3e 72 a7 28 3d a1 3d fd 3d 10 f6 42 be
       0.2816705 0.041175313 0.123652704 -0.19039178
000300 66 07 f1 3d 7d 0e 26 be d0 b0 0b 3e d5 45 a0 3b
       0.11768989 -0.16216464 0.13641667 0.004891137
000310 18 f3 e0 bd 56 13 18 3e 18 8f 79 3d 8e e7 c6 3d
       -0.109838665 0.14851126 0.06092748 0.09712134
000320 7e cf 9a bd c3 ac 33 bd 1b 44 ed bd a0 03 a5 bb
       -0.07559107 -0.04386593 -0.11585256 -0.0050358325
000330 f3 63 97 3e db b9 99 be 08 1c 1c be bb 0f 3c 3e
       0.29568443 -0.3002461 -0.15245068 0.18365376
000340 bd 9c 3b be 6e 0f 26 be 95 ad 70 be 6c b0 85 3d
       -0.1832151 -0.16216823 -0.23503716 0.065277904
000350 4a 85 9c 3d 90 6f 02 3d 84 87 84 be 06 70 e4 3c
       0.0764261 0.031844676 -0.2588464 0.027885448
000360 3a f8 e4 bd 40 b6 17 3e cf da 90 be c3 88 cc 3e
       -0.11180158 0.14815617 -0.28291938 0.3994809
000370 4c 5c 57 be f6 d1 72 be de 9d 78 3e 82 47 a6 3d
       -0.21031302 -0.23712906 0.24278972 0.08119108
000380 90 83 5f be 07 54 f4 bd 29 7c 25 ba 42 5e 58 3e
       -0.21827531 -0.119300894 -0.0006312752 0.21129707
000390 37 71 5a be 77 fc 9d bd ef 01 de 3d 22 15 92 3d
       -0.2133225 -0.077141695 0.108402126 0.07132937
0003a0 d2 10 d2 bd 9e 96 c6 3d 43 d2 3c bc f6 c8 72 be
       -0.102571145 0.09696697 -0.01152474 -0.23709473
0003b0 b8 3a 17 3e 1f 3d 37 be 1b 0e 94 bd 24 7e 2b 3e
       0.14768493 -0.1789441 -0.07229253 0.16747338
0003c0 c6 d1 ce 3b 01 55 8e bd 28 c4 d8 bc 11 cf d7 3d
       0.006311628 -0.06949807 -0.026460722 0.10537542
0003d0 95 1a d7 3c 18 e9 95 bd 0b e3 e0 bd 25 cd 7e be
       0.026257792 -0.0731985 -0.10980805 -0.24882944
0003e0 3b fd 63 be fa b2 c9 3d f6 11 02 be 27 1b a2 bd
       -0.22264569 0.0984859 -0.12702164 -0.07915335
0003f0 75 cf 27 3e 7d 9e 05 be 03 88 4c 3d e6 e8 0e 3c
       0.16387732 -0.1304874 0.0499344 0.0087225195

proj.0.bias f4 [128]
000000 00 fd 93 3e 0f e5 c5 3e 46 9d 90 3e 84 b7 97 3e
       0.2890396 0.3865132 0.2824499 0.296322
000010 78 89 7b 3e 41 80 d1 3d 9b 5b 3d 3e 06 5d 91 bd
       0.24564159 0.102295406 0.18491976 -0.07097821
000020 2c 60 0c 3f 0b 16 52 be 27 e4 28 3c 82 e1 a0 bc
       0.54834247 -0.20516221 0.010308302 -0.01963878
000030 aa c6 5f 3e 54 63 1d 3e 9c 65 73 3e 11 33 9a bc
       0.21853128 0.15369922 0.2376923 -0.018823178
000040 5a a8 98 3e 98 a2 73 3d d9 1b eb 3e c8 9e 0d be
       0.29815942 0.059481233 0.45919684 -0.13830101
000050 12 0f 48 3e fb 34 10 3f c4 70 ab bd f2 5a b3 3e
       0.19536999 0.5633084 -0.08371118 0.35030323
000060 bc d1 f1 3e db 4a 43 bd 2e 7b 11 3e 56 ef cd 3e
       0.47230327 -0.04767881 0.14207146 0.4022166
000070 74 23 a9 3e ad 1b 27 3e aa 38 94 3c 5d ff ed 3e
       0.3303486 0.16319151 0.018093426 0.4648389
000080 85 13 f2 3e b1 15 54 3e 85 ad a8 3a db dd 94 3e
       0.47280517 0.207114 0.0012869096 0.29075512
000090 d2 a6 4e 3e 02 c1 db 3e 6e b3 30 39 ee b3 3d 3e
       0.20180824 0.4292069 0.00016851511 0.18525669
0000a0 d5 4a 65 3e 5f fc 9c bd d0 8f 16 bc 0d 3e 9d 3e
       0.22391827 -0.076653235 -0.009189561 0.30711403
0000b0 fa 14 77 3e 96 e3 5c 3c 2b 44 d4 3e 62 2d 59 bd
       0.24129096 0.013481995 0.41458258 -0.053021796
0000c0 40 9c 83 bd 8a 24 3c 3e 1d 11 34 bd 80 b3 19 3f
       -0.06426287 0.18373314 -0.043961633 0.6003952
0000d0 dd cc 21 3e 79 d6 a8 3e 1a f4 ba 3d 02 e6 d0 3e
       0.15800805 0.3297613 0.0912859 0.40800482
0000e0 38 c4 d6 3e c5 71 c1 bc 88 d0 b1 3e 94 76 72 3e
       0.41946578 -0.02361382 0.3472941 0.23678046
0000f0 e6 29 cc 3e 38 48 13 bd ea d2 ec 3e 74 36 8a 3e
       0.39875716 -0.035957545 0.46254665 0.2699467
000100 27 bd fd bd 4f f3 ad 3e 8d f9 22 be 0c a3 db 3e
       -0.123895936 0.33974692 -0.15915509 0.42897832
000110 ed a9 cf 3d 22 93 16 3f 49 ef 6f 3e 4e 24 52 3e
       0.10139833 0.58818257 0.23431124 0.20521662
000120 6f 6c 89 3e 32 59 b0 3e a4 9d b4 3e 45 f9 45 bd
       0.2684054 0.3444305 0.3527652 -0.048333425
000130 be 6b 4f bd 7d d9 1c 3e 5e b4 90 3e 32 1b 04 3f
       -0.05063986 0.1531734 0.2826261 0.51603997
000140 c5 b8 48 bd 7c e3 13 3f 34 76 d2 bd 7a e1 b5 3e
       -0.049004335 0.5776899 -0.10276452 0.35523587
000150 ee dd 96 3e 03 6d b1 3e 01 3a e2 3e a3 21 29 be
       0.29466194 0.34653482 0.44184878 -0.16516738
000160 a2 94 cf bb b5 03 0a 3f 68 e1 c8 3e 24 31 e4 bd
       -0.006334857 0.53911906 0.3923447 -0.11142185
000170 e7 aa 5e bd 64 01 f1 3e 2a d8 57 3e fd 89 fd 3e
       -0.054362204 0.47071373 0.21078554 0.4951934
000180 48 7f cd 3e f6 1b 05 3f 22 08 a2 bd a7 13 ef 3e
       0.4013617 0.5199579 -0.079117075 0.4669468
000190 2f 4b 01 bd 76 f6 3a 3e 21 0f 8b 3e 06 b1 ae 3e
       -0.03156584 0.1825808 0.2715998 0.34119433
0001a0 25 43 17 3f 6e c2 37 bd 5c 7b e1 3e 3b a5 82 3e
       0.5908683 -0.044863157 0.44039428 0.25516686
0001b0 ad 2b 8c 3e cb 17 dd 3e 47 7e 68 bd fb 05 bb bc
       0.27377072 0.43182215 -0.056761052 -0.02283
0001c0 19 60 68 bd 48 61 bb 3e 94 84 57 3e 7e 4c 0a 3e
       -0.05673227 0.36597657 0.21046668 0.13505742
0001d0 06 11 b3 bd f5 f2 a0 3e 90 58 db 3e 10 5d f7 3e
       -0.08743481 0.31435362 0.42841005 0.4831319
0001e0 5c c2 ca 3e 73 fd 5c 3e 2d a4 9d 3e 08 34 97 3e
       0.3960141 0.21581058 0.3078932 0.29531884
0001f0 ca 23 c9 bd b7 dc 40 bd f3 0d 0d 3f ad e3 a7 3d
       -0.09821279 -0.04708549 0.5509941 0.081977226

proj.2.weight f4 [192, 128]
000000 bd 9f 43 3d 6f 89 a8 bd b4 ca 7c 3b 58 8b ee bd
       0.04775976 -0.082293384 0.003857297 -0.116476715
000010 7f 59 5d bd 6c 82 40 3d 97 df a6 3d c7 fe 36 bd
       -0.05404043 0.04699938 0.08148115 -0.04467657
000020 c0 94 a8 3d d7 b0 d8 3b ea 0a 6f 3e a6 5f 20 3e
       0.08231497 0.006612878 0.23344007 0.15661487
000030 58 f3 88 3d 37 29 86 3c 07 4a 6e bd a6 d7 3f bd
       0.06687039 0.016377075 -0.058176067 -0.046836518
000040 17 a1 eb bb 2c 6d bf 3c e9 1f b7 3d b0 fa e4 bd
       -0.0071908343 0.023367487 0.08941633 -0.11180627
000050 0b 47 22 bd 52 7e 30 3d 93 4b 58 be 5f a2 81 3c
       -0.039618533 0.04308922 -0.2112258 0.015824495
000060 f4 f0 bf 3c 88 d6 35 be 21 63 96 3c f8 dd fa 3d
       0.023430325 -0.17757618 0.018357815 0.122493684
000070 43 87 77 3d a1 16 85 bc 6e ec cd 3c 6b 7e e1 bd
       0.06043173 -0.016246142 0.025137153 -0.110104404
000080 25 28 b8 bc d7 b7 0c be 70 ad 75 3e 4e 32 29 3d
       -0.02248008 -0.13742004 0.23991942 0.04130774
000090 5e 5d 67 bb 6b 37 c1 bc 02 4d 82 be 44 06 7c bd
       -0.0035303454 -0.023585996 -0.25449377 -0.061529413
0000a0 34 8f 4b 3d c9 cc 1d 3d b8 23 7f 3e 73 72 15 3e
       0.049697116 0.038525376 0.2491597 0.1459444
0000b0 d8 c5 84 bc b4 ac d3 3d c9 7d f0 3c ac 11 1b 3d
       -0.01620762 0.10335675 0.029356854 0.03785865
0000c0 af 8b b9 bd 02 d6 5a be b1 86 89 3d e8 f3 39 3d
       -0.09059846 -0.213707 0.067151435 0.045398623
0000d0 7d da 4c bd ce 34 f6 3c 46 d1 0b bd e6 82 3a 3e
       -0.050013054 0.030054476 -0.034135126 0.18213996
0000e0 40 e7 85 bc 3c ee ef 3c 68 f1 14 be a2 18 33 be
       -0.01634562 0.029288404 -0.14545214 -0.17489865
0000f0 3e f4 57 bc 3c 58 1f 3d 8a c4 34 3d cf 19 6a 3c
       -0.0131807905 0.038902506 0.044132747 0.01428838
000100 b5 29 d3 3d 32 91 bf bd 35 91 35 be 80 08 95 bd
       0.10310689 -0.09353866 -0.17731173 -0.07277012
000110 cb 4f 3f bd 14 aa bd 3c b3 03 65 bd cc df 18 bc
       -0.046706956 0.023152389 -0.05591173 -0.009330701
000120 1b c8 f8 bd 04 aa 85 bd b9 16 e2 bd 15 48 06 3e
       -0.12147542 -0.065265685 -0.1103949 0.13113435
000130 d3 cc 36 be 31 f2 e0 3d fc 57 02 bb 1f e7 33 be
       -0.17851572 0.10983694 -0.0019888869 -0.17568634
000140 cb f0 53 be 87 88 b1 3d fc b3 dd 3c 6d 9f 16 bd
       -0.20697324 0.08668619 0.027063362 -0.036773134
000150 a1 fd 68 bd 52 f3 aa bd 99 7c 8d bd a1 72 34 be
       -0.056882504 -0.08347191 -0.06908531 -0.17621852
000160 a2 8f 42 be 73 a4 4f be e4 3d 6a bc 27 0a 82 3c
       -0.19000104 -0.20277576 -0.014296982 0.015873982
000170 51 46 87 3c f3 d9 83 bc f0 e3 85 3b a8 02 32 be
       0.016513022 -0.016095137 0.00408601 -0.17383826
000180 dc 88 d8 bd ef cf 32 bd f5 f8 02 be 3f c6 0e bd
       -0.10572979 -0.043655332 -0.12790282 -0.03485703
000190 96 13 d2 3c 3e e2 d2 3d fe ec bb 3d 44 63 82 bd
       0.025644105 0.102970585 0.09176062 -0.0636659
0001a0 46 c2 64 3e 41 57 94 3c d4 00 c6 bc f4 cb c4 3d
       0.22339734 0.018108012 -0.024170317 0.096092135
0001b0 63 d9 73 3c 21 43 a7 bd 42 52 61 3c 9f 2f aa 3c
       0.014883372 -0.08167101 0.013752522 0.02077466
0001c0 f1 70 50 3d 2f 2d 98 bd d3 35 c8 bd 3a 83 9b 3d
       0.05088896 -0.07430493 -0.09775891 0.07593389
0001d0 35 15 c0 bd 40 3c 30 be 12 52 34 bd c2 81 67 bc
       -0.09379045 -0.17210484 -0.04402358 -0.014130058
0001e0 97 4b c7 3c 1a bc a7 bd 3f 1d c9 3c 67 34 5b bd
       0.024328036 -0.081901744 0.024550078 -0.05351677
0001f0 cd f0 ff 3c 03 eb 2d bd 27 ea 00 3e 04 0c c4 3c
       0.031242752 -0.042460453 0.12589322 0.02393151
000200 94 e5 67 be e7 1e 7a 3d 2d c3 97 bd a8 e5 20 3d
       -0.22646171 0.061064627 -0.07410274 0.039281517
000210 b5 37 0a 3e e8 93 10 be 82 78 4e be 49 19 df bc
       0.13497813 -0.14118922 -0.20163158 -0.027233737
000220 56 bb 55 be 92 e6 c3 3b 76 29 55 3d 7e 3c d1 3c
       -0.20872244 0.005978414 0.052041493 0.02554154
000230 30 3d 90 bd 17 fd a6 bd b6 43 17 3e eb 17 19 bc
       -0.070429206 -0.08153742 0.14771923 -0.009344081
000240 e1 dc 4c 3d de e4 c0 bd e5 f9 be be 38 9b 6f 3b
       0.050015334 -0.09418653 -0.3730003 0.0036561023
000250 36 79 ce 3d f6 16 fc bd e7 7e b8 bc f3 a6 10 bd
       0.10081713 -0.12309067 -0.02252145 -0.035315465
000260 6d e7 2a be a6 bb 4c ba 91 dd 24 bd 83 d8 11 bf
       -0.16689844 -0.0007809944 -0.040250365 -0.56970996
000270 b3 de 68 be 3c da 61 3d d4 1d 0e 3d 52 45 46 3e
       -0.22741203 0.055139765 0.034696415 0.19362381
000280 de d2 ca 3d 2e 3b 69 3e fb fd 04 3d 23 b1 83 be
       0.09903501 0.22776482 0.032468777 -0.25721082
000290 43 7f 8f bc d6 ce cf 3c 9e 73 15 3d 01 61 0f 3e
       -0.017516738 0.025367182 0.036487214 0.14001848
0002a0 b2 61 72 bc a9 63 18 bd 0e 0e 4a bd c4 6c 19 bf
       -0.0147938 -0.03720442 -0.04932981 -0.5993159
0002b0 7f 67 33 3d 97 17 32 bc 1d d8 9b 3c 2e 72 46 3c
       0.043799873 -0.010869882 0.01902395 0.0121121835
0002c0 0f 8b ab bc 54 91 f3 3e 1e d2 3a bb 2b 20 3c 3d
       -0.020940332 0.47571814 -0.0028506587 0.045929115
0002d0 f3 fc 6e 3e 4a 00 80 3d 50 cf 1b bd 5b 8b 1e bf
       0.2333868 0.06250055 -0.038039505 -0.6193139
0002e0 ad 85 0c 3e b0 bf 15 bd 4c 84 54 3e 40 77 b6 3e
       0.13722868 -0.03655976 0.20753592 0.35637856
0002f0 40 4d 80 3c 7b 6f b4 3c 17 9f b1 bc e7 bf 36 be
       0.015661836 0.022025814 -0.021682305 -0.17846642
000300 71 b8 cb 3c 34 45 d1 3e d5 41 ab 3c 97 df 10 3e
       0.024868222 0.4087311 0.020905415 0.14147793
000310 58 66 45 3c f0 06 e3 bd 8e f0 ad 3d c5 cb 01 be
       0.012048326 -0.110853076 0.08493148 -0.12675388
000320 aa 90 7c 3e 21 73 23 3c 46 f5 a5 3e e6 ab a4 3c
       0.2466456 0.009976179 0.3241369 0.020101499
000330 a2 5f 02 bd 92 c7 b1 be 12 0d 25 3c 8a 2d da 3e
       -0.031829484 -0.34722573 0.010073917 0.4261287
000340 39 e2 4d bc 04 77 52 be 31 7d c7 bc 58 34 a6 3d
       -0.012566143 -0.20553213 -0.024351688 0.081154525
000350 56 1e 0e 3e 76 c1 0e 3e ef 72 76 3e 2c d6 ff bc
       0.1387876 0.13940987 0.24067281 -0.031230055
000360 05 cb 0d bd b5 57 af 3e 0c 6e 0f 3e b6 cb 3d 3c
       -0.034617443 0.34246603 0.14006823 0.011584213
000370 3b 5b b6 3b 31 54 95 bd 67 4f 2d be fa 96 d7 3e
       0.0055650747 -0.07291449 -0.16924821 0.42107373
000380 38 5a 6f 3e c6 61 54 3d 13 1e 8e 3d 93 e3 51 3c
       0.2337426 0.051851057 0.0693933 0.012810606
000390 4d 5d 38 3b 23 8d 56 be 46 a8 7a be f3 43 6d 3e
       0.0028131783 -0.20952277 -0.24478254 0.23170452
0003a0 31 c3 19 bf 44 0b 1c 3d b3 d7 5c 3d 46 46 79 be
       -0.60063463 0.03809668 0.053916644 -0.24343213
0003b0 93 8f 88 bd d5 58 ee 3d 69 ab 3b 3d 73 17 16 3d
       -0.066680096 0.11638037 0.045817766 0.036643457
0003c0 fe 24 b5 bc 57 61 26 3e 18 e1 0b 3e ab 2e 63 be
       -0.022112366 0.1624807 0.13660085 -0.22185771
0003d0 a9 2e 70 bc 6e 82 6a 3e fa 1f ac 3d a6 8c ea bd
       -0.014659562 0.22901317 0.084045365 -0.11452608
0003e0 54 04 89 3c fd a3 3c 3e 0f 95 97 be 20 9d d3 bc
       0.016725697 0.18421932 -0.2960591 -0.025831759
0003f0 45 4b ff bc b5 98 de 3c 06 95 76 be e4 1d 4e 3d
       -0.031163821 0.027172426 -0.24080285 0.050321475

proj.2.bias f4 [192]
000000 64 86 11 bd 44 41 b7 3c d0 fb a0 bb ec 20 cf bb
       -0.035528556 0.022369988 -0.004912831 -0.0063210633
000010 15 42 77 3c 96 96 98 bc 1e c0 05 3d d4 9e e7 3c
       0.015091439 -0.018626492 0.03265392 0.028273977
000020 56 58 88 bd b6 f3 86 ba b5 62 8a 3c 2e 76 b6 bc
       -0.06657474 -0.001029602 0.01689277 -0.02227315
000030 43 76 83 3d 04 84 68 3b e6 71 93 bd f4 8b a9 3a
       0.06419041 0.0035479078 -0.07199459 0.0012935386
000040 03 8c 67 3c 71 57 c9 bc 27 da 8e bc 6a db 7f 3c
       0.0141325025 -0.024577828 -0.017438008 0.015616277
000050 7b fe 3f bc 5b c0 5d bb eb 5e 8c 3c 73 8a 00 bd
       -0.011718388 -0.0033836577 0.017135104 -0.031382035
000060 dd 60 56 bd da 63 fe 3a fe f3 36 3d 18 a7 27 bd
       -0.05233847 0.001940842 0.044666283 -0.040930837
000070 5b 3e 5e bc e4 c3 64 3d d8 b1 87 bd ae 86 ee bc
       -0.013564671 0.05585088 -0.06625718 -0.029116955
000080 c5 25 dc 3d 3b c5 fb bd a2 eb a2 bc 81 b7 28 3e
       0.107493915 -0.12293478 -0.01988775 0.16476251
000090 08 8e 34 3d 9f 9c 1a bd 9a ce 8d bb d1 01 1d bc
       0.044080764 -0.03774702 -0.0043276073 -0.009582953
0000a0 0a 88 4c bb 27 e1 48 3c ce 9a 49 3d 15 f5 c6 bb
       -0.0031209015 0.012260712 0.0492199 -0.0060716965
0000b0 4d 77 2c bd 9f ea 24 3d 06 77 c5 3c d5 c1 a8 bd
       -0.04210596 0.040262815 0.024104606 -0.082400955
0000c0 39 f0 3a be 73 f3 20 3c d0 7c 25 3e b7 bf 01 bd
       -0.182557 0.009823668 0.16160893 -0.031676974
0000d0 fe bc 98 bc 23 fc 6b 3d d0 fb 9d 3d 6b 52 1b bd
       -0.018644806 0.057613503 0.07714045 -0.037920397
0000e0 86 c4 ab bc 51 0a f6 3d a1 5e 05 bb cd 32 a6 bd
       -0.020967733 0.120136864 -0.0020350593 -0.08115158
0000f0 d0 24 21 bc c1 66 2b bc 46 c9 58 3d 33 ad 21 3d
       -0.009835437 -0.01046151 0.052926324 0.039471816
000100 43 ae ce bc 2f 1f f1 3b 7d b6 35 3e a3 ff 93 bb
       -0.025229579 0.0073584537 0.17745395 -0.0045165583
000110 38 2b 2c be e2 74 1d 3e 6d f5 af 3c 51 27 37 be
       -0.16813362 0.15376619 0.021479333 -0.17886092
000120 b5 c0 ac bc 01 0f e5 3b b1 91 a5 3c f3 ab f4 3c
       -0.021087984 0.006990314 0.020211073 0.029867148
000130 3f 98 06 bd 42 9b a1 3c c4 43 9f 3e f9 7a 60 3b
       -0.032860037 0.019727353 0.3110639 0.0034252985
000140 14 70 8a be 5d 52 24 3d 56 94 dd bc 28 49 85 3c
       -0.27038634 0.04011761 -0.027048271 0.016270235
000150 57 e6 f3 3d e1 c3 dd bc 57 b1 87 bd 9c 74 11 be
       0.11909168 -0.027070941 -0.06625622 -0.14204639
000160 a8 5d 8c bc 90 e8 45 3e 68 11 20 be 70 7a 55 3c
       -0.017134503 0.19326997 -0.1563164 0.01302968
000170 eb 8a 23 3e 07 33 c3 bd 08 fb 3f 3c 0c 0f a9 3d
       0.15970962 -0.09531217 0.011717565 0.08254823
000180 b0 22 fa 3c 88 58 1a 3c 62 c8 31 bd 6d c6 29 3d
       0.030534118 0.009420522 -0.04340399 0.041449
000190 d9 56 5f bc 4f 24 b6 ba 56 93 15 be 6e d1 ad bc
       -0.013631546 -0.0013896319 -0.14606985 -0.021218028
0001a0 ef cd 4f 3e 89 41 1e 3e 63 84 e2 bc 1c 17 c4 bd
       0.20293401 0.15454687 -0.027651018 -0.0957472
0001b0 61 e7 10 3d 5f 6b e3 bc c7 31 a1 3c b2 22 9b 3d
       0.03537691 -0.02776116 0.019677056 0.07574977
0001c0 3b 7c 0f bb 5f db 17 bd 20 31 0f be 39 b2 97 bc
       -0.0021894115 -0.037074443 -0.13983583 -0.0185176
0001d0 27 bf 27 3e bf 00 58 be b1 1e d9 3c 20 af 30 3e
       0.16381513 -0.21094035 0.026503893 0.17254305
0001e0 36 d9 40 3d 7e 2c c0 3c 62 fe 9b bd c2 e0 15 bd
       0.04708215 0.023458716 -0.07616879 -0.0365913
0001f0 b0 a0 3c bc b4 a5 4f 3d 5d c1 00 be ff 63 16 bd
       -0.01151292 0.050695136 -0.12573762 -0.036716457
000200 a2 3a 3e 3e d2 3b 2d be a7 b8 f7 bb cd cf 55 3e
       0.18577054 -0.16917351 -0.007559854 0.20880051
000210 a8 49 7a bb 62 25 75 bb e2 f6 14 3d e1 f1 fc 3d
       -0.0038190875 -0.0037406315 0.03636826 0.12350822
000220 88 77 f5 bc 4b 9b 96 bd d5 7a 35 3d 61 fb 84 bc
       -0.029964224 -0.073538385 0.044306595 -0.016233148
000230 4d 21 17 bd fc 93 18 be b5 4e c1 3c 69 63 dd 3d
       -0.036896992 -0.14900202 0.0235971 0.108099766
000240 42 77 36 3d cc 03 5b 3c 9a 78 90 bd 75 f9 47 3d
       0.044547327 0.013367604 -0.07054253 0.048821885
000250 61 21 63 bc 28 79 e4 bc 72 ce 3d bd e0 da 2e bc
       -0.013862939 -0.027889803 -0.04633946 -0.010672301
000260 f4 ac 86 3d 5d 88 9f 3d 31 cc 82 bc 78 8d 40 bd
       0.06575957 0.07789681 -0.015966507 -0.047009915
000270 94 70 79 bd f1 75 ad bc 9d b5 d8 3d ff a9 d7 bd
       -0.06089838 -0.021174403 0.10581515 -0.10530471
000280 9e 3c 86 bc 0a a1 e7 3d c3 15 07 bb 64 9a 6a bc
       -0.016386326 0.11310013 -0.0020612336 -0.014319036
000290 c8 fe a2 3c 25 52 72 bd 7d 83 24 3c 00 34 2b 3d
       0.01989688 -0.05916037 0.010041115 0.041797638
0002a0 56 f5 f4 3a 50 b1 9e 3c 89 57 1c bd 4d dc 54 bd
       0.0018688838 0.019371659 -0.038169418 -0.051967908
0002b0 aa f6 77 3c 26 03 c6 3c da 7d bf bd f8 f7 9c 3c
       0.015134493 0.024171423 -0.09350176 0.01916121
0002c0 98 73 8c 3d b4 00 bb 3d e8 25 91 3c af 2d e7 bd
       0.06857985 0.091309935 0.01771827 -0.1128801
0002d0 18 ea ec 3b 09 57 d1 3b 6b 10 60 bc 3d e1 ad bd
       0.0072300546 0.006388549 -0.013675789 -0.084902264
0002e0 bb 27 c4 3c f8 b8 4e 3d 9f 2c ed bc 8c ea f1 3b
       0.023944726 0.05046937 -0.028951941 0.0073826965
0002f0 c8 18 06 3c b9 5d 19 bd d9 12 d5 3c 5f d2 bf bb
       0.008184619 -0.037442897 0.026009964 -0.0058539356
