EWOthello/KLiScripts/KLi_Paper_Checkpoints/state_tl16/layer7/checkpoint.ckpt (torch, 47699 bytes, 4 tensors)

proj.0.weight f4 [16, 512]
0	0xbd9c1ea6	-0.07623033
1	0x3d9e1664	0.077191144
2	0x3c2f0fb1	0.0106848935
3	0x3dc346c0	0.09534979
4	0xbd591abf	-0.053004023
5	0x3dd69fea	0.1047972
6	0x3e14b421	0.14521839
7	0x3de9553c	0.1139321
8	0x3d82a1da	0.06378527
9	0xbdf8af73	-0.12142839
10	0x3e142e92	0.1447089
11	0x3c579ee9	0.013160446
12	0xbdd74ac8	-0.1051231
13	0xbe88b985	-0.2670404
14	0xbeac83b0	-0.3369422
15	0xbdc3e8f9	-0.095659204
16	0xbd0d511c	-0.03450118
17	0xbdb160d4	-0.086610466
18	0xbec394f2	-0.38199574
19	0xbe045a54	-0.12925082
20	0xbcc4cd4a	-0.02402367
21	0x3cf4a299	0.029862689
22	0xbe019ae6	-0.12656745
23	0x3dcb2404	0.09918979
24	0x3d0498b8	0.032372206
25	0x3db5f065	0.08883742
26	0x3cc6fc37	0.024290187
27	0x3cf00916	0.029301208
28	0x3daf4a69	0.085591145
29	0xbd117e67	-0.035520937
30	0xbe161b01	-0.14658739
31	0x3d8ff175	0.07028476
32	0x3db9b4b0	0.090676665
33	0x3e24a12b	0.16077106
34	0xbe34e8dc	-0.17666954
35	0xbd8eccbd	-0.069726445
36	0xbe57bc01	-0.21067812
37	0x3de0a19d	0.10968325
38	0x3dd8e7a1	0.10591055
39	0xbda482fb	-0.08032795
40	0xbcd4f430	-0.025995344
41	0xbe176778	-0.14785564
42	0x3c9d42a4	0.019196816
43	0xbe5aa791	-0.21352984
44	0xbe08c4b2	-0.13356283
45	0xbe6b18b0	-0.22958636
46	0xbe1ee481	-0.15516855
47	0xbca4a2da	-0.020097185
48	0x3e119a20	0.1421895
49	0x3d3b2ba1	0.045695905
50	0x3da01362	0.07816197
51	0xbe4d44b8	-0.20045745
52	0xbb476d38	-0.003043009
53	0x3dd95ece	0.10613786
54	0xbd4d3295	-0.050097067
55	0x3da54d36	0.080713674
56	0xbdbb3127	-0.091402344
57	0xbdfe5c1b	-0.124199115
58	0x3d93182e	0.07182346
59	0x3e1ccf22	0.1531339
60	0xbd0300de	-0.03198325
61	0x3db1777f	0.0866537
62	0xbda33c2f	-0.079704635
63	0xbdbc84c5	-0.09205011
64	0xbca9cb62	-0.020726863
65	0x3e28b35f	0.16474675
66	0xbe499140	-0.19684315
67	0x3de724ab	0.11286291
68	0xbd8bc105	-0.06823925
69	0x3baf6ca9	0.0053535295
70	0xbdd1150d	-0.10209093
71	0x3ad15ae9	0.0015972528
72	0xbe2229cf	-0.15836261
73	0xbd011dec	-0.031522676
74	0xbe165c9f	-0.1468377
75	0x3e56c517	0.20973621
76	0xbe10a8e5	-0.14126928
77	0x3e945428	0.28970456
78	0x3e509cb3	0.20372276
79	0x3e05819d	0.13037725
80	0x3c77b94c	0.015119862
81	0xbcf3e09a	-0.029770184
82	0x3c32d437	0.010914854
83	0x3d1872cb	0.03721885
84	0xbe10e394	-0.14149314
85	0x3d1ffa82	0.039057262
86	0x3e2d9205	0.16950233
87	0xbdb24e4a	-0.08706339
88	0xbd9e1fd6	-0.07720916
89	0x3ce414b0	0.027841896
90	0xbe047520	-0.12935305
91	0x3bb02583	0.0053755655
92	0xbe1ba90f	-0.1520121
93	0x3e490e9d	0.19634481
94	0xbd653f5a	-0.05596862
95	0x3d6595a6	0.05605092
96	0x3d998027	0.07495146
97	0x3e0a3448	0.13496506
98	0x3e5e7c5c	0.21727127
99	0x3d98c883	0.074601196
100	0x3e14a384	0.14515501
101	0xbde8e662	-0.11372067
102	0xbcf69346	-0.030099522
103	0xbe146529	-0.14491715
104	0xbd5cd1cf	-0.053911027
105	0xbe85941d	-0.26089564
106	0xbe68a2ca	-0.22718349
107	0x3e4b5d24	0.19859749
108	0x3b901b76	0.004397805
109	0xbc4e898a	-0.012606034
110	0x3ca1b456	0.019739311
111	0xbe88aadc	-0.26692855
112	0xbd761479	-0.060078118
113	0xbe098488	-0.13429463
114	0x3c81fc21	0.015867295
115	0x3e9a8918	0.3018272
116	0x3e64b328	0.22333968
117	0xbd158906	-0.03650763
118	0xbe3b8b3c	-0.18314832
119	0xbd07c5d8	-0.033147663
120	0xbd8a51ec	-0.067539066
121	0xbd3ec246	-0.046571992
122	0x3e4c448f	0.19948028
123	0xbde0fee1	-0.10986114
124	0x3c808e00	0.01569271
125	0xbe6a53cc	-0.22883528
126	0xbe2ce632	-0.16884688
127	0xbda76b88	-0.08174807
128	0xbe34d20f	-0.17658256
129	0x3d9f3245	0.0777326
130	0xbe1c3eb8	-0.152583
131	0x3d60db37	0.05489656
132	0x3d283e91	0.041075293
133	0xbdaa47ad	-0.08314452
134	0xbdd92488	-0.10602671
135	0x3e646340	0.22303486
136	0x3c6e4df2	0.014544951
137	0x3b1c1f88	0.0023822505
138	0x3e0fcc13	0.14042692
139	0xbdb55146	-0.08853392
140	0xbcd7aa51	-0.02632633
141	0x3e5f8b0b	0.21830384
142	0x3e12e9ff	0.14347075
143	0x3d7d9943	0.06191374
144	0xbba79a64	-0.0051148403
145	0x3e4d94be	0.20076272
146	0x3cf422b7	0.02980171
147	0xbe049df3	-0.12950878
148	0x3dd1821c	0.102298945
149	0x3e7992da	0.24372426
150	0xbe0e4a4f	-0.13895534
151	0x3e166d72	0.14690188
152	0x3dfe4f4a	0.12417467
153	0xbd0403fb	-0.03223036
154	0x3e3fb2b2	0.1872051
155	0x3b9ac6fe	0.0047234287
156	0x3ca03855	0.019558111
157	0x3db4c1c6	0.08826022
158	0x3e22ce3d	0.15898986
159	0xbe28b301	-0.16474535
160	0x3dd8dcb8	0.10588974
161	0xbdf0af59	-0.11752195
162	0xbdbf23e3	-0.09333017
163	0x3c5ecf62	0.013599249
164	0xbda3f8ed	-0.08006463
165	0xbc81fcba	-0.01586758
166	0x3d89f37c	0.06735894
167	0x3ea12129	0.31470612
168	0xbdc4d1aa	-0.09610303
169	0xbe2216ff	-0.15829085
170	0x3d3271bc	0.043565497
171	0x3d1a0278	0.03760001
172	0x3ca09709	0.01960327
173	0xbe4e8da3	-0.20171218
174	0x3bcbeca6	0.006223279
175	0xbdfe1776	-0.124068186
176	0xbd195b3c	-0.037440524
177	0x3d8b07ad	0.067885734
178	0xbd4bf8b2	-0.04979772
179	0x3b431e3f	0.0029772667
180	0x3e0234f4	0.12715513
181	0x3d7044fc	0.05865954
182	0x3e836666	0.2566406
183	0x3e260b04	0.1621514
184	0xbd2a6e7e	-0.04160928
185	0xbd30bd99	-0.043149564
186	0x3e4cb285	0.19989975
187	0xbe55ff07	-0.20898066
188	0xbe248085	-0.16064651
189	0xbdbf81fe	-0.09350966
190	0xbe3bde84	-0.18346602
191	0xbdca037a	-0.09863944
192	0xbe2b1716	-0.16708025
193	0x3df42236	0.11920588
194	0xbe2a16b8	-0.16610229
195	0xbddfc2e3	-0.109258436
196	0xbe08b14d	-0.13348885
197	0x3e3eb34a	0.18623081
198	0xbdbb8711	-0.09156621
199	0x3dc51f8c	0.09625158
200	0x3cf4b26a	0.02987023
201	0x3dc16b39	0.09444279
202	0x3d010c1c	0.03150569
203	0xbea06396	-0.31325978
204	0xbd3341fa	-0.043764092
205	0x3d17c6be	0.03705477
206	0xbe755a19	-0.23960151
207	0x3e966abd	0.2937831
208	0xbd3bbf33	-0.04583664
209	0x3d277a81	0.040888313
210	0xbcdade59	-0.026717352
211	0xbd8391ef	-0.06424319
212	0xbe25aa54	-0.16178256
213	0x3e1e69b8	0.15470016
214	0xbe1f1673	-0.15535907
215	0xbced5ced	-0.028974975
216	0x3de30941	0.110857494
217	0x3dbf9770	0.09355056
218	0xbbeb9a66	-0.0071900366
219	0xbdcd4bcc	-0.10024223
220	0xbe2be865	-0.1678787
221	0x3d863964	0.06553915
222	0xbc114b5b	-0.008868064
223	0xbd006a3d	-0.031351317
224	0xbe5f1994	-0.21787101
225	0xbe87eb2a	-0.26546603
226	0x3cf14444	0.029451497
227	0x3ce64900	0.028110981
228	0xbd6b3dc3	-0.057431947
229	0xbe5ae178	-0.21375072
230	0x3edb79c4	0.42866337
231	0x3d33f5c2	0.043935545
232	0x3d857271	0.065159686
233	0xbe22c8d8	-0.15896928
234	0xbcc409a5	-0.02393038
235	0xbdafa9bc	-0.08577296
236	0x3dfd650d	0.123727895
237	0x3e17972b	0.1480376
238	0x3e8d7857	0.27630875
239	0x3ea40356	0.32033795
240	0x3a6d3c68	0.0009049834
241	0xbe0e800f	-0.13916038
242	0x3dcd2d83	0.10018446
243	0xbda0cb1d	-0.07851241
244	0xbe6076a1	-0.21920253
245	0xbd0f76cd	-0.035025407
246	0xbdfeb83d	-0.124374844
247	0xbca6425d	-0.020295316
248	0x3c4ee962	0.012628885
249	0xbbe16706	-0.0068787364
250	0xbe0628b6	-0.13101467
251	0x3d80972f	0.06278836
252	0xbd94d8b9	-0.07267899
253	0xbe508da4	-0.20366532
254	0x3d630a8f	0.05542999
255	0x3d9f5bad	0.07781158

proj.0.bias f4 [16]
0	0x3eed63bd	0.46365157
1	0x3f0b0610	0.54306126
2	0x3f2a4d9f	0.6652469
3	0x3e5f0d0d	0.21782322
4	0x3f1369a3	0.57583064
5	0x3f202bd9	0.62566906
6	0x3f56aa28	0.8385339
7	0x3f007c9e	0.5019015
8	0x3f477853	0.77917975
9	0x3eb6b8d5	0.3568789
10	0x3f1486ae	0.58018005
11	0x3e9d09da	0.3067158
12	0x3efd0dde	0.49424642
13	0x3ee171a8	0.44032025
14	0x3e494524	0.19655281
15	0x3ebfe149	0.37476566

proj.2.weight f4 [192, 16]
0	0x3dc0a148	0.09405762
1	0x3cbca1ac	0.02302631
2	0xbdadbff4	-0.08483878
3	0xbdcda423	-0.10041072
4	0x3c588e50	0.013217524
5	0xbe33df22	-0.17565587
6	0xbb913a75	-0.0044320174
7	0xbd8c5b12	-0.06853308
8	0xbe11493e	-0.14188096
9	0xbe8942aa	-0.26808673
10	0x3d47215e	0.048615806
11	0x3c44912d	0.011997503
12	0xbdc79fa4	-0.09747246
13	0x3cc41433	0.023935413
14	0x3e0dcc07	0.13847362
15	0xbd3023e0	-0.043002963
16	0xbdd322ac	-0.103093475
17	0xbe18545f	-0.14875935
18	0x3dfb2c81	0.12264348
19	0x3e1dbb32	0.1540344
20	0x3d377afc	0.04479502
21	0x3e8441cb	0.25831446
22	0xbce188dd	-0.027531082
23	0x3d8a1f44	0.06744245
24	0x3daf1aba	0.085500196
25	0x3e8a9fda	0.27075082
26	0xbde3ce78	-0.11123365
27	0xbdd100be	-0.1020522
28	0x3dbe1a17	0.0928232
29	0xbc9c9321	-0.019113125
30	0xbe720ac8	-0.23636925
31	0xbb46e75d	-0.0030350306
32	0x3dd04e40	0.10171175
33	0x3d04f019	0.032455537
34	0xbdabb387	-0.083838515
35	0xbde72eaf	-0.11288201
36	0x3b27064d	0.0025485933
37	0xbe3fd2b5	-0.18732722
38	0xbc3b3b04	-0.011427645
39	0xbd945a36	-0.07243769
40	0xbdfd1d61	-0.12359119
41	0xbe88628b	-0.26637682
42	0x3d877320	0.06613755
43	0x3c3ffd30	0.011718079
44	0xbdd8fbc5	-0.10594896
45	0x3c71406c	0.014724832
46	0x3e0ec347	0.1394168
47	0xbd660708	-0.05615905
48	0xbc997c69	-0.018736081
49	0xbe6193d6	-0.22029051
50	0xbd9da55e	-0.07697557
51	0xbc2594e0	-0.010106295
52	0xbddabc73	-0.10680475
53	0xbe8e7d72	-0.27830082
54	0xbd5b0e24	-0.053480282
55	0xbd0b2c7e	-0.033977978
56	0xbd818677	-0.06324475
57	0x3c27c8ae	0.010240717
58	0x3dea9d93	0.11455836
59	0xbc95d665	-0.018290708
60	0x3cf58d40	0.02997458
61	0x3d6492a2	0.055803902
62	0x3e2c707f	0.16839789
63	0xbd99407c	-0.074830025
64	0xbd266047	-0.04061916
65	0x3e380c2f	0.17973398
66	0x3e382b82	0.17985347
67	0x3c2dc630	0.010606334
68	0x3e583880	0.21115303
69	0x3ed98a23	0.42488202
70	0x3d9565c8	0.07294804
71	0x3d29780e	0.04137426
72	0x3d1a9135	0.037736136
73	0xbd787cee	-0.060666017
74	0xbe51911f	-0.20465516
75	0xbda810e8	-0.082063496
76	0x3c5017ae	0.012700958
77	0xbe0c06f5	-0.13674529
78	0xbe685d39	-0.22691812
79	0x3d73c6eb	0.059515875
80	0xbc982a73	-0.018574929
81	0xbe594ca6	-0.21220645
82	0xbdac5509	-0.08414657
83	0xbbc2a6da	-0.0059403004
84	0xbdf310f3	-0.11868467
85	0xbe8b7830	-0.27240133
86	0xbd67f3c4	-0.056628957
87	0xbd06ed7d	-0.03294133
88	0xbd7af1a0	-0.061265588
89	0x3bb21b35	0.0054353722
90	0x3e0312e6	0.12800178
91	0xbc0a9d69	-0.008460381
92	0x3cce5ff0	0.025192231
93	0x3d37f52b	0.044911545
94	0x3e2fd6a5	0.17171724
95	0xbd9f06a4	-0.077649385
96	0x3adf26fe	0.001702517
97	0xbe2a55ae	-0.16634247
98	0xbd06db70	-0.032924116
99	0xbd8c3951	-0.0684687
100	0xbd88831f	-0.06665634
101	0xbe3e4b81	-0.1858349
102	0xbd9a2390	-0.07526314
103	0x3d265271	0.040605966
104	0xbcd53154	-0.026024498
105	0x3d77a9a9	0.060464535
106	0x3e2b2893	0.16714697
107	0xbd1b7de8	-0.03796187
108	0x3cbe831c	0.023255877
109	0x3d588dbb	0.05286954
110	0x3da06a87	0.078328185
111	0xbd83a036	-0.06427042
112	0xbd3d04e1	-0.04614723
113	0x3e5d5e4b	0.21618001
114	0x3d947a64	0.07249907
115	0x3db46644	0.08808568
116	0x3df029c7	0.117267184
117	0x3ea449e3	0.3208762
118	0x3db25e34	0.08709374
119	0xbd82699c	-0.063678
120	0x3d89b2af	0.06723534
121	0xbdeebb2a	-0.116567925
122	0xbe752ad7	-0.23942123
123	0xbcc91729	-0.024547176
124	0xbdbdb801	-0.092636116
125	0xbe1ec9a8	-0.15506613
126	0xbdecfa47	-0.11571174
127	0x3d94f063	0.07272413
128	0x3bbe1089	0.005800311
129	0xbe30d387	-0.17268191
130	0xbd1ecdc5	-0.038770456
131	0xbda54bad	-0.08071075
132	0xbd8f8917	-0.0700857
133	0xbe347187	-0.17621432
134	0xbdb5658b	-0.088572584
135	0x3d270e32	0.040785022
136	0xbcc844a1	-0.024446787
137	0x3d8c3101	0.06845284
138	0x3e2b096f	0.16702817
139	0xbd0c7af0	-0.03429693
140	0x3ced52db	0.028970173
141	0x3d3860cc	0.045014188
142	0x3dac5eb6	0.08416502
143	0xbd911f90	-0.07086098
144	0xbdbf0330	-0.0932678
145	0xbd8d4161	-0.06897236
146	0xbdb64e3d	-0.089016415
147	0x3bb08702	0.005387188
148	0xbe47a691	-0.19497134
149	0xbe6e1ab2	-0.23252371
150	0xbd671fae	-0.056426696
151	0x3d4c77b8	0.04991886
152	0xbd660a55	-0.056162197
153	0xbc48ac23	-0.012248072
154	0x3da5c3c1	0.08093978
155	0x3d143a91	0.036188666
156	0x3cee1abe	0.029065486
157	0x3cc43498	0.02395086
158	0x3e18bbb0	0.14915347
159	0xbd153a6d	-0.036432672
160	0x3e5e08f2	0.216831
161	0x3c269d06	0.010169273
162	0x3e41834a	0.18897739
163	0xbd9ab5c8	-0.07554203
164	0x3ea6eb77	0.3260152
165	0x3e4f3f63	0.20239024
166	0x3dad9679	0.08475966
167	0x3bb4cb4e	0.0055174
168	0x3d22470c	0.039618537
169	0xbd9bd498	-0.076089084
170	0xbdf301fb	-0.11865612
171	0xbe7aa252	-0.24475983
172	0xbceb9e85	-0.028762111
173	0xbd076a39	-0.033060286
174	0xbec0be69	-0.3764527
175	0xbc5d8f9b	-0.013523008
176	0xbdb809a0	-0.08986211
177	0xbd92e810	-0.07173169
178	0xbdc29165	-0.09500388
179	0x3a8c8da7	0.0010723368
180	0xbe49c30a	-0.19703308
181	0xbe6be855	-0.23037846
182	0xbd7506a2	-0.05982078
183	0x3d3d37d5	0.046195824
184	0xbd57eae4	-0.052714244
185	0xbbee8354	-0.007278839
186	0x3da40be1	0.08010078
187	0x3d2e5932	0.042565532
188	0x3cd80651	0.0263702
189	0x3cacd926	0.021099638
190	0x3e21c03f	0.15795992
191	0xbd155fb8	-0.036468238
192	0xbd972456	-0.073799774
193	0xbdae5f28	-0.08514243
194	0x3c681944	0.01416618
195	0x3d441ec1	0.04788089
196	0xbde9faa0	-0.11424756
197	0xbd4e0c5f	-0.050304767
198	0xbdf32a23	-0.11873271
199	0x3d64340f	0.05571371
200	0xbe13d07d	-0.14435
201	0xbdb756f3	-0.08952131
202	0x3df3b94c	0.11900577
203	0x3b598dd1	0.0033196101
204	0x3dd1aea3	0.102383874
205	0xbc942011	-0.018081697
206	0x3dc2f7c5	0.095199145
207	0xbdd106f9	-0.10206408
208	0x3d1ddc6f	0.0385403
209	0x3db5f8e5	0.088853635
210	0xbd71c8bd	-0.05902933
211	0xbd880b2e	-0.06642757
212	0x3e0f4390	0.13990617
213	0xba384d0c	-0.0007030524
214	0x3e2d7188	0.1693784
215	0x3c927191	0.017876418
216	0x3e4374e3	0.19087557
217	0x3d451c66	0.048122786
218	0xbe6838fb	-0.22677986
219	0xbdbd3036	-0.09237711
220	0xbe04efcd	-0.12982102
221	0x3d2230b6	0.039597236
222	0xbe3ef134	-0.18646699
223	0x3dbfd803	0.09367373
224	0xbd915d33	-0.070978545
225	0xbdb699e2	-0.089160696
226	0x3c3b6734	0.01143818
227	0x3d239182	0.03993369
228	0xbdeeb97f	-0.11656474
229	0xbd3fe423	-0.046848428
230	0xbdfbbef3	-0.1229228
231	0x3d59e24a	0.05319432
232	0xbe129fac	-0.14318722
233	0xbda85b0b	-0.0822049
234	0x3dfc73bb	0.12326761
235	0x3c72ab5f	0.014811366
236	0x3dcc3651	0.099712975
237	0xbcb5c109	-0.022186773
238	0x3dcf9e57	0.10137623
239	0xbddf3be1	-0.10900093
240	0xbd97780d	-0.07395945
241	0xbd3153bc	-0.043292746
242	0x3cda7b7a	0.026670206
243	0x3c996944	0.018726952
244	0xbe348124	-0.17627388
245	0xbc4e1214	-0.012577552
246	0xbdaa075a	-0.083021834
247	0x3d6ecca5	0.058300633
248	0xbdc75d6a	-0.09734614
249	0xbd97b291	-0.07407106
250	0x3df10853	0.11769166
251	0xba961795	-0.001145112
252	0x3d8fe659	0.07026357
253	0xbc16e8a1	-0.0092107365
254	0x3daaafb2	0.083342925
255	0xbd578ce6	-0.052624606

proj.2.bias f4 [192]
0	0xbdaf1320	-0.0854857
1	0x3dbee41a	0.09320851
2	0xbd1e23d4	-0.038608387
3	0xbdb8b7c5	-0.09019426
4	0x3e416ec3	0.18889908
5	0xbda95d85	-0.082697906
6	0xbe6b056a	-0.22951284
7	0x3f0963e4	0.53668046
8	0xbe7833ff	-0.24238585
9	0xbe19b7d1	-0.15011527
10	0x3ef4a148	0.47779298
11	0xbe5ea5b0	-0.21742892
12	0x3dd362f9	0.10321612
13	0xbe28995e	-0.16464755
14	0x3d84bedb	0.06481715
15	0xbe950dba	-0.29112035
16	0x3f264ade	0.6495799
17	0xbea378c2	-0.31928068
18	0x3e0dc252	0.13843659
19	0xbe6ddbf3	-0.23228435
20	0x3d97b08b	0.0740672
21	0x39d475d3	0.00040523577
22	0xbd0ebcb2	-0.034847923
23	0x3c1e8a62	0.009676548
24	0xbe2ed116	-0.17071947
25	0x3e10977f	0.14120291
26	0xbd6ae0c8	-0.057343274
27	0x3b13673d	0.0022491955
28	0x3d83376a	0.06407054
29	0x3c8d2b27	0.01723249
30	0x3da1d5c8	0.07902104
31	0x3dc0873b	0.09400793
32	0xbe1764cd	-0.14784546
33	0x3ea0a244	0.313738
34	0xbf0d4695	-0.55185825
35	0xbd00e9ec	-0.031473085
36	0x3e89c3d2	0.26907212
37	0xbf5b3886	-0.8563312
38	0x3e6c33e6	0.23066673
39	0xbe393bca	-0.18089214
40	0x3f0531d2	0.52029145
41	0xbe2356c7	-0.15951072
42	0xbd8b380e	-0.06797801
43	0x3e624b6f	0.22099088
44	0xbdbd8c3b	-0.092552625
45	0xbde506f0	-0.11182964
46	0x3de8b056	0.113617584
47	0xbcdcb05c	-0.026939563
48	0xbe8f6bab	-0.28011832
49	0x3f48b09d	0.7839449
50	0xbeb4a527	-0.3528225
51	0x3d925500	0.07145119
52	0xbeb6c5be	-0.3569774
53	0x3dddaa2c	0.10823473
54	0xbdf31fe2	-0.118713155
55	0x3f0376c2	0.51353085
56	0x3c6f8aa1	0.014620454
57	0xbea14eb4	-0.31505358
58	0x3e24433f	0.16041277
59	0x3e9805bb	0.29691872
60	0x3ebec206	0.37257403
61	0xbe983d08	-0.29734063
62	0xbe5a3776	-0.21310219
63	0x3dbe257d	0.09284494
64	0x3e0d3655	0.13790257
65	0xbd3ddfb0	-0.046355903
66	0x3dab7254	0.08371416
67	0xbf091517	-0.53547806
68	0x3e30db7a	0.17271224
69	0xbe001101	-0.12506486
70	0x3e9d12ee	0.30678505
71	0xbe10febc	-0.14159673
72	0x3d028acc	0.03187065
73	0xbe475381	-0.19465448
74	0x3d24d9f0	0.040246904
75	0x3e814cbb	0.25253853
76	0xbf3e2972	-0.7428199
77	0x3ddfda8a	0.10930355
78	0xbda81739	-0.08207554
79	0xbee8f113	-0.45496425
80	0x3e9cffc5	0.30663887
81	0x3d8b98f4	0.06816283
82	0xbd47ef7b	-0.04881237
83	0x3cd57c93	0.026060378
84	0xbb53edcf	-0.003233779
85	0xbd3f7a3a	-0.046747424
86	0x3dbe1f3b	0.092833005
87	0x3ecc3a44	0.39888203
88	0xbe888558	-0.26664233
89	0xbe4820b5	-0.19543727
90	0x3e2640ec	0.16235703
91	0xbf0b6c81	-0.5446244
92	0x3e36e6b9	0.17861451
93	0x3dd14258	0.10217732
94	0xbe46f554	-0.19429523
95	0x3d62a932	0.05533714
96	0xbe24f609	-0.1610948
97	0x3e743f13	0.23852186
98	0xbd048ae9	-0.032359038
99	0x3d45a6d3	0.0482548
100	0xbed19501	-0.40933993
101	0x3e2ce85b	0.16885512
102	0x3ed663f8	0.41873145
103	0xbeedc045	-0.46435753
104	0xbe4e9035	-0.20172198
105	0xbb312bae	-0.0027034092
106	0xbd40545f	-0.046955463
107	0x3db901dc	0.09033558
108	0x3de62016	0.11236589
109	0xbd2b6e0a	-0.04185299
110	0xbcf1bca5	-0.029508898
111	0xbe322dae	-0.17400238
112	0x3ea2aec1	0.31773952
113	0x3e0c35cb	0.13692395
114	0x3e613299	0.21991958
115	0xbeb24876	-0.34820908
116	0x3b9ca6ba	0.0047806175
117	0xbc5bff69	-0.013427594
118	0x3d895b13	0.06706824
119	0xbd258d0a	-0.04041771
120	0xbdee9364	-0.11649206
121	0x3e828b14	0.25496733
122	0xbd81e4f9	-0.06342501
123	0xbe687704	-0.22701651
124	0x3f1fb4ae	0.6238507
125	0xbddf6310	-0.109075665
126	0x3ddce493	0.107857846
127	0xbe79ec81	-0.24406625
128	0x3d5f5614	0.05452545
129	0x3e8660c7	0.2624571
130	0xbd1635a2	-0.036672242
131	0xbe107d79	-0.14110364
132	0xbea74760	-0.32671642
133	0x3e4e7121	0.20160343
134	0x3e97aced	0.2962412
135	0xbd9ece5b	-0.07754203
136	0x3e36bed0	0.17846227
137	0x3de9e377	0.114203386
138	0x3c490486	0.012269145
139	0xbd30b8a5	-0.04314484
140	0xbcd40f21	-0.02588612
141	0xbe3902c4	-0.18067461
142	0x3f00766d	0.50180703
143	0xbe793e10	-0.24340081
144	0x3be90c56	0.0071120663
145	0xbdc66ba3	-0.09688499
146	0x3e003961	0.12521888
147	0xbc837808	-0.016048446
148	0x3be73fe5	0.0070571774
149	0x3d8eabaa	0.06966336
150	0x3ce54868	0.027988628
151	0xbeed4981	-0.46345142
152	0x3e5e9497	0.2173637
153	0x3db0493c	0.08607718
154	0xbecdabb6	-0.40170068
155	0x3e1d6e4d	0.15374108
156	0x3e924e6a	0.2857545
157	0xbf1381a1	-0.57619673
158	0x3ccc0b21	0.02490765
159	0x3cc14dff	0.023596762
160	0x3ea52738	0.32256484
161	0xbe6f784d	-0.23385735
162	0x3c23ced3	0.009998041
163	0xbd226ad7	-0.03965267
164	0x3df0752a	0.11741097
165	0xbd1c9a3d	-0.03823303
166	0x3d2c43a8	0.04205671
167	0xbd318ad0	-0.043345273
168	0x3d3b2ac8	0.045695096
169	0xbdfa6ec6	-0.122281596
170	0x3dc4a1a0	0.0960114
171	0xbe09c068	-0.13452303
172	0x3e60f35f	0.21967839
173	0xbe0b8ae4	-0.13627201
174	0xbe59844d	-0.21241875
175	0x3ed9e02d	0.42553845
176	0xbe3c8fa7	-0.18414174
177	0x3d9a18c0	0.07524252
178	0xbe91a207	-0.2844393
179	0x3e16e7ba	0.14736834
180	0x3d331cdf	0.043728705
181	0xbe5384d9	-0.20656146
182	0x3ddef01e	0.108856425
183	0xbe7b66e6	-0.24550971
184	0x3f2fa5ec	0.6861255
185	0xbea22f35	-0.3167664
186	0xbc6e69c9	-0.014551588
187	0xbd2b4f86	-0.041823886
188	0x3d803de8	0.06261808
189	0x3d22fe2c	0.03979318
190	0xbe40c109	-0.18823637
191	0x3e33ab11	0.17545725
