EWOthello/ckpts/battery_othello/state_tl8_championship/layer4/checkpoint.ckpt (torch, 25107 bytes, 4 tensors)

proj.0.weight f4 [8, 512]
000000 a6 51 6a be f4 d8 ea bd f9 0e b3 3b db 2a ca bd
       -0.22882709 -0.11467162 0.0054644314 -0.09871455
000010 84 c2 a5 3d f0 24 74 be ab 8b a9 bc 73 88 68 be
       0.080937415 -0.23842216 -0.020696482 -0.22708301
000020 d5 72 2d be bc 2a e8 bd dd f5 83 3e a1 70 7b bd
       -0.16938336 -0.11336276 0.25773516 -0.06138671
000030 0a 9c 79 3c 07 d1 87 be ed 37 07 3e 36 02 3a 3e
       0.0152349565 -0.26526663 0.13204928 0.18164906
000040 0f 8d 31 3e 1d 3a bf bd d4 4b 89 be 3f b5 70 ba
       0.17338966 -0.09337256 -0.26815665 -0.0009182281
000050 47 ad d3 3e 87 1d 37 3e 7a 50 07 be 22 a6 41 3e
       0.41343138 0.17882358 -0.13214293 0.18911031
000060 f5 c4 ac bd 39 79 58 3d 6c 8b 6a bd 8f 8d 4a bc
       -0.08436004 0.052849982 -0.05726187 -0.012362852
000070 59 c9 8e 3d c9 48 a7 3d 77 f1 e3 3d 38 61 4c 3e
       0.06971998 0.081681795 0.1113004 0.19958961
000080 ed 28 f7 bd 3c d0 cd 3d a4 fc ea 3d 6e 36 fa bd
       -0.12068353 0.10049483 0.114739686 -0.12217413
000090 41 50 01 3d c9 9c 04 3e 1c 50 0d bd f1 9b 27 be
       0.031570677 0.12950434 -0.034500226 -0.1636808
0000a0 d4 8d 8e 3e a3 39 42 be 6a 1b a8 3b c6 2f cc bd
       0.2784258 -0.18967299 0.005130221 -0.099700496
0000b0 e9 94 25 be 35 78 49 bd 8f f5 00 3e 88 66 85 bd
       -0.16170086 -0.049186904 0.12593673 -0.06513697
0000c0 91 6d 94 bd d2 29 b3 3c e2 09 4a 3c e1 fe 27 3e
       -0.07247461 0.021870527 0.012331458 0.16405822
0000d0 31 f4 41 3e d0 18 f5 3d 8b 69 45 be 94 7d c5 3c
       0.18940808 0.11967623 -0.19278543 0.024107732
0000e0 f2 a4 63 3e 71 5f 05 be 82 e9 86 bd fe bc 6f 3d
       0.2223089 -0.1302469 -0.06587507 0.058529846
0000f0 58 6d 9a 3d 03 46 28 3e 09 6b e1 3c 9e ca c7 bd
       0.07540387 0.16432957 0.027516859 -0.09755443
000100 e7 68 8a 3d bd c1 68 be be f6 be 3c e0 7f 21 3e
       0.0675829 -0.22730155 0.023311015 0.15771437
000110 88 12 14 bd ec f4 93 3d 27 09 a3 bd e1 54 ad be
       -0.036150485 0.072244495 -0.0796073 -0.3385382
000120 f0 15 21 3e e2 6c 6c 3d fe 03 7d 3c 10 f4 4b be
       0.15731025 0.057721026 0.015442846 -0.19917321
000130 f2 1a 36 3e 9c 22 46 3e b4 bc 96 bd df f1 2a 3e
       0.17783716 0.1934914 -0.07360211 0.16693829
000140 87 8a 70 bd f3 bd 4d 3d 7a 7e b0 3d d3 98 69 3e
       -0.05872586 0.050229978 0.086178735 0.22812204
000150 a6 19 42 be 82 bb 1c 3e c6 c3 21 be 19 d7 8a 3d
       -0.18955097 0.15305904 -0.15797338 0.06779308
000160 11 4c 69 be f9 27 9d be ca ba c0 be a4 49 38 be
       -0.22782923 -0.3069456 -0.3764251 -0.17996842
000170 6c 90 5c be c4 41 1b bc 12 eb 97 bd 1e 35 80 3d
       -0.21539468 -0.009476129 -0.07417883 0.06260131
000180 e3 d6 ee 3e b9 d3 fe 3d 04 f6 e4 3d 24 b3 51 3e
       0.4664832 0.12442727 0.11179736 0.20478493
000190 bb c5 95 3e 7c 94 0c 3e 0e ca 06 be 49 59 1e be
       0.2925242 0.13728517 -0.13163015 -0.15463747
0001a0 cd 0e 3c be 42 bc 8f be 4e 32 39 3e 8e 82 2d 3e
       -0.18365021 -0.28073317 0.18085596 0.16944334
0001b0 c3 6c be bd e1 e0 ac 3d b6 9a 53 be 78 9d 49 be
       -0.092980884 0.0844133 -0.20664486 -0.19688976
0001c0 5b 39 8c 3e a6 80 dc 3d 9d 74 a8 bd ab cc 30 bb
       0.2738751 0.10766725 -0.08225367 -0.002697746
0001d0 ff 89 da 3d 0e 0f 97 3c da 07 9e 3d 61 b2 07 be
       0.10670852 0.018439796 0.07716341 -0.1325164
0001e0 4c 43 12 be 3f 83 20 bd da d1 e6 3d 79 b8 d7 bd
       -0.14283484 -0.039187666 0.11270495 -0.10533232
0001f0 77 2b b0 bd 95 53 56 3e 69 ef 22 3e 20 e3 12 bd
       -0.0860204 0.20930322 0.1591164 -0.035861135
000200 f9 f2 06 3e d3 a8 e0 3d 83 9d 80 3d 76 b7 11 3e
       0.13178624 0.10969701 0.06280043 0.14230141
000210 f8 fa 74 be c6 29 e8 3c 21 c3 dd 3e 23 ba 1c 3d
       -0.23923862 0.028340232 0.43312934 0.03826345
000220 d2 8c 1d bd 07 71 18 3e 43 86 33 3d e1 e5 d5 bb
       -0.038464375 0.14886867 0.043829214 -0.006527648
000230 a8 66 19 3d cb f4 c8 ba 75 44 13 be 61 6c e9 bd
       0.037451416 -0.0015331743 -0.14381583 -0.11397625
000240 a2 bd 96 3e d5 94 ac be 4d 5b a2 bd 17 24 2c bd
       0.29441553 -0.337073 -0.079275705 -0.042026605
000250 53 35 db bd 01 06 f8 bd 0b 81 88 be 03 8e 09 3d
       -0.1070353 -0.1211052 -0.26660952 0.0335827
000260 c3 7f 7b be ee e5 a6 bd b5 48 40 be 96 c8 ed 3d
       -0.24560456 -0.08149324 -0.18777736 0.11610524
000270 50 c4 29 be e0 20 c4 bd 1c 8e ad bd 6b aa 3e be
       -0.16578794 -0.09576583 -0.08474371 -0.18619697
000280 51 f2 2a be 75 6a 10 3e b3 1e 96 be 27 f1 95 3d
       -0.16693999 0.1410311 -0.29320297 0.07321387
000290 40 68 1b be 81 88 33 bc bc b9 0b be 21 ba 1f 3e
       -0.15176487 -0.010957838 -0.13645071 0.15598346
0002a0 2c 92 94 bb a0 01 4d be 5d b1 5d 3d 33 34 43 3e
       -0.0045340266 -0.20020151 0.054124225 0.19062881
0002b0 54 7b 30 3e 11 8d 4b be 3e 8c 9c 3e de 4b 9c 3d
       0.17234546 -0.19878031 0.30575746 0.07631658
0002c0 3a 72 52 3e ba be 55 3e 11 c8 15 3d 82 f1 4e be
       0.20551386 0.20873538 0.03656775 -0.20209315
0002d0 20 d4 09 be 7a b8 24 be 46 93 ea 3d db e0 9d be
       -0.13459826 -0.16085997 0.114538714 -0.30835614
0002e0 3f 64 6f 3e 15 df 17 be eb a4 df bc f0 93 8c 3d
       0.23378085 -0.14831193 -0.027300319 0.06864154
0002f0 79 eb 3d 3d ec b4 bf 3c 26 e9 3e bd ff 7b eb bc
       0.046367142 0.0234017 -0.046609066 -0.02874565
000300 5a a9 d3 3a b3 34 af be 41 7a 2e 3d fa 0d 23 3e
       0.0016148493 -0.34219894 0.04259706 0.159233
000310 ab 40 8b be 90 fa b6 3d 6b 72 fe 3d 8f 58 ae bd
       -0.27197775 0.0893451 0.12424167 -0.08512985
000320 ea 1a 3b bd 2b 66 f3 3e 1f 72 91 bd db 68 f0 bd
       -0.045679964 0.47538885 -0.07101845 -0.117387496
000330 93 6a d4 bc 75 6e 08 be f6 e1 e2 3d f6 b5 c0 bd
       -0.025929725 -0.13323386 0.11078255 -0.09409706
000340 1a 62 dd 3d 47 33 f7 bc ba 5f 8a bd 4c f0 0a be
       0.10809727 -0.030175818 -0.0675654 -0.13568228
000350 a3 a1 72 3d c1 d3 16 3e dc 8d 88 be ec 64 db bd
       0.05923618 0.14729215 -0.2667073 -0.10712609
000360 ab 56 ae 3d 1e 51 26 bd 1a 1e 65 3e a5 19 08 bc
       0.08512624 -0.040604703 0.22374764 -0.008306895
000370 d7 37 fd bd df fb e5 bc 40 80 21 3e 2a 8b c9 3d
       -0.12364166 -0.028074203 0.1577158 0.098409966
000380 b1 05 66 be cf 8c 0c 3e 33 cf be be f6 d0 36 be
       -0.22463109 0.13725589 -0.37267455 -0.1785315
000390 e5 bd 4e be da 6f 69 3e e4 63 ed 3d 7f 14 67 3e
       -0.20189627 0.22796574 0.11591318 0.22566412
0003a0 c0 24 64 3d d3 21 b1 bd 1f fa 01 3e cf 78 91 be
       0.05569911 -0.086490296 0.1269307 -0.28412482
0003b0 7b 48 7e bc 0d b7 45 bd bb 37 23 be eb 37 63 3e
       -0.01552021 -0.048270274 -0.15939228 0.221893
0003c0 75 f4 eb 38 8c 71 4e bd 13 3c 4b be 12 70 40 3d
       0.00011251207 -0.050401255 -0.19847135 0.04698188
0003d0 88 81 bf 3d 35 e8 c6 bc 3f a0 16 bd 9a 0d f0 bc
       0.09350878 -0.024280647 -0.036773916 -0.02930336
0003e0 db 04 d1 bc 8f 82 3f be fd 82 0d 3e 98 25 53 be
       -0.02551501 -0.18702148 0.138195 -0.2061981
0003f0 e0 34 5e 3e f1 54 3f be 89 fd f1 bd 33 92 ce bd
       0.21699858 -0.18684746 -0.11815936 -0.10086479

proj.0.bias f4 [8]
000000 12 1c c1 3f 72 dc d2 3f 08 14 07 3e 87 f7 ea 3f
       1.5086691 1.6473525 0.13191235 1.8356789
000010 b1 45 99 3f 3b e6 b6 3f b8 7d a7 3f 73 5c 89 3f
       1.1974393 1.4289011 1.3085241 1.0731338

proj.2.weight f4 [192, 8]
000000 96 de 97 be 3a 96 83 3d 50 3c 86 3e de 68 4a be
       -0.29662007 0.06425138 0.2621789 -0.19766566
000010 84 2a 18 be f7 41 46 be 85 97 e7 be d7 9a 88 3d
       -0.14859968 -0.19361101 -0.45232788 0.06670158
000020 16 64 c5 3e 4b 88 24 be d4 08 d0 be f6 83 ae 3e
       0.38552922 -0.16067617 -0.40631735 0.34085053
000030 00 91 19 3e 02 a4 59 3e 80 de 00 3f 2b 4c 2e bd
       0.1499672 0.2125397 0.5033951 -0.04255311
000040 02 45 a5 be 59 5e ae 3d 35 e7 88 3e 02 f3 56 be
       -0.3227921 0.08514089 0.26738897 -0.20991138
000050 e1 a1 24 be cc a6 4b be 1c 05 fe be f3 50 86 3d
       -0.16077377 -0.19887847 -0.49613273 0.065584086
000060 97 88 97 bd 7c fb 82 bc 34 2a 6d 3e 29 ce f0 be
       -0.07399099 -0.015989058 0.2316063 -0.47032288
000070 2d 28 0a 3e 7c 29 ae 3d 7f 66 e4 be 9f 06 a4 bd
       0.13491888 0.08504006 -0.44609448 -0.080090754
000080 30 90 01 3e 90 2d 5f 3c 1a 9f b4 be 40 aa 16 3f
       0.1265266 0.013621703 -0.35277635 0.5885353
000090 2f 37 70 be a9 89 0f be 01 4a 0b 3f 03 fe d8 3d
       -0.23458551 -0.14017357 0.54409796 0.10595324
0000a0 9b 18 a1 bd 9b bc a7 bc 2d c2 69 3e e1 f1 e3 be
       -0.07866021 -0.020475676 0.22827978 -0.44520476
0000b0 a2 16 0b 3e 1b 8f 95 3d e9 48 e6 be 8a f2 ac bd
       0.13582852 0.07302686 -0.449775 -0.08444698
0000c0 b7 82 91 bd d3 46 5f bd 6a 5d 4e 3e 63 84 88 be
       -0.0710501 -0.054510903 0.20152822 -0.26663503
0000d0 9f e8 d3 3d a5 6f 42 3d bc 3f 82 be 9d 3a ac bc
       0.10347103 0.047469754 -0.2543925 -0.021024043
0000e0 62 82 a9 3d ed 2b 70 3d 80 63 87 be 1b f7 b7 3e
       0.08276822 0.05863564 -0.264431 0.35930714
0000f0 6b e9 6a be ce fe 4b bd 0d 89 93 3e cd fa 74 3c
       -0.22940604 -0.049803548 0.288155 0.014952374
000100 e0 cc 94 bd a9 ae 7e bd 64 96 4e 3e 96 21 7d be
       -0.07265639 -0.062178288 0.20174557 -0.24719843
000110 82 9c e4 3d a6 14 b7 3c f4 0e 86 be e0 3f 9e bc
       0.11162664 0.022348713 -0.26183283 -0.019317567
000120 8c 7c a2 bd 20 74 20 be 17 5f 42 3e 97 35 63 be
       -0.07933912 -0.15669298 0.18981586 -0.22188412
000130 5d 46 01 3e d4 67 7a 3d 19 b3 7a be 44 2a 23 bd
       0.12624498 0.061134174 -0.24482383 -0.03983523
000140 7a d0 10 3d 62 6f 2d 3e 03 ea 8d be ad 30 9a 3e
       0.03535507 0.1693702 -0.277176 0.30115262
000150 fb e8 3b be 0d a9 e7 bd 07 ee 7d 3e 2c a4 d3 3c
       -0.18350594 -0.11311541 0.24797831 0.02583512
000160 21 81 b1 bd 86 ec 20 be 04 02 42 3e ce 24 56 be
       -0.086672075 -0.15715227 0.18946081 -0.20912477
000170 05 0e 05 3e 68 80 41 3d 0c 42 7f be d1 b4 36 bd
       0.1299363 0.0472416 -0.24927539 -0.044606034
000180 f5 cf 23 bd c3 5d 95 be a5 b3 47 3e a7 25 10 be
       -0.039993245 -0.29173097 0.19502123 -0.14076863
000190 25 f2 ff 3d 27 6b 25 3d e4 bd 67 be da dd 24 bd
       0.12497357 0.04038539 -0.22631031 -0.040250637
0001a0 f6 ae 0c 3d 00 1e c2 3e ad 7e 8a be 2a 5a 41 3e
       0.034346543 0.37913513 -0.2704977 0.18882051
0001b0 9b e2 27 be 7a 56 ee bd bc cb 18 3e fa a8 19 3d
       -0.16395037 -0.11637588 0.14921468 0.037514664
0001c0 f1 aa 39 bd 3c 2c 97 be 8b 55 4c 3e c3 5c fd bd
       -0.045329038 -0.29525936 0.19954507 -0.123712085
0001d0 48 b0 06 3e 21 24 d7 3c c2 2c 7c be 25 95 46 bd
       0.13153183 0.026262345 -0.24626449 -0.04848208
0001e0 fb 85 21 bd 1f e7 b7 be 10 e9 3f 3e e4 32 e6 bd
       -0.039434414 -0.3591852 0.1874125 -0.11240175
0001f0 b0 b2 d3 3d 2f 7e 65 3d c0 0d 18 be 77 a0 56 bd
       0.10336816 0.05602854 -0.14848995 -0.052399125
000200 72 a3 42 3d a6 98 fd 3e 39 e4 8b be eb 25 a5 3d
       0.047519155 0.49530524 -0.27322558 0.08063873
000210 3a 37 0a be 3b f2 ad bd a3 db 05 3e 27 83 d6 bc
       -0.1349763 -0.084934674 0.13072066 -0.026185585
000220 01 9b 1e bd b7 14 c6 be 8f 24 4a 3e 98 44 c1 bd
       -0.038722042 -0.3868768 0.19740508 -0.09436911
000230 7b 39 e7 3d 84 cb 24 3d 8c 33 27 be 02 96 77 bd
       0.112902604 0.04023315 -0.16328257 -0.060445793
000240 be 9c 1c bd fb 4b fb be ea 2c 28 3e cd a9 23 be
       -0.03823542 -0.49081406 0.16423383 -0.15982743
000250 4f a4 aa 3d b0 06 c0 3d cc 88 3e be 2a 90 a8 bd
       0.083321206 0.093762755 -0.18606871 -0.08230622
000260 0e 87 ea 3c 01 d7 1b 3f bb 18 97 be 80 6f 87 3d
       0.028628852 0.60874945 -0.29511055 0.06613064
000270 4f 74 05 be b2 a3 9b bd 66 c5 37 3e 65 5b 6a 3d
       -0.1303265 -0.07599582 0.17946395 0.057216067
000280 bd 29 6a bd f0 fd 02 bf b3 87 34 3e 5a 8f 11 be
       -0.05716871 -0.5116873 0.1762989 -0.1421484
000290 fa b1 ab 3d 4b b5 b2 3d df 57 5b be 26 7e bf bd
       0.08383556 0.08725985 -0.21420239 -0.09350233
0002a0 bf 88 99 be 29 c6 21 bf 45 95 5e 3e b2 e9 1e 3d
       -0.2998714 -0.63192993 0.2173663 0.038797088
0002b0 2c c4 37 bc 83 26 64 bd 44 28 0b be 4c e2 64 bd
       -0.011216205 -0.05570079 -0.13589579 -0.055879876
0002c0 4a 8d e2 3e 07 df 2d 3f 9d f2 b8 be c2 47 bc bd
       0.4424842 0.6791844 -0.361226 -0.09193374
0002d0 32 76 74 3d aa 5c 24 3e 1d 7b de 3d eb e0 53 ba
       0.059683032 0.16050974 0.10863326 -0.00080825266
0002e0 51 a9 95 be ee 84 29 bf d2 21 64 3e 3f 8b 43 3d
       -0.2923074 -0.6621846 0.22278526 0.047740217
0002f0 9d 1e 24 bb aa d3 8d bd 91 94 26 be f2 4b ac bd
       -0.002504266 -0.06925137 -0.16267611 -0.08412923
000300 af 38 27 be 4b 71 d2 bc 88 26 88 3e 97 a0 f0 bd
       -0.16330217 -0.025688788 0.26591897 -0.1174938
000310 be eb 84 be a5 53 03 bf b5 43 8b be da 69 92 3e
       -0.25961107 -0.51299506 -0.27200094 0.28596383
000320 97 f0 74 3e d7 2c d2 3a 62 dc e8 be a9 3e 3d 3e
       0.23919903 0.0016035092 -0.4548064 0.18480934
000330 6c 43 86 3e ff 8e 17 3f 7a ae 96 3e 92 18 d6 be
       0.26223314 0.5920257 0.2942999 -0.4181562
000340 cb d7 1f be b9 2b fd bc bc ed 84 3e 05 dc e4 bd
       -0.15609662 -0.030904638 0.25962627 -0.11174778
000350 26 ff 8a be a5 9d 06 bf df 7b 85 be 54 16 96 3e
       -0.27147788 -0.52584296 -0.2607107 0.2931391
000360 e5 06 69 be 54 cd 52 3d 72 a9 42 3e bb 15 4b be
       -0.22756536 0.051465347 0.19009951 -0.19832508
000370 48 e7 8e bd 2f 01 10 be 4b ec 9b be 20 4e 2b 3d
       -0.06977707 -0.14062952 -0.30453715 0.041822553
000380 ae db 6b 3e 3e e6 4f bd d8 57 ac be 5b 23 86 3e
       0.2303302 -0.050756685 -0.3366077 0.2619885
000390 48 50 c5 3d d4 e1 2c 3e 24 23 a8 3e e8 37 87 bd
       0.09634453 0.16883022 0.3283931 -0.0660246
0003a0 2d 62 65 be 9d 4a 69 3d 8e 0b 37 3e b1 11 45 be
       -0.22400732 0.056955922 0.17875502 -0.1924503
0003b0 45 72 9f bd 0c f9 12 be 67 1f 98 be 97 49 3a 3d
       -0.07785467 -0.14352816 -0.29711458 0.045480337
0003c0 5c 54 f3 bd 19 79 13 3d 79 03 39 3e 74 fa 76 be
       -0.11881325 0.03600416 0.18067731 -0.24118978
0003d0 cf 0b be 3d 81 f8 40 3c 91 fd 7c be 58 69 38 3d
       0.09279596 0.011777998 -0.24706103 0.04502234
0003e0 7a 27 15 3e 6b ec c9 bd ab b1 a5 be 89 1c a4 3e
       0.1456584 -0.09859546 -0.32362112 0.3205302
0003f0 51 49 e9 bd 72 4d 01 3d 91 d5 be 3e aa 88 98 bd
       -0.11390937 0.031568 0.37272313 -0.074479416

proj.2.bias f4 [192]
000000 a0 20 c7 3d a2 a0 79 be 56 33 88 3e aa 92 ef be
       0.097230196 -0.24377683 0.26601666 -0.46791583
000010 8a cd 0e 3f ab bd a9 be 1e af c9 be 4f 7a 2d 3f
       0.5578238 -0.33152518 -0.39391416 0.67764753
000020 cf d9 bc be 70 dd 54 be bb eb c0 3e 1e 14 2e be
       -0.36884925 -0.20787597 0.37679848 -0.16999862
000030 25 63 c3 bd 95 9f 46 3e 81 e1 90 bd 0a 98 5d be
       -0.09540395 0.19396813 -0.070742615 -0.2164003
000040 70 8c e5 3e cc be 8d be 74 ec 93 be 45 24 cc 3e
       0.44833708 -0.2768463 -0.28891337 0.3987142
000050 f5 83 8b be 7c 83 8d 3d 48 48 29 be 7d 85 3a 3e
       -0.27249113 0.06909844 -0.1653148 0.18214984
000060 63 e4 cb be ad a9 0c 3f 48 b7 c1 be c1 db 60 3d
       -0.39822683 0.54946405 -0.37835145 0.054897074
000070 45 ab 22 be f6 5c 13 3e 11 b7 87 3d f9 f3 5c 3c
       -0.15885647 0.1439093 0.06626714 0.013485902
000080 b3 19 34 bd 9c d6 74 3e e3 e3 bf bd f1 95 1f bd
       -0.04396982 0.23909992 -0.09369638 -0.038961355
000090 d5 c6 14 3e a8 f6 30 be 5b 6c 92 3d f1 55 d2 3c
       0.14528973 -0.17281592 0.071495734 0.025675746
0000a0 a9 47 28 3d c5 0d 33 bd c2 0c c2 3c 1b 5f fd bd
       0.041083965 -0.043714304 0.023687724 -0.123716556
0000b0 22 f8 20 3e ec dc 0e bf 7d d1 21 3f be c9 a9 be
       0.15719655 -0.5580585 0.6321028 -0.3316173
0000c0 3e 56 39 be bf 33 02 3f 13 6d b7 be de 4b e3 bd
       -0.18099305 0.5086021 -0.35825405 -0.11098455
0000d0 c9 80 a8 3e 95 c7 45 be 04 32 b8 3e 54 d3 55 bf
       0.32910755 -0.19314416 0.3597566 -0.83525586
0000e0 9f 4a 86 3e dd 74 a6 bd bf 26 cb bd f9 c7 3e 3e
       0.26228806 -0.08127759 -0.099194996 0.18630971
0000f0 36 0b 1c 3f eb a5 36 bf 50 2a 04 bd d9 22 3a 3e
       0.60954607 -0.7134692 -0.032266915 0.18177356
000100 55 24 90 be 70 67 2f 3e ff 3d 0b 3c 47 e9 ce 3d
       -0.2815272 0.17129302 0.008498668 0.10103088
000110 b2 f0 9e 3c 38 61 09 be 33 37 88 3e fd 4d b6 bd
       0.019401882 -0.13415992 0.26604614 -0.08901594
000120 be 92 1d be f0 43 bc 3e 7a 91 76 be 0b 47 9a 3e
       -0.15388009 0.36770582 -0.24078932 0.30132326
000130 74 a3 90 be d8 e7 db 3c fc ef 09 3c 04 05 b2 be
       -0.28249705 0.02684395 0.008419033 -0.34769452
000140 ca 5c ac 3e eb b9 8e 3e e2 b5 e3 bd 3c 1e 7c bd
       0.33664542 0.2787622 -0.11118676 -0.06155227
000150 39 3f cc bd 01 84 e9 bd 0c 23 a1 3e b0 31 f3 3e
       -0.09972996 -0.11402131 0.3147205 0.47498846
000160 55 0e 2a bf 10 db d2 3d e2 3b 3b 3e 3e 43 6c be
       -0.6642812 0.10295689 0.18284562 -0.23072526
000170 22 19 5f 3e 26 9c ac bb d3 db c5 3d 92 2f 4d 3b
       0.21786931 -0.005267638 0.09661069 0.0031308872
000180 85 30 8f bd ed 2f 4a 3e 6f 4b a6 bd 8c 0c 48 3e
       -0.06991676 0.19744845 -0.081198566 0.19536036
000190 ae 79 a4 be 8a a4 54 3e cd 14 02 3f 8d 63 1e bf
       -0.32124084 0.20765892 0.5081299 -0.6187065
0001a0 56 ac 17 bd 65 b8 89 bd a0 00 eb bd 63 06 90 3e
       -0.037029587 -0.067246236 -0.114747286 0.28129873
0001b0 d8 5b c4 3d 24 eb e2 bd b2 26 ef 3d e2 0f 27 3e
       0.0958783 -0.11080006 0.116773024 0.16314653
0001c0 08 db 5c bf d0 79 01 3f 84 3c b1 3e 93 d5 d1 be
       -0.86271715 0.50576496 0.34616482 -0.40983257
0001d0 5b 97 1f 3e 1d 01 9c 3b 58 c6 b9 bb ab 87 5a 3d
       0.15585081 0.004760875 -0.0056693964 0.05335204
0001e0 9a 62 22 be 20 12 da 3e 92 98 7b be 9f 6c 8f 3d
       -0.15857926 0.42591953 -0.2456992 0.0700314
0001f0 4f c2 3a be 54 30 28 3e 77 6a 1e 3e d3 35 a5 be
       -0.18238185 0.16424686 0.154703 -0.32267627
000200 e2 3c 65 3e 79 b2 f0 3e ea 29 3b bf 25 35 5c 3e
       0.22386506 0.47011164 -0.7311083 0.21504648
000210 59 6e 3f bc e6 7b 53 bf 30 5b 29 3f 90 35 a8 3e
       -0.011684024 -0.8261093 0.66154766 0.32853365
000220 d5 84 51 bf 81 5c c3 3e 8b fd e4 3a 44 51 08 3e
       -0.8184331 0.38156512 0.0017470581 0.1331225
000230 9c 4b b2 bd 23 7d 8c bd f6 90 87 3e cb 54 31 be
       -0.087058276 -0.068598054 0.26477784 -0.17317502
000240 95 dd a3 be a5 a7 cd 3e e5 79 31 be 8f 48 d3 3c
       -0.3200499 0.40166965 -0.17331655 0.025791435
000250 74 12 23 be 0a 80 43 3e ed c3 b2 bc 43 1f be bc
       -0.15925008 0.19091812 -0.02182194 -0.023208266
000260 2a f3 a4 3d 02 40 f0 3c 79 36 cc bd 45 a5 e2 3d
       0.08054192 0.029327396 -0.09971327 0.11066679
000270 f0 97 2d 3e 28 4f 0f be e9 89 18 3c ba 66 5a bc
       0.16952491 -0.1399504 0.009310224 -0.013330156
000280 14 98 81 3e 11 1a 0b be 31 1e f2 3d e2 c2 64 be
       0.2531134 -0.13584162 0.11822165 -0.22339967
000290 3f 82 56 3e 71 72 96 be c9 07 ca 3e 2b 4c 86 be
       0.20948122 -0.29384187 0.39459065 -0.26229987
0002a0 00 5b 0f 3e d0 16 81 be de b1 7d 3e c2 96 ed be
       0.13999557 -0.25212717 0.24774882 -0.46404082
0002b0 4c 64 21 3f 0b c9 e2 be 79 c8 a0 be d7 c5 11 3f
       0.63043666 -0.4429401 -0.31402948 0.56942505
0002c0 76 fe 98 be b2 61 5a be 26 32 af 3e 07 16 e4 bd
       -0.29881638 -0.2132633 0.34217948 -0.11137014
0002d0 7f d2 0d be ac 14 58 3e 5b 53 72 bd e1 3b 17 be
       -0.13849829 0.21101636 -0.059161525 -0.14768936
0002e0 e6 2c 9f 3e fe 79 59 be c0 05 15 bf 50 d1 47 3f
       0.31088942 -0.21237943 -0.582119 0.7805376
0002f0 58 65 04 bf 65 43 f5 3d 02 d9 5b be fe 14 51 3e
       -0.5171714 0.11975745 -0.214695 0.20418164
