EWOthello/ckpts/battery_othello/state_tl2_championship/layer4/checkpoint.ckpt (torch, 8211 bytes, 4 tensors)

proj.0.weight f4 [2, 512]
-0.07437394 -0.22335878 0.17607662 0.028186329 0.03657107 -0.2752932 -0.033017427 -0.06779217
-0.38689634 0.16327286 0.20954521 0.18525836 -0.18521695 -0.2296665 0.09108019 0.23803347
0.3316316 0.047619283 -0.21364675 -0.054844063 0.27984926 0.28528082 -0.25574943 0.22010937
-0.07529254 0.19732556 0.03275398 0.15020056 0.084122635 -0.03257094 0.12603971 -0.058552198
-0.27388778 0.2191237 0.029726798 -0.027668439 0.21048953 0.0028469916 -0.14147204 -0.10283096
0.3684905 -0.06366566 0.30300185 -0.21467908 -0.21406724 0.022761878 0.2873953 -0.08385599
0.11442842 0.04815097 -0.29592285 0.22063766 0.33805016 0.068789825 -0.19302072 0.01951087
0.06417145 -0.1367433 -0.09684466 0.118650764 0.5015768 -0.22987962 -0.10304949 -0.104361154
0.045320846 -0.466621 0.03922644 -0.1139261 -0.32744792 -0.035055146 -0.13270715 -0.22834107
0.2499297 -0.20691313 -0.028641365 -0.31638825 0.16069281 0.17855416 -0.043736022 0.09577237
-0.26299813 0.19773051 -0.33043134 0.042283945 -0.39881235 -0.01787367 -0.027850157 0.059622295
-0.0784211 -0.27367368 -0.3439676 -0.0899936 0.11827791 -0.11842238 -0.1224093 0.25789842
0.42397588 0.013654633 0.21250938 0.49282685 0.34910727 -0.0984411 -0.13044801 -0.30924815
-0.22824682 -0.25630993 -0.10050738 -0.00924902 -0.06668198 -0.19429882 -0.17113458 -0.26428536
0.51914585 0.061313003 0.13749811 -0.05619998 0.10658329 0.17196581 0.14574468 -0.41168484
-0.15880144 0.044400014 -0.101884045 -0.23140076 -0.2974417 0.10704563 0.09994368 0.0384472
0.032375973 0.13563104 -0.1454883 0.14002758 -0.17529775 -0.06271013 0.43678275 -0.008219567
-0.04112994 0.23959884 0.13040511 0.03284751 -0.115849316 -0.105403215 -0.45832774 -0.0741168
0.3569372 -0.4108551 -0.11214877 -0.45855206 0.17939562 0.10209912 -0.28274196 -0.07180157
0.08226839 -0.18042977 -0.273777 -0.16283755 0.007701513 -0.055441238 0.34255487 -0.79997486
0.03102876 -0.32792023 -0.35034564 -0.10758512 -0.044989217 0.08772578 -0.18141057 0.1467896
-0.3186809 -0.40632388 0.24542958 0.22757411 0.24019335 0.098596185 0.17973356 -0.04630128
0.40380126 0.055164672 0.22194625 -0.09156619 -0.05754432 -0.0007624184 0.09480816 -0.31629798
-0.06683209 -0.16301782 -0.16123904 0.007472367 -0.1319498 -0.01753488 0.16129528 -0.29599592
-0.08368679 0.001107996 -0.25283134 0.26599765 -0.4708467 0.47541714 -0.2537034 0.020937456
-0.06751691 0.5222092 -0.35037014 -0.24779443 0.3420466 -0.19389959 0.11855173 0.041814033
0.2398484 -0.2010589 0.43757084 -0.25495923 -0.19513148 -0.08992269 -0.22398837 -0.37904462
0.14862677 0.2574593 0.012861012 -0.19770004 -0.13857058 0.08177359 0.050629545 0.03208619
-0.340558 0.09767318 -0.30778307 -0.07031314 0.00618487 0.29782978 0.09397606 0.034724835
-0.10809202 0.12266924 0.1816456 -0.0868245 0.18990868 -0.108351946 0.06143977 0.31784037
-0.048832998 -0.17956547 -0.040990792 0.27698916 0.20755209 0.31406888 -0.232407 0.00904134
0.084600344 0.09509906 0.073141806 -0.111120224 -0.21867415 0.21584256 -0.13311836 -0.014351425
00000000: 5d51 98bd 2ab8 64be 6e4d 343e 04e7 e63c
00000010: 8ccb 153d 3bf3 8cbe 483d 07bd 9fd6 8abd
00000020: 4717 c6be 0031 273e 0593 563e 5eb4 3d3e
00000030: 83a9 3dbe b22d 6bbe 4088 ba3d 0cbf 733e
00000040: 9ecb a93e 700c 433d 37c6 5abe 2ba4 60bd
00000050: 6748 8f3e 5410 923e 97f1 82be 5a64 613e
00000060: fa32 9abd b60f 4a3e 0a29 063d 2dce 193e
00000070: 7d48 ac3d 1b69 05bd 8e10 013e 6ed4 6fbd
00000080: 053b 8cbe f761 603e 9d85 f33c eca8 e2bc
00000090: 918a 573e 9894 3a3b 0cde 10be 0a99 d2bd
000000a0: c9aa bc3e 2463 82bd 0f23 9b3e d5d4 5bbe
000000b0: 7134 5bbe 1e77 ba3c 7a25 933e b0bc abbd
000000c0: 7359 ea3d f439 453d 3383 97be d7ee 613e
000000d0: e914 ad3e aee1 8c3d 39a7 45be 43d5 9f3c
000000e0: 526c 833d 7006 0cbe 7e56 c6bd 2cff f23d
000000f0: 5667 003f 9065 6bbe 9c0b d3bd 4dbb d5bd
00000100: 5aa2 393d f3e8 eebe e7ab 203d 1652 e9bd
00000110: 41a7 a7be fc95 0fbd 62e4 07be 3ed2 69be
00000120: 92ed 7f3e 09e1 53be 4ca1 eabc a4fd a1be
00000130: a88c 243e e7d6 363e 8b24 33bd 4e24 c43d
00000140: b1a7 86be de79 4a3e 4c2e a9be ee31 2d3d
00000150: 2231 ccbe ce6b 92bc 0326 e4bc 8236 743d
00000160: 3e9b a0bd f51e 8cbe 851c b0be 914e b8bd
00000170: b03b f23d 6f87 f2bd bab1 fabd 430b 843e
00000180: 5e13 d93e afb7 5f3c 0f9c 593e cd53 fc3e
00000190: 30be b23e 7d9b c9bd 2a94 05be c655 9ebe
000001a0: 89b9 69be 0e3b 83be d0d6 cdbd 3489 17bc
000001b0: 9090 88bd 45f6 46be e73d 2fbe 6950 87be
000001c0: bee6 043f 5823 7b3d 4ecc 0c3e f331 66bd
000001d0: 5748 da3d ce17 303e 183e 153e 5bc8 d2be
000001e0: d89c 22be cadc 353d 95a8 d0bd 52f4 6cbe
000001f0: 474a 98be bd3a db3d 46af cc3d d07a 1d3d
00000200: ab9c 043d dde2 0a3e e3fa 14be 6463 0f3e
00000210: 4181 33be 2b6e 80bd fda1 df3e 5dab 06bc
00000220: de77 28bd 6659 753e eb88 053e 1c8b 063d
00000230: 6842 edbd a4dd d7bd efa9 eabe 8dca 97bd
00000240: 79c0 b63e 9a5b d2be 41ae e5bd 56c7 eabe
00000250: 7cb3 373e 5819 d13d 8ec3 90be b40c 93bd
00000260: 547c a83d 95c2 38be 802c 8cbe e3be 26be
00000270: f95c fc3b 5a16 63bd 5a63 af3e 27cb 4cbf
00000280: 0730 fe3c 29e5 a7be 8160 b3be 9655 dcbd
00000290: 9d46 38bd 93a9 b33d b1c3 39be 0350 163e
000002a0: 252a a3be af09 d0be e451 7b3e 3009 693e
000002b0: 3ff5 753e ccec c93d 130c 383e 69a6 3dbd
000002c0: 0abf ce3e 5af4 613d e145 633e 0e87 bbbd
000002d0: 98b3 6bbd 08dd 47ba c82a c23d cff1 a1be
000002e0: 43df 88bd 25ee 26be d91b 25be c2da f43b
000002f0: d91d 07be 4fa5 8fbc 972a 253e c78c 97be
00000300: fb63 abbd 2d3a 913a 1c73 81be d830 883e
00000310: d212 f1be e069 f33e 69e5 81be 0785 ab3c
00000320: 4e46 8abd 81af 053f b763 b3be d3bd 7dbe
00000330: bb20 af3e 9d8d 46be 40cb f23d 3145 2b3d
00000340: d29a 753e 62e2 4dbe 4909 e03e 048a 82be
00000350: 8cd0 47be 6329 b8bd 355d 65be 2312 c2be
00000360: 9e31 183e b5d1 833e feb6 523c e171 4abe
00000370: 72e5 0dbe e978 a73d ed60 4f3d cf6c 033d
00000380: 9e5d aebe e008 c83d be95 9dbe 5600 90bd
00000390: 73aa ca3b 257d 983e 8576 c03d a13b 0e3d
000003a0: 595f ddbd 033a fb3d 4e01 3a3e 0bd1 b1bd
000003b0: 6c77 423e a0e7 ddbd 45a8 7b3d f9bb a23e
000003c0: 1c05 48bd 03e0 37be f6e5 27bd 86d1 8d3e
000003d0: 8988 543e a3cd a03e 1afc 6dbe 2122 143c
000003e0: f242 ad3d 4cc3 c23d 5fcb 953d 0093 e3bd
000003f0: 1eec 5fbe d505 5d3e 2e50 08be 3d22 6bbc

proj.0.bias f4 [2]
0.07500302 2.5828962
00000000: 2f9b 993d 2c4e 2540

proj.2.weight f4 [192, 2]
0.18848605 -0.32686874 -0.3121881 0.3522159 0.17590636 -0.31608617 0.19153705 -0.26566392
-0.2970525 0.26452363 0.18003921 -0.274932 0.16681153 -0.23048955 -0.3213448 0.25762445
0.16146332 -0.23613264 0.17121722 -0.256126 -0.30967012 0.24392274 0.16478507 -0.26328623
0.17194468 -0.24670306 -0.26316226 0.26473147 0.16770695 -0.25250337 0.11931376 -0.23869151
-0.26696905 0.25186366 0.11750428 -0.24593586 0.1173356 -0.24987553 -0.20650524 0.28726047
0.11558212 -0.26177213 0.11528203 -0.39378282 -0.16796811 0.4207266 0.12266888 -0.40453395
0.22972777 -0.28645056 -0.3733738 0.2927046 0.23086394 -0.27616918 0.23273812 -0.34707457
-0.32815132 0.33750862 0.22713935 -0.3415812 0.17657119 -0.18178812 -0.37650368 0.2456867
0.19346789 -0.20191674 0.1927872 -0.19040215 -0.3374686 0.24133493 0.20983736 -0.21649618
0.13928097 -0.2171769 -0.26687282 0.25010905 0.1310886 -0.2156365 0.11491499 -0.22200158
-0.21466075 0.2689104 0.103307836 -0.21001501 0.122477084 -0.3658324 -0.1979688 0.39535296
0.122833796 -0.37016302 0.087234385 -0.34295133 -0.10470844 0.3463077 0.07836856 -0.33418226
0.20980816 -0.26107067 -0.47987932 0.3023728 0.21868017 -0.2636235 0.19222051 -0.23125997
-0.5286728 0.2732382 0.20214437 -0.2316007 0.2572325 -0.14279266 -0.517046 0.2135561
0.20992415 -0.11777056 0.32493857 -0.096406676 -0.334625 0.24586567 0.27453867 -0.047333438
0.2294583 -0.11038684 -0.09654401 0.23964268 0.24333616 -0.15079115 0.14730397 -0.19008304
-0.10750786 0.25406334 0.15173192 -0.20985648 0.084803425 -0.273638 -0.11704713 0.30164495
0.08231525 -0.2596028 0.077011816 -0.29947704 -0.062497184 0.34660077 0.08113799 -0.31463522
0.25416082 -0.28411368 -0.49274263 0.34767273 0.25846186 -0.28429732 0.23027956 -0.23779114
-0.58148617 0.3053654 0.24264067 -0.24298699 0.32140622 -0.118896134 -0.63642925 0.32120153
0.3029899 -0.09577855 0.32996556 0.1736304 -0.6689352 -0.83814603 0.33756575 0.18442819
0.33081448 0.15813856 -0.66516525 -0.8988184 0.30816197 0.1886542 0.1611303 -0.05700296
-0.0092676245 0.26086944 0.1951733 -0.11383324 0.06028961 -0.27453268 -0.0784892 0.32103583
0.05995585 -0.28011152 0.07742962 -0.29899868 -0.0702474 0.3988664 0.075111166 -0.31403747
0.22810203 -0.28988424 -0.4597346 0.33718368 0.22428587 -0.2735371 0.20621328 -0.223899
-0.3994202 0.2920329 0.21053888 -0.2259533 0.24501874 -0.101473115 -0.12459361 0.23047154
0.2654021 -0.14419326 0.3460983 0.15625377 -0.6601776 -0.8600593 0.32840782 0.20013978
0.3424234 0.22148441 -0.6599604 -0.75473744 0.32167077 0.22848202 0.17329039 -0.14486898
0.09403322 0.23787895 0.15786414 -0.11987054 0.04748556 -0.2814202 -0.017898437 0.32982096
0.053603854 -0.29936928 0.05050314 -0.31739202 -0.06559549 0.40339035 0.05718643 -0.33669072
0.21428117 -0.26562583 -0.39428318 0.30112502 0.21627578 -0.2616231 0.15974204 -0.23699367
-0.33449605 0.29017 0.14637618 -0.22396377 0.15498273 -0.19136894 -0.15648627 0.23831311
00000000: 7d02 413e 575b a7be 1ed7 9fbe a455 b43e
00000010: cc20 343e 0cd6 a1be 4a22 443e 1a05 88be
00000020: 4417 98be a46f 873e 335c 383e e3c3 8cbe
00000030: a4d0 2a3e 7405 6cbe 4e87 a4be 5ae7 833e
00000040: a456 253e c1cc 71be 9153 2f3e f222 83be
00000050: 158d 9ebe e2c6 793e 6bbd 283e 74cd 86be
00000060: 4412 303e ba9f 7cbe 34bd 86be e28a 873e
00000070: 5fbb 2b3e 1f48 81be c65a f43d 8c6b 74be
00000080: 2bb0 88be 46f4 803e 15a6 f03d 9cd6 7bbe
00000090: a64d f03d 5fdf 7fbe 1c76 53be ce13 933e
000000a0: 52b6 ec3d ff06 86be fc18 ec3d e79d c9be
000000b0: d5ff 2bbe 7a69 d73e d239 fb3d 131f cfbe
000000c0: c23d 6b3e a6a9 92be da2a bfbe 61dd 953e
000000d0: 9967 6c3e 0c66 8dbe e752 6e3e c2b3 b1be
000000e0: 7303 a8be eecd ac3e 3897 683e bbe3 aebe
000000f0: 14cf 343e aa26 3abe 17c5 c0be 4b95 7b3e
00000100: 721c 463e 43c3 4ebe 026a 453e c8f8 42be
00000110: afc8 acbe 8120 773e 9bdf 563e 2db1 5dbe
00000120: ac9f 0e3e 9f63 5ebe 8ea3 88be 4b0e 803e
00000130: 173c 063e d1cf 5cbe 8d58 eb3d 6254 63be
00000140: 07d0 5bbe a0ae 893e 0f93 d33d 2d0e 57be
00000150: 44d5 fa3d 624e bbbe 55b8 4abe b46b ca3e
00000160: 4990 fb3d 0286 bdbe f1a7 b23d 5197 afbe
00000170: 6171 d6bd 3e4f b13e b27f a03d f019 abbe
00000180: f3d7 563e 0eab 85be beb2 f5be 9cd0 9a3e
00000190: b2ed 5f3e a9f9 86be 74d5 443e 6acf 6cbe
000001a0: 1a57 07bf e1e5 8b3e effe 4e3e bc28 6dbe
000001b0: fab3 833e 3d38 12be 205d 04bf 73ae 5a3e
000001c0: 5bf6 563e b131 f1bd 595e a63e dd70 c5bd
000001d0: f853 abbe 36c4 7b3e 5590 8c3e b5e0 41bd
000001e0: 1ef7 6a3e 7f12 e2bd deb8 c5bd e464 753e
000001f0: 1d2d 793e ff68 1abe dad6 163e 21a5 42be
00000200: 152d dcbd 9714 823e 9d5f 1b3e 9ee4 56be
00000210: 6bad ad3d 481a 8cbe 68b6 efbd 3571 9a3e
00000220: e694 a83d a8ea 84be 5fb8 9d3d 0e55 99be
00000230: 0cfd 7fbd a875 b13e ad2b a63d de17 a1be
00000240: 5e21 823e 5977 91be c348 fcbe 2902 b23e
00000250: 1d55 843e 6b8f 91be 68ce 6b3e 857f 73be
00000260: 47dc 14bf db58 9c3e cc76 783e 95d1 78be
00000270: 5b8f a43e d17f f3bd 07ed 22bf 8774 a43e
00000280: 7e21 9b3e 8b27 c4bd 3ff1 a83e 2bcc 313e
00000290: 563f 2bbf bd90 56bf 6bd5 ac3e beda 3c3e
000002a0: 8460 a93e 13ef 213e 4548 2abf f618 66bf
000002b0: 68c7 9d3e 912e 413e 57ff 243e f07b 69bd
000002c0: 3cd7 17bc ae90 853e 82db 473e 6721 e9bd
000002d0: 3df2 763d 8c8f 8cbe f2be a0bd cf5e a43e
000002e0: 4494 753d c76a 8fbe 6c93 9e3d 5b16 99be
000002f0: dedd 8fbd 3738 cc3e e2d3 993d 85c9 a0be
00000300: 9493 693e b56b 94be 5562 ebbe 57a3 ac3e
00000310: 32ab 653e 0e0d 8cbe 9329 533e c845 65be
00000320: ce80 ccbe 5685 953e 8197 573e 4d60 67be
00000330: 31e6 7a3e 23d1 cfbd ef2a ffbd bb00 6c3e
00000340: c9e2 873e 66a7 13be cc33 b13e fd00 203e
00000350: 6601 29bf d92c 5cbf 1225 a83e 71f1 4c3e
00000360: 1f52 af3e cfcc 623e 2af3 28bf 7936 41bf
00000370: 08b2 a43e 31f7 693e 0973 313e 8958 14be
00000380: 7d94 c03d 8a96 733e 23a7 213e b07e f5bd
00000390: 3880 423d 4f16 90be be9f 92bc 4bde a83e
000003a0: b78f 5b3d ee46 99be 61dc 4e3d 3581 a2be
000003b0: ee56 86bd 2e89 ce3e 513c 6a3d ba62 acbe
000003c0: 866c 5b3e 1c00 88be 7cdf c9be 0f2d 9a3e
000003d0: 6677 5d3e 77f3 85be 6b93 233e 78ae 72be
000003e0: 1143 abbe 2a91 943e a3e3 153e c256 65be
000003f0: cbb3 1e3e 38f6 43be f03d 20be 5a08 743e

proj.2.bias f4 [192]
-1.7520502 1.8956379 -1.7374395 -1.4933844 1.7053713 -1.3945805 -0.650449 1.0398221
-0.6183229 -0.48118877 0.8403863 -0.43586743 -0.28293818 0.5842743 -0.24861234 -0.26970166
0.5328585 -0.2896174 -0.78417474 0.97201335 -0.75178504 -0.7486495 0.8335151 -0.66227955
-1.8559372 2.115149 -1.8564963 -1.6489985 1.8564352 -1.6064894 -0.3348141 0.9292343
-0.4532226 0.05126016 0.27773118 -0.033603437 0.2836403 -0.39491227 0.33277202 0.2653837
-0.3395442 0.32062963 -0.48334175 0.679569 -0.5304599 -0.10667014 0.07387439 0.08084525
-1.1969122 1.6935322 -1.2933655 -0.69403625 1.3675318 -0.75110507 -0.15411414 0.2144553
0.15512325 0.2537459 -0.79968464 0.4723526 1.0187242 -1.9324218 1.0780421 0.9831149
-1.7967931 0.96196866 0.8703823 -1.3193259 0.8891075 0.8265553 -1.1467034 0.92321545
-1.1152258 1.5937488 -1.1677097 -0.30291718 0.8774421 -0.43565747 0.271268 -0.6970892
0.4003203 0.47317973 -0.8015242 0.38749406 0.41819617 -0.7990746 0.43899125 1.3404093
-2.3267314 1.2769948 1.4682857 -2.4020374 1.4552698 1.0208273 -1.4807694 1.146812
-0.9495134 1.3056829 -0.97997755 -0.07880723 0.22119361 -0.14902674 0.84850335 -1.684694
0.82139814 0.44049075 -0.8047794 0.38978365 0.36296067 -0.8005283 0.50319296 1.7448053
-2.9210424 1.7721915 1.8036084 -2.9301994 1.816742 1.1795543 -1.6788723 1.2502986
-0.9751795 1.272752 -1.0201266 -0.22792397 0.19649018 -0.1700157 0.74458516 -1.4446365
0.59417266 1.3075715 -2.3096564 1.1367244 1.6318995 -2.7190285 1.531465 1.8606457
-2.9274006 1.6330775 1.5041564 -2.3746126 1.4964895 1.0965284 -1.594765 1.2084388
-1.5354078 1.7462922 -1.5623226 -1.2042807 1.3649399 -1.1907535 0.2966758 -0.66097754
0.33224136 0.8141393 -1.4894595 0.7124229 1.215538 -2.1287642 1.0938089 1.1753546
-1.9000074 1.0770576 -0.013971631 0.021453388 -0.015413944 0.29212296 -0.4804315 0.4964622
-1.3789371 1.5338145 -1.4225092 -0.6963029 0.8005389 -0.7254896 0.17446344 -0.35615593
0.107906565 0.3449032 -0.6236054 0.32648072 0.5147382 -0.8356477 0.47653943 0.54975986
-0.8400723 0.4627683 -0.02370694 0.030103577 -0.10939616 -0.21394058 0.22433677 -0.16857578
00000000: 2e43 e0bf 43a4 f23f 6b64 debf 3827 bfbf
00000010: 9b49 da3f 9d81 b2bf d383 26bf e418 853f
00000020: 694a 1ebf 605e f6be 8e23 573f 042a dfbe
00000030: 46dd 90be 0093 153f 3c94 7ebe 5616 8abe
00000040: 6a69 083f bb48 94be adbf 48bf ded5 783f
00000050: fc74 40bf 7ea7 3fbf 3f61 553f 278b 29bf
00000060: 5a8f edbf 9a5e 0740 aca1 edbf 6212 d3bf
00000070: ab9f ed3f 72a1 cdbf c16c abbe 4de2 6d3f
00000080: cb0c e8be 2cf6 513d c832 8e3e c2a3 09bd
00000090: 4d39 913e f131 cabe 1861 aa3e 5fe0 873e
000000a0: bdd8 adbe 9129 a43e 9278 f7be 3cf8 2d3f
000000b0: 38cc 07bf e075 dabd 754b 973d 3292 a53d
000000c0: 6b34 99bf aac5 d83f 008d a5bf 5cac 31bf
000000d0: 480b af3f 6c48 40bf 19d0 1dbe 2c9a 5b3e
000000e0: a1d8 1e3e fcea 813e 22b8 4cbf 33d8 f13e
000000f0: 8e65 823f 9959 f7bf 49fd 893f 6bad 7b3f
00000100: 51fd e5bf 9443 763f 60d1 5e3f acdf a8bf
00000110: 8d9c 633f 2199 533f 2dc7 92bf d957 6c3f
00000120: b8bf 8ebf f6ff cb3f 8377 95bf f617 9bbe
00000130: 0ca0 603f 7f0e dfbe a4e3 8a3e 7074 32bf
00000140: c8f6 cc3e 9d44 f23e b130 4dbf 9f65 c63e
00000150: cf1d d63e 2790 4cbf 76c3 e03e 8892 ab3f
00000160: 2be9 14c0 9174 a33f c9f0 bb3f fbba 19c0
00000170: 4846 ba3f 78aa 823f da89 bdbf bcca 923f
00000180: 4f13 73bf 9e20 a73f cfdf 7abf af65 a1bd
00000190: 9480 623e 779a 18be 8437 593f 0ea4 d7bf
000001a0: 2647 523f 0188 e13e 0606 4ebf b991 c73e
000001b0: fbd5 b93e 6cef 4cbf 41d1 003f c855 df3f
000001c0: 5cf2 3ac0 2cd7 e23f a4dc e63f 6388 3bc0
000001d0: 008b e83f a3fb 963f 4ae5 d6bf c909 a03f
000001e0: 5da5 79bf 8ae9 a23f 8293 82bf e764 69be
000001f0: b934 493e 9818 2ebe 229d 3e3f d9e9 b8bf
00000200: b31b 183f 815e a73f 69d1 13c0 2f80 913f
00000210: 15e2 d03f 9004 2ec0 0c07 c43f a329 ee3f
00000220: 885a 3bc0 af08 d13f 3288 c03f a7f9 17c0
00000230: f88c bf3f 0b5b 8c3f 4221 ccbf 1fae 9a3f
00000240: 3e88 c4bf 8186 df3f 30fa c7bf df25 9abf
00000250: 5ab6 ae3f 9c6a 98bf e4e5 973e d335 29bf
00000260: 8a1b aa3e 6f6b 503f 9ca6 bebf 5961 363f
00000270: c096 9b3f ac3d 08c0 ee01 8c3f 0572 963f
00000280: 7133 f3bf 06dd 893f 45e9 64bc 04bf af3c
00000290: c48a 7cbc 2491 953e 1efb f5be 4b30 fe3e
000002a0: 0381 b0bf 0954 c43f c814 b6bf e840 32bf
000002b0: 1ef0 4c3f b0b9 39bf 8ba6 323e 125a b6be
000002c0: 1efe dc3d 2797 b03e 9aa4 1fbf 7b28 a73e
000002d0: e2c5 033f 02ed 55bf fafc f33e 10bd 0c3f
000002e0: fa0e 57bf f7ef ec3e 0e35 c2bc c79b f63c
000002f0: 180b e0bd 3d13 5bbe 8ab8 653e 219f 2cbe
