EWOthello/ckpts/Dean_GPTv2_Synthetic_4L8H/linearProbe_Map_New_4L8H_GPT_Layer4.ckpt (torch, 395287 bytes, 2 tensors)

proj.weight f4 [192, 512]
-0.03748096 0.03345202 0.22466128 -0.051594242 0.14968017 -0.008673148 0.20584284 -0.19808838
0.07943043 -0.028106611 -0.08710659 0.07130423 0.11428893 -0.04269387 -0.08758253 -0.017477848
0.0698683 -0.043653116 0.115348145 0.15345103 0.1765489 0.089930326 -0.11845959 0.0007297303
0.10840242 -0.028434334 0.02063511 -0.058568336 -0.044521105 0.047586814 0.086482644 0.10803152
0.10701627 0.13722643 -0.07039937 -0.008453926 -0.010035412 -0.06098186 0.02457301 0.10065601
-0.018771252 -0.06769646 -0.2519634 0.0031276646 0.05360455 0.18288732 -0.08717508 -0.1356687
-0.09320218 -0.06283073 -0.01721792 -0.17354786 0.0033906728 -0.033929773 0.048550002 -0.08082578
0.028507942 -0.061291933 -0.06875927 -0.19412746 0.18388662 -0.07706902 -0.11369253 -0.0046420093
0.0018237163 -0.046147343 -0.2348891 -0.0057341517 -0.06625105 0.08936846 -0.07955247 0.1331347
-0.021034982 -0.019709729 0.0797533 -0.19438854 -0.0973488 -0.27956852 0.027452981 0.05423871
-0.049121026 0.08299122 0.032858975 0.022355458 -0.027844816 -0.053755466 -0.09801742 0.096175
0.07808498 0.0133799575 0.1507701 -0.1083425 -0.013228357 -0.067164585 -0.13823465 0.002887073
-0.024904227 0.12629312 0.05187194 0.046655606 -0.06107952 0.04577739 0.0479163 -0.097450405
0.07452006 0.08803459 0.033980183 -0.1212371 -0.0672111 0.0325923 -0.018076928 -0.09386069
0.022422597 0.039047252 -0.08354505 -0.060938407 0.04118735 0.0029954072 -0.00431305 -0.14747469
-0.013373059 0.03425827 0.13088262 0.20887558 -0.035206605 -0.15781891 0.074579105 -0.13955231
-0.06335813 0.08915016 -0.23253946 -0.08764658 0.041216888 0.07414419 0.10040034 -0.03931335
0.09121213 0.095511295 0.036447998 -0.041635726 0.022134976 0.18171121 0.0023136826 -0.072751865
0.02543623 0.19921058 -0.09673459 -0.084926 -0.106772915 -0.061885532 -0.14258488 0.0026744239
0.11599094 0.184563 -0.083548136 -0.00934348 0.059066657 -0.15341598 -0.06629188 -0.1331253
-0.10090882 -0.10481988 -0.00876535 0.05690138 0.09140549 0.12609023 -0.060662687 0.271404
0.22974972 -0.04396411 -0.06432881 0.0822999 0.021312961 -0.10875411 0.098204195 -0.016365202
0.11767008 0.09591491 0.13864459 0.021654647 -0.19403888 0.041699037 0.02671879 -0.0685831
-0.022549428 -0.03725625 -0.014035887 -0.21276347 0.17608187 0.04702738 0.022275826 -0.039830618
-0.08302198 -0.17778829 0.073832035 0.040453613 -0.043859277 0.03382802 0.03184389 -0.01687725
-0.12837544 0.21864823 0.23904626 -0.021364922 0.029960388 -0.15064389 0.021875395 -0.06640206
0.017434005 0.023670215 -0.0066817626 -0.060170695 0.16742262 -0.1024822 0.03171941 0.005887518
0.13672307 0.12679659 -0.039512426 0.054080054 0.02235115 -0.010839327 0.0072946763 -0.07851823
-0.18524833 -0.04267024 -0.14865252 -0.082713425 -0.15444835 0.03533097 -0.1296535 -0.084002145
0.09300657 -0.039874796 0.12781836 -0.16029043 0.009972898 -0.11747095 0.029636126 0.29069033
0.061656747 0.20747308 0.039574273 0.030148575 0.027820142 -0.08250468 0.039217412 0.07316227
-0.03274331 -0.047493074 -0.05039648 -0.02292471 -0.13522862 0.056066677 0.16929781 -0.139965
00000000: a385 19bd fc04 093d 9b0d 663e 7c54 53bd
00000010: c245 193e d219 0ebc 77c8 523e aed7 4abe
00000020: 6cac a23d d63f e6bc f164 b2bd f407 923d
00000030: 5110 ea3d c4df 2ebd 785e b3bd b42d 8fbc
00000040: 1c17 8f3d 9ccd 32bd a63b ec3d 4422 1d3e
00000050: 3cc9 343e 642d b83d f19a f2bd 5f4b 3f3a
00000060: 1702 de3d 1fef e8bc f60a a93c 5ae5 6fbd
00000070: c35b 36bd 64ea 423d d01d b13d a13f dd3d
00000080: 592b db3d 1685 0c3e 8b2d 90bd 5682 0abc
00000090: 926b 24bc 1dc8 79bd 564d c93c bd24 ce3d
000000a0: 2bc6 99bc 71a4 8abd 5901 81be 81f9 4c3b
000000b0: 7290 5b3d d046 3b3e d988 b2bd bcec 0abe
000000c0: c9e0 bebd 66ad 80bd 980c 8dbc 88b6 31be
000000d0: 0d36 5e3b f2f9 0abd 5edc 463d fd87 a5bd
000000e0: 7d89 e93c 400d 7bbd a9d1 8cbd 59c9 46be
000000f0: c64c 3c3e 5dd6 9dbd a1d7 e8bd ff1b 98bb
00000100: c409 ef3a ff04 3dbd c586 70be 8de5 bbbb
00000110: a1ae 87bd d006 b73d 68ec a2bd 7654 083e
00000120: 8e51 acbc 4c76 a1bc b355 a33d ca0d 47be
00000130: cf5e c7bd 9b23 8fbe 13e5 e03c 6929 5e3d
00000140: 2133 49bd 4df7 a93d 2297 063d cb22 b73c
00000150: d01a e4bc b12e 5cbd 5bbd c8bd 66f7 c43d
00000160: 05eb 9f3d 9c37 5b3c 7a63 1a3e ace2 ddbd
00000170: c0bb 58bc 968d 89bd 628d 0dbe 0c35 3d3b
00000180: f303 ccbc fc52 013e ac77 543d f319 3f3d
00000190: 852e 7abd 1381 3b3d e243 443d 1494 c7bd
000001a0: f99d 983d 7b4b b43d ce2e 0b3d 284b f8bd
000001b0: f9a5 89bd 817f 053d 1116 94bc 093a c0bd
000001c0: 98af b73c 03f0 1f3d ab19 abbd 8d9a 79bd
000001d0: 11b4 283d 984e 443b 7c54 8dbb 9b03 17be
000001e0: ad1a 5bbc 6652 0c3d 1806 063e 7be3 553e
000001f0: cd34 10bd 489b 21be eebc 983d cde6 0ebe
00000200: e8c1 81bd 5c94 b63d d31e 6ebe 0d80 b3bd
00000210: 0ad3 283d e9d8 973d b29e cd3d 0907 21bd
00000220: 6dcd ba3d 6d9b c33d 7f4a 153d 398a 2abd
00000230: 6954 b53c 8112 3a3e 27a1 173b eefe 94bd
00000240: a45f d03c dcfd 4b3e c91c c6bd afed adbd
00000250: c2ab dabd af7b 7dbd c501 12be 6345 2f3b
00000260: a88c ed3d 15fe 3c3e 491b abbd 6515 19bc
00000270: e1ef 713d 1419 1dbe 0ac4 87bd 0052 08be
00000280: 49a9 cebd ceab d6bd 8b9c 0fbc 6c11 693d
00000290: cd32 bb3d cc1d 013e 7079 78bd 77f5 8a3e
000002a0: 8343 6b3e b613 34bd d3be 83bd da8c a83d
000002b0: 8598 ae3c 7aba debd 481f c93d 5110 86bc
000002c0: 03fd f03d 096f c43d d9f8 0d3e 1665 b13c
000002d0: 21b2 46be 9ccc 2a3d 5de1 da3c 4c75 8cbd
000002e0: 94b9 b8bc 029a 18bd c7f6 65bc abde 59be
000002f0: ce4e 343e c89f 403d cb7b b63c 6e25 23bd
00000300: 6e07 aabd 220e 36be 4035 973d b0b2 253d
00000310: c9a5 33bd 408f 0a3d bd6e 023d 2942 8abc
00000320: da74 03be 52e5 5f3e 8bc8 743e 7d05 afbc
00000330: 7d6f f53c 6442 1abe 0734 b33c cefd 87bd
00000340: c2d1 8e3c 0ae8 c13c b0f2 dabb 8c75 76bd
00000350: d670 2b3e 30e2 d1bd 36ec 013d 15ec c03b
00000360: 2201 0c3e f7d6 013e c8d7 21bd 0c83 5d3d
00000370: c219 b73c 6f97 31bc 2e08 ef3b 2ace a0bd
00000380: bdb1 3dbe fdc6 2ebd 5e38 18be a865 a9bd
00000390: b527 1ebe 35b7 103d e3c3 04be 5109 acbd
000003a0: 3b7a be3d c153 23bd d1e2 023e 2d23 24be
000003b0: 5e65 233c 9c94 f0bd 76c7 f23c 5dd5 943e
000003c0: c98b 7c3d d373 543e a218 223d 25fa f63c
000003d0: 11e7 e33c 37f8 a8bd 70a2 203d 1ad6 953d
000003e0: d91d 06bd 1988 42bd 8a6c 4ebd 9acc bbbc
000003f0: 5f79 0abe 2ca6 653d 685c 2d3e fc52 0fbe

proj.bias f4 [192]
-0.03865874 0.039494865 -0.035736766 -0.03915313 0.045022298 -0.03567915 -0.025640141 0.044153288
-0.078038 -0.046656698 0.029162226 -0.016359104 -0.070732564 0.056120727 -0.021377552 -0.032913785
0.037985034 -0.04144004 -0.06899649 0.04551949 -0.016206246 -0.050915267 0.044723365 -0.039929263
-0.06362083 0.04768986 -0.033509895 -0.0010607477 0.008277786 -0.0333615 0.014083008 0.015459423
-0.085626595 -0.005702631 0.01007115 -0.019704761 0.009338589 0.019946204 -0.037083026 0.061362673
0.021441476 -0.056787893 -0.020066993 0.020449193 -0.0199798 -0.035308376 0.03831016 -0.040134266
-0.030969376 0.040555853 -0.049603444 0.03794703 0.042837802 -0.054231837 0.014656515 -0.035176463
0.037567943 -0.015821697 -0.035691537 0.038498536 0.0067803846 -0.04038885 0.042319797 0.019991234
-0.08166879 0.0010165958 0.015760724 0.013505201 -0.03200165 -0.039288394 0.03646166 -0.03324247
-0.060993794 0.033959657 -0.0131747825 -1.8308307e-05 0.008310962 -0.017369403 -0.007822733 -0.027891342
0.044589434 0.038405217 -0.03706206 0.034659468 0.020661488 -0.03874573 0.050542522 0.03959852
-0.039073277 0.022000335 0.008429953 -0.005197868 -0.0048513613 -0.05139397 0.04249901 -0.018300027
-0.03988007 0.030542804 -0.0038727208 -0.00544939 0.005329041 -0.0129197575 -0.008238793 -0.054974858
0.033919945 0.014424408 -0.038187787 0.05508909 0.010678903 -0.037440952 0.06790975 0.044012085
-0.04515894 0.02671795 -0.012991626 0.03451145 -0.018059751 -0.036505427 0.03327589 -0.029890114
-0.044814356 0.03837189 -0.031652533 -0.00050985074 0.023328021 -0.032524236 0.04264778 -0.038808476
0.007248397 -0.04910461 -0.07373995 0.11513949 0.00058594195 -0.030462988 0.053083587 -0.010468565
-0.05236359 0.062137004 0.011206984 0.019989572 -0.035764676 -0.036449455 0.0375623 -0.022437098
-0.042218324 0.038949784 -0.030827971 -0.021300498 0.027193375 -0.023653872 0.009768416 -0.03460687
0.0071246685 -0.010468773 0.0133789405 -0.0031139452 0.03813361 -0.012637438 -0.0041206204 -0.013454737
0.010860011 -0.012423315 -0.022586122 0.01893064 0.018286228 -0.03732003 0.033616584 -0.027912619
-0.05429941 0.050075542 -0.039430812 -0.02156148 0.03713376 -0.059825253 -0.08139353 0.06519095
-0.03478943 -0.05748311 0.040756717 -0.0024361704 -0.036017854 0.035448518 -0.02198201 -0.04663782
0.029280456 -0.012029707 -0.056301996 0.038799427 -0.02703671 -0.038506623 0.043865986 -0.04948834
00000000: a158 1ebd 5ec5 213d b760 12bd 085f 20bd
00000010: 4d69 383d 4d24 12bd 460b d2bc 14da 343d
00000020: 63d2 9fbd 181b 3fbd 9fe5 ee3c 8703 86bc
00000030: 3cdc 90bd d9de 653d fa1f afbc 9bd0 06bd
00000040: 3296 1b3d 08bd 29bd 084e 8dbd a572 3a3d
00000050: f6c2 84bc 878c 50bd d92f 373d de8c 23bd
00000060: a34b 82bd 7156 433d ac41 09bd c908 8bba
00000070: 8d9f 073c 11a6 08bd 6bbc 663c 8549 7d3c
00000080: ff5c afbd 23dd babb 7701 253c e16b a1bc
00000090: e200 193c 3966 a33c 5fe4 17bd 6d57 7b3d
000000a0: 09a6 af3c 6c9a 68bd 8963 a4bc 1185 a73c
000000b0: adac a3bc 849f 10bd 1deb 1c3d d463 24bd
000000c0: 7db3 fdbc e51d 263d fb2c 4bbd 586e 1b3d
000000d0: b176 2f3d 3422 5ebd e121 703c 3215 10bd
000000e0: d8e0 193d 819c 81bc 4a31 12bd a4b0 1d3d
000000f0: fd2d de3b c76e 25bd 8657 2d3d a8c4 a33c
00000100: f741 a7bd 4b3f 853a a21c 813c eb44 5d3c
00000110: 2a14 03bd deec 20bd d258 153d 4229 08bd
00000120: a1d4 79bd 4819 0b3d 0bdb 57bc ca94 99b7
00000130: b32a 083c 474a 8ebc ec2a 00bc 627c e4bc
00000140: 69a3 363d ca4e 1d3d 63ce 17bd 16f7 0d3d
00000150: 4842 a93c d8b3 1ebd ad05 4f3d 0f32 223d
00000160: 4d0b 20bd 0c3a b43c c91d 0a3c e152 aabb
00000170: 2bf8 9ebb 7c82 52bd 7113 2e3d f0e9 95bc
00000180: 4959 23bd e734 fa3c 79cd 7dbb cc90 b2bb
00000190: 3c9f ae3b 64ad 53bc 01fc 06bc 512d 61bd
000001a0: a4ef 0a3d 5a54 6c3c cc6a 1cbd 19a5 613d
000001b0: 91f6 2e3c af5b 19bd 4414 8b3d 0446 343d
000001c0: 95f8 38bd 9adf da3c d4da 54bc e15b 0d3d
000001d0: 0bf2 93bc b786 15bd 4d4c 083d 1ddc f4bc
000001e0: 428f 37bd d82b 1d3d 16a6 01bd 81a7 05ba
000001f0: 681a bf3c 2238 05bd 70af 2e3d a3f5 1ebd
00000200: f683 ed3b ea21 49bd f904 97bd 41ce eb3d
00000210: e699 193a 848d f9bc 2d6e 593d 5884 2bbc
00000220: 347b 56bd 5f83 7e3d 7f9d 373c 2cc1 a33c
00000230: fb7d 12bd 064c 15bd edda 193d 01ce b7bc
00000240: 1fed 2cbd cf89 1f3d f18a fcbc 627e aebc
00000250: a4c4 de3c c4c5 c1bc b50b 203c efbf 0dbd
00000260: 0d76 e93b 3785 2bbc 5833 5b3c 5513 4cbb
00000270: fd31 1c3d 420d 4fbc 4506 87bb 4271 5cbc
00000280: 30ee 313c 298b 4bbc 8806 b9bc 6e14 9b3c
00000290: 00cd 953c e3dc 18bd 8bb1 093d 01a9 e4bc
000002a0: 0f69 5ebd 031c 4d3d 3482 21bd b3a1 b0bc
000002b0: 9219 183d 530b 75bd a7b1 a6bd d582 853d
000002c0: 5d7f 0ebd 6973 6bbd 84f0 263d 28a8 1fbb
000002d0: 7587 13bd 7732 113d 9e13 b4bc 4c07 3fbd
000002e0: 91dd ef3c 4018 45bc ec9c 66bd 26ec 1e3d
000002f0: 177c ddbc 1fb9 1dbd d2ac 333d 49b4 4abd
