EWOthello/KLiScripts/KLi_Paper_Checkpoints/state_tl64_random/layer6/checkpoint.ckpt (torch, 183059 bytes, 4 tensors)

proj.0.weight f4 [64, 512]
00000000: 4805 babb 286b 9b3d 78bd 40be f4f3 aa3c
00000010: 5408 9f3b b483 6f3c 4f50 32be 45ba dc3d
00000020: 3103 cabd 3078 57be 62ca 083e 2735 833b
00000030: d3fb 22bd 132a 043e 4ed8 253b 1b9a 0a3d
00000040: 7206 ed3d 97e6 8c3c f5d6 b5bd eb70 f7bd
00000050: b118 a13e 9314 0a3b a9b7 93bd f18d 0f3b
00000060: 9926 15be e478 fd3d ade7 d0bb 4aa2 633e
00000070: 24f3 46be c65c 343d 384b 173d 9ced ebbd
00000080: 40a7 aa3d a914 6fba 8236 9f3d 236b 2bbd
00000090: 1430 423e fe7b 5dbe 2e2a fb3c 1285 7fbd
000000a0: aed0 6bbd 7ecf 7ebe 9bab 25ba e057 1fbe
000000b0: ed23 133e b24e 233e 24c7 7bbe 1bb2 943d
000000c0: 1493 3d3d d27b 94bd 8968 33be 5034 553e
000000d0: 3977 79be 6ee6 f73d ad83 34bc b99d 513c
000000e0: 8598 443e 2065 11be ea0c 83be 1d78 5dbe
000000f0: 925c 31be da37 613d bebd 84bd 2138 913e
00000100: 8773 953d 0aef 98be 5700 a93d b05f 13bd
00000110: 4de6 7f3b 2233 863d 8efb 54be 5e37 a53e
00000120: 0e1a d4bd 14b6 ad3d 35ae d9bb 70a1 5f3e
00000130: e79c eabd a4cf 0abe ec2d 5fbe 6d3d 883e
00000140: 0919 e9bd 0057 b33d 2b19 29be 0823 35be
00000150: 13e4 723c be30 7d3c b833 22bd c2c1 e9bd
00000160: 0240 9abd 12c6 1b3e 2d5d b6bc 7abc 03be
00000170: 9ad4 0cbd 4e26 bdbd 8c71 423e 9c99 6dbd
00000180: c288 343d 6b21 d5bd 4944 64be 9efd 213e
00000190: 136e 953d fc1f f63d 3e75 9f3c 0ad9 a23e
000001a0: beaa 99bd b30e 42bc cd38 e23c 0280 843c
000001b0: 8cc4 d33c 2f8e 7e3c c807 8bbc 346f 03bd
000001c0: 1be2 a93d 6a06 89be 2c87 e3bc 1212 35bc
000001d0: 6b3c fcbd bbb0 7cbb 58c8 c73d ce4f 5c3e
000001e0: 86e1 53be 231c 033e 710a 73be 13e6 15be
000001f0: 0f85 833e d54d f0be 4326 7dbd a8ed ee3d
00000200: 59f4 ebbb 7b0b f3bd affd 67bd edeb a5bd
00000210: f272 90be 1416 d63d 12e0 b33d d9b5 613e
00000220: 8bbc d6bd 0f01 70bb 3771 0bbd dc65 38be
00000230: dd53 c9bd f343 9abd 4eba 27be 0e27 813d
00000240: 732b 4fbe 39f3 53be c951 4d3e 46e0 043e
00000250: 95f0 22be 9003 e8be 4b3c 023e 165f 9f3d
00000260: a0e8 393e c99e 573d 9f57 883c 3f38 30be
00000270: 5262 4e3e acb2 af3c a1a7 243c 7a89 04be
00000280: f930 71bd 4abf d63d 618b 103e a4c1 223e
00000290: 04a8 52be eba8 523d b08e db3d 1d77 39bc
000002a0: 37e6 0ebd 93b4 cdbb 995b 51bd ec46 14bd
000002b0: 9ba4 26be b6d5 e9bd 7559 da3d a6e0 8a3d
000002c0: 3856 44be 57e6 a63d 716f f6bd 66d3 5dbe
000002d0: 198c 8dbd 53f3 6bbc 6999 fbbc 9a62 253d
000002e0: 1d53 83bd 6f2d 873c 7a54 67be b24c fb3c
000002f0: 58bf 103e d193 1cbe 60dc d03c 3f88 5cbc
00000300: f985 62bd fd65 8b3d 4d51 1b3e c1b8 4dbe
00000310: e3cf 2abe 69db b53d edfc 58bc 232a 84be
00000320: a4ed 1fbe f3ee 023e 531a 1e3e a747 103e
00000330: 7fb7 a23e cb77 bebc ea2a 0b3e 2868 e53d
00000340: 5e51 0cbd 39ff bd3d ae2d cbbc de59 b5bb
00000350: 43c6 5b3b 1ee6 52bc 5df9 85bd 65db 083e
00000360: 7551 e33c 0aaf e1bd 2907 70be 07bb 97bd
00000370: ecf7 2f3d 2d00 bb3d 33c4 123c 1290 6bbe
00000380: 508f ea3c 678f 77be 590a c1bc 2001 1ebe
00000390: 53fe 22bd 052c 9bbd c90f f63c 21ad a43e
000003a0: bd36 a63e b0ae 3fbe 3535 26be 16dc 7fbe
000003b0: cc3c 48bd da81 26be 369c efba 804f 223e
000003c0: b336 cd3a 4a2b 4b3e 1508 bdbd 44c7 5f3d
000003d0: 059a 793d de18 e2bd e668 423d 7f0c 5b3d
000003e0: c1c5 10bd 82ee 93ba 59b7 ab3e 313e babd
000003f0: 5a0e 193e ebf2 3bbe 8d5a 56bd d573 57be
-0.005676899 0.07588798 -0.18822277 0.020868279 0.0048532877 0.014618803 -0.17413448 0.107777156
-0.0986389 -0.21041942 0.13358453 0.004004139 -0.03979094 0.12906675 0.002530593 0.033838373
0.11573495 0.017199798 -0.088788904 -0.12082084 0.3146415 0.0021069392 -0.07212765 0.0021904672
-0.14565505 0.12376574 -0.006375274 0.22229877 -0.19428688 0.04403379 0.03693697 -0.1151993
0.08332682 -0.0009120205 0.077740684 -0.04185022 0.18963653 -0.2162933 0.030659761 -0.062382765
-0.05757206 -0.2488384 -0.00063198217 -0.15560865 0.14369173 0.15947989 -0.24587685 0.072605334
0.046282843 -0.07250179 -0.17520346 0.20820737 -0.24361886 0.12104498 -0.011017722 0.012793952
0.19198807 -0.14198732 -0.2559579 -0.21627851 -0.17320469 0.054984905 -0.06481503 0.28363135
0.07297426 -0.29869872 0.08252018 -0.035979927 0.0039047182 0.065527216 -0.20799085 0.32268804
-0.10356532 0.08481994 -0.0066430815 0.21838927 -0.11455708 -0.13555771 -0.21794862 0.26609364
-0.11381728 0.08756828 -0.16513507 -0.17689145 0.014824885 0.015453516 -0.039600104 -0.114139095
-0.0753174 0.15212277 -0.022261227 -0.12864867 -0.03438244 -0.09235822 0.18988627 -0.05800782
0.044075735 -0.104067646 -0.22291674 0.15819404 0.072963856 0.12017819 0.019465085 0.31806213
-0.075032696 -0.011844325 0.027614975 0.01617432 0.025850557 0.015536829 -0.016971484 -0.032088473
0.08295079 -0.26762706 -0.027774416 -0.011051672 -0.12316211 -0.0038557488 0.097550094 0.21514818
-0.20691499 0.12803702 -0.23734452 -0.14638548 0.25687453 -0.4693438 -0.061804067 0.11666423
-0.0072007594 -0.11867424 -0.056638416 -0.0810164 -0.28212696 0.1045343 0.087829724 0.22042026
-0.104851805 -0.0036621725 -0.034043517 -0.18007606 -0.09830449 -0.075324915 -0.16379663 0.06306277
-0.20231418 -0.20698251 0.2005073 0.12976179 -0.15912087 -0.45315218 0.12718312 0.07781808
0.18155146 0.052641664 0.016643343 -0.17208956 0.20154694 0.021447502 0.0100497315 -0.12943068
-0.058884595 0.10485704 0.14115669 0.1589418 -0.20571905 0.051430624 0.10720575 -0.011319903
-0.03488752 -0.0062776296 -0.051112745 -0.03620045 -0.1627373 -0.11417715 0.10661594 0.067811295
-0.19173515 0.081494026 -0.120329745 -0.21662673 -0.06911487 -0.014401275 -0.0307128 0.040377237
-0.06412337 0.016501157 -0.22590819 0.03067622 0.14135492 -0.15290762 0.025495708 -0.013460218
-0.055303548 0.06806562 0.15167733 -0.2009001 -0.16680865 0.0887974 -0.013243896 -0.25813398
-0.15617996 0.12786464 0.1543973 0.14089833 0.3178062 -0.023250481 0.13590589 0.11201507
-0.034257285 0.092771955 -0.024802055 -0.0055343946 0.0033534921 -0.012872247 -0.06541703 0.13364942
0.027748803 -0.11019714 -0.23440231 -0.074087195 0.042961046 0.09130893 0.00895791 -0.23004177
0.02863279 -0.24175797 -0.023564504 -0.15430117 -0.039793324 -0.075767554 0.030036824 0.32163337
0.32463637 -0.18718982 -0.16231234 -0.249863 -0.048886105 -0.16260472 -0.0018280807 0.1585064
0.001565656 0.19840732 -0.09230057 0.054633394 0.0609379 -0.11039899 0.04746332 0.053478714
-0.035344843 -0.0011286291 0.3353832 -0.09093893 0.14946881 -0.18354385 -0.05233245 -0.2104028

proj.0.bias f4 [64]
00000000: f301 1cbe 7bdc 08be 72a0 793e f1c8 453e
00000010: 931a f43d d7f4 2d3e 1042 383e 0195 643e
00000020: 451f c03b 3fab b53c 784c 933e 396b 593d
00000030: 26ad cd3d 356c 313e abbe 09bd e743 d1bc
00000040: 9817 07bc dc21 9f3d fdee b23c 732d 2dbe
00000050: e849 5a3e aa74 283e 1257 8e3d b454 fc3d
00000060: ce52 013e fd00 2b3e 7f2d 983d 63b6 ee3d
00000070: 3e6a 093d f154 b0bd 8ec7 74bd fb84 55bd
00000080: 8ddd 3fbd e5f8 8f3e 1620 573d f123 aa3d
00000090: 4450 4abe 7995 4b3d e57b 8a3b e458 5e3e
000000a0: 5bae af3e fe89 453b e128 6d3e c3cf 4b3e
000000b0: d959 0a3d dca1 df3d 8ab2 133e e659 0fbd
000000c0: 37a9 013d 2025 c83d e154 9c3e 015c 3f3e
000000d0: 9299 af3e 7d7b 073e 606b 21bd 0f3d 2d3d
000000e0: ded7 8fbd 25c0 4b3e aeaf fe3d 7236 db3c
000000f0: 3368 b93e 9ef0 933e ce21 dd3d 8e2a ac3c
-0.15235119 -0.13365357 0.24377611 0.19314934 0.11919131 0.1698793 0.17993951 0.22322465
0.0058631026 0.022176383 0.2876928 0.05308077 0.10042791 0.17326434 -0.0336291 -0.025545074
-0.008245371 0.0777013 0.021842474 -0.16911869 0.21317255 0.16450754 0.06950201 0.12320843
0.12629244 0.16699596 0.07430553 0.11655881 0.033548586 -0.08609951 -0.059760623 -0.052128773
-0.046842147 0.2811958 0.052520834 0.083076365 -0.19757181 0.049703095 0.004226195 0.21713597
0.3431271 0.0030142064 0.23160125 0.19903474 0.03377709 0.10919544 0.14423576 -0.034997843
0.031655516 0.09772706 0.30533507 0.1868744 0.34296852 0.13230701 -0.03940904 0.04229456
-0.07023595 0.19897516 0.12435852 0.02675936 0.3621231 0.28894514 0.10797463 0.021016385

proj.2.weight f4 [192, 64]
00000000: f66b ff3d a48b 433d fabf 60bd 0957 a7bd
00000010: 9b87 2dbd 5309 8ebd cbb9 95bd 3e74 4bbe
00000020: e0b3 a63c bbea 96be 2b8d 62bd 3a40 143c
00000030: 12fe 29bd 1b3f 27bc 0cfd 99bb fa08 09bd
00000040: f57b 993d 80c4 fa3d c0ec 2f3d fecc 113b
00000050: 2720 41be ad43 b8bd 86d1 e23d bfd6 843c
00000060: 401d 01be 97d1 82bc 8c51 00be 17f7 313d
00000070: 7333 cd3c e062 fe3b 81b0 56bd 26e6 ef3d
00000080: 427e d33c e83b 12be 0e64 e1bc 6ef5 223e
00000090: 8991 bbbd 944a 943c 368b 0fbe 506b 3fbd
000000a0: d544 2cbe 3009 bbbc 575c febc ddc4 4c3e
000000b0: 0145 1c3c 42ad 9abe c0b8 52be 349b 6a3d
000000c0: d982 243e 4577 22be f447 56be 19cf 0f3c
000000d0: 90eb 4c3b 396c 7fbc c1f3 0cbe b9bb 24bc
000000e0: d257 853a da5b 0abe 4f78 2fbd f19c 68be
000000f0: 6e4b a6bd 4274 88bd 9960 ef3d fe36 10be
00000100: 6c4b 56be ddfe 46bd dc57 7b3d 0eba cc3d
00000110: 583e b53c b2e2 963d bb56 f13d 8f9e 753e
00000120: e648 743c 8a38 c73e 64e5 5d3d 13a4 1f3d
00000130: 1964 d23c 3380 82bb 9bb1 393c 0f5b 003d
00000140: d26b d3bd 89ab a6bd 4e1e 8bbd b0a1 41bb
00000150: e389 863e fc9f 4c3e 20c1 3dbe 7f0b ad3a
00000160: 5369 323e 4dc1 93bb 1483 4c3e db8c e2bd
00000170: cbb4 12bc 352a e6bc f840 fc3d 5f33 27be
00000180: 9a54 c2bd f15b ed3d ca77 043d 1473 69be
00000190: b785 103e 6a25 6dbd 7d1c 373e 0b9a 7f3d
000001a0: aa79 413e 586d 413d aada ec3b 7efa 87be
000001b0: 90f0 40bc aca3 8c3e 8181 313e 9a2e a8bd
000001c0: 77f7 5cbe bc2a 723e f485 563e ab02 68bd
000001d0: 2d4e 763c b49c 5abd 0adc f33d 0207 92bc
000001e0: 5791 43bc 1486 373e 85e1 6e3d 024d 743e
000001f0: 01e4 e63d 9328 8b3d 78b3 03be 888b 023e
00000200: c92e 003e d8b7 423d 5e64 41be 1cc4 bfbd
00000210: 81f9 ccbc 9f4c b1bd 403d afbd 91a9 0fbe
00000220: bbf3 be3c e1ef acbe dd6d 56bd a1f5 02bd
00000230: 5927 0fbd bb86 7d3b d05a 0ebb b8e0 d0bc
00000240: dd71 743d 150b edbd c5f1 8c3c e9db d6bb
00000250: 7922 32be e4d7 2fbe 0e70 ff3d 1652 3b3c
00000260: a947 1abe f673 2abc 6f0f 8dbe 2e79 883d
00000270: 65ec 943d da26 3b3b dc2a 3abd 8489 d13d
00000280: 002d fb3c 9854 babd 88bd e0bc 52c9 383e
00000290: 3edf aabd 306f 3e3b 7fe5 fabd 3a6c 0cbd
000002a0: ad55 95bd d518 b2bc f68c 8bbc 4f6f 363e
000002b0: 83d0 02bc d066 92bd 4a1b 87bd 60dc 8a3d
000002c0: b2bc fa3d 3fa9 23be e7eb 27be a4f7 bfbc
000002d0: a9e8 41bc 74d0 a1bb 9f67 04be e872 093d
000002e0: fdc7 8b3c 5485 16be e594 b8bc 91f2 6fbd
000002f0: 7388 73bd d455 85bd cbdb bc3d 7a9f 09be
00000300: ac1c e43d 9d8b 6c3d 08b3 11be cecf 09be
00000310: 2394 c3bc 55fa a0bd 9ead 5fbd 6fdb 10be
00000320: 4865 c5bd fc4e aabd 1698 6ebd f330 ddbc
00000330: 41c5 79bd 6ab7 aebc 5cdb 5d3b 0697 583d
00000340: 574b b23d 8111 20be 0756 34bd 82b7 20be
00000350: 7fea 4abe 762f 5bbe 6ff2 3e3c 87fe 013d
00000360: ca87 b23d 9e26 523d 8637 fcbc c02b 15be
00000370: ab61 4f3c 0289 773b ff05 8b3c e6df 273e
00000380: f355 233d b619 8c3d cdec 83bd 47c3 76b9
00000390: beae 9e3c 0f41 2abe fe53 a8bd cd2d 5cbd
000003a0: ce41 f4bd 5179 2abe 3fd8 b53d 24bd ff3d
000003b0: 8208 e9bd ad09 64be 5fa0 03be f77a a03d
000003c0: 0932 1c3d 698a 083e 7d25 4abc 4404 97bd
000003d0: 4e21 4c3b ebcd 24be 0ee3 4fbc 1262 fe3c
000003e0: 122a 15bd 1912 123d d54b 17be 3efd 8fbe
000003f0: 05af 57bc 6d2c da3d 1c00 fcbc 1ff5 07bc
0.12471764 0.047740594 -0.054870583 -0.081708975 -0.04236565 -0.06935372 -0.07310828 -0.19868562
0.020349443 -0.2947596 -0.05531041 0.009048516 -0.041502066 -0.010207917 -0.004699355 -0.033455826
0.07494346 0.12244511 0.04295039 0.002224743 -0.18859921 -0.08997283 0.1107512 0.01621568
-0.12608814 -0.01596908 -0.12531108 0.043448534 0.025048947 0.0077632517 -0.05241442 0.11713819
0.02581704 -0.14280665 -0.02751353 0.15913936 -0.09158618 0.018101968 -0.14017949 -0.0467332
-0.16823132 -0.02283153 -0.03104989 0.19996972 0.009537936 -0.3021031 -0.20578289 0.05727692
0.1606554 -0.1586581 -0.20925885 0.008777403 0.0031268336 -0.015589767 -0.1376486 -0.010054522
0.0010173267 -0.13511601 -0.042839345 -0.22716118 -0.08119856 -0.066627994 0.116883464 -0.14083478
-0.20927209 -0.0485829 0.061363086 0.099964246 0.022124454 0.073674574 0.11784121 0.23986267
0.0149099585 0.38910323 0.054173842 0.038974833 0.025682496 -0.0039825677 0.011333848 0.03133684
-0.103232995 -0.081381865 -0.067928895 -0.0029545836 0.26277074 0.19982904 -0.18530703 0.0013202279
0.1742299 -0.0045091272 0.19971877 -0.11062022 -0.008954237 -0.028096298 0.12317079 -0.1632819
-0.09488793 0.11589802 0.032340802 -0.22797805 0.14113508 -0.05789701 0.17881961 0.062402766
0.18894067 0.04722342 0.007228215 -0.26558298 -0.011776105 0.27468622 0.17334558 -0.082120135
-0.21578775 0.23649114 0.20949537 -0.05664317 0.015033287 -0.0533721 0.119072035 -0.017825607
-0.011936507 0.1792224 0.05832054 0.23857501 0.11273957 0.06794848 -0.1286143 0.1274854
0.12517847 0.04753861 -0.18885943 -0.09363577 -0.025021316 -0.086571924 -0.085566044 -0.14029528
0.02330958 -0.33776763 -0.052350868 -0.03197253 -0.034949634 0.0038685042 -0.002172161 -0.02549778
0.0596789 -0.11574379 0.017205128 -0.006556977 -0.17395963 -0.171722 0.124725446 0.011433145
-0.15066399 -0.010403624 -0.27550837 0.06663738 0.07271651 0.0028557093 -0.04545103 0.10231307
0.030661106 -0.09098166 -0.027434126 0.18045548 -0.08343361 0.0029057972 -0.12250804 -0.0342829
-0.07291732 -0.021740356 -0.017034989 0.17815898 -0.007984283 -0.07148516 -0.06597002 0.067803144
0.12243022 -0.15982531 -0.16398583 -0.023433514 -0.011835256 -0.0049381796 -0.12930153 0.03355685
0.017063135 -0.14699298 -0.022531936 -0.05858094 -0.0594563 -0.06510511 0.0922161 -0.13439742
0.11138281 0.057750333 -0.14228451 -0.13458177 -0.023874348 -0.07860247 -0.054608934 -0.14146207
-0.096384585 -0.08315846 -0.05825051 -0.02700088 -0.06097913 -0.021327693 0.0033852672 0.052878402
0.08705776 -0.15631677 -0.044027355 -0.15695003 -0.19816016 -0.21404824 0.01165448 0.031736877
0.08717306 0.05130636 -0.030788194 -0.1456747 0.012657563 0.0037770872 0.016970633 0.16394004
0.03987689 0.068408415 -0.064416505 -0.00023533135 0.019370433 -0.1662638 -0.08219145 -0.053754617
-0.11926614 -0.16647841 0.08879136 0.124872476 -0.11378576 -0.22269316 -0.12854145 0.07835954
0.038133655 0.1333405 -0.012338039 -0.073738605 0.003114778 -0.16094176 -0.012688411 0.031052623
-0.036417075 0.03566179 -0.14775021 -0.28122896 -0.0131642865 0.10653005 -0.03076177 -0.0082981875

proj.2.bias f4 [192]
00000000: bbbf 573d daa6 41bc 7255 2abd b69b 44bc
00000010: 2f77 833c 0a93 80bc 9f90 fcba 455f 593d
00000020: 9c0d 28bd 120c 563d 3252 ebbd 1abd 223d
00000030: 7980 d03c 9cd2 79bc e713 6ebc 3feb af3d
00000040: 73ba 2dbe 5853 693d 3a4e f43c d0e0 44bd
00000050: 76b0 a73c c072 943b 40d3 0d3c ecd6 b3bc
00000060: c1c3 32bc c745 923c f73f 98bc e238 333c
00000070: 19f8 91bb 2d59 54bc 4932 02bc b91f cbbc
00000080: 89a9 7c3c f674 8a3d 6b78 b5bd 158d d4bc
00000090: 3fab 023d 88d3 a7bd cacc 9e3b d9f5 2e3d
000000a0: c7f6 2fbe c794 823d ee1a bb3c 65b1 10bd
000000b0: e243 843c 90de 7abd f48d 8c3d 78fd febc
000000c0: 4028 b13c 1874 5c3c 29be 1abd eb5c 143c
000000d0: 6163 79bd 136e c93c f76f fcbc 41cb 3a3e
000000e0: 48ac 24bd d286 84bd ec79 3a3a 0505 993d
000000f0: 3d36 3bbd 28b4 133d e6a7 e83c 2bfa 9ebc
00000100: 9c96 a1bd c5ed 553d 75eb 8b3c 6c91 e6bd
00000110: 051d 813d 24df fcbc 4a62 a93c 9006 543b
00000120: 8534 8ebc 6369 fc3c 399a b1bc 6923 8abd
00000130: 4df6 a63d be53 e93b b309 a4bd 1b6d 893e
00000140: f7d6 473c d07c cd3c 37ef d9bc 7830 de3c
00000150: cd09 a63c acba cfbc 9d60 d43c 991b 7b3c
00000160: 061a f03c a461 bcba 85bd 86bc a092 f5bd
00000170: 78b3 6b3d a6ee 2cbd deec 853d cc45 96bc
00000180: 35fa abbc 07ef 8a3d 9641 57bd 7a8d e9bc
00000190: defa 833d 7f8f f6bc 9030 e5ba aff0 58bd
000001a0: 5e6f 033d e09a 08bc 3281 f3bc 964c 5c3d
000001b0: 898d 943d 8439 dfbc b1a2 96bc 0a43 1d3b
000001c0: 7fac 4a3c 2427 8a3a b4c1 54bd 1a35 b63c
000001d0: bbc7 d53c 6402 cb39 d8a2 27bd 3703 dc3c
000001e0: 713d 16bd 5229 df3d 6847 98bd fe5c 10bd
000001f0: 844c bdbc fb72 1b3d 1971 b23c 65ff 44bd
00000200: 56ec 8e3b 693c b13c ec7b 903d daf1 1bbd
00000210: e8e9 6c3c b501 843d 9367 b0bc 519f f43d
00000220: 70e1 99bd e73f b4bd 64f8 fdbc 557a 04bd
00000230: 3cf3 4a3d 8fbd 82bd a4a0 b33d ee57 b0bc
00000240: 4549 e839 7f19 e93c 3823 25bd 7f65 dbbc
00000250: 3c67 69b9 496a de3c 6d3c 01bd 6edd 873d
00000260: a5c2 11bd ac74 aabc 083f 0fbd 24d3 ce3c
00000270: 6df9 fabc df26 593d cece 063b 5978 8abd
00000280: 35e8 ec3d 0b42 b4bb 418e 8dbd 697f 9d3d
00000290: 0a93 17bd 46b4 5fbd dac2 d03d 0067 8ebd
000002a0: e1dc bdbb 6894 c5bc e4ec d63c d47a f5bd
000002b0: 0cac 3c3e 80aa dfbd 19db fcbc 0eed 78bd
000002c0: 6870 883d b726 07bd 3794 cb3a b58e b23c
000002d0: e47c 89bd d29b 6f3d be17 d43b 026b 8ebd
000002e0: d20d 143e a308 7bbd 8367 73bd 14a5 563d
000002f0: 0ca7 2ebc 2dad 35bd ed11 223d 5f57 89bc
0.052673083 -0.011819566 -0.041585393 -0.012000015 0.016048042 -0.015695114 -0.0019269175 0.05306937
-0.041028604 0.052257605 -0.11490287 0.039731123 0.025451886 -0.015247967 -0.014531112 0.085897915
-0.16965656 0.05696425 0.029822458 -0.04806596 0.020469885 0.004530281 0.008656323 -0.021953069
-0.010910929 0.017855538 -0.018585188 0.010938855 -0.0044546244 -0.012960714 -0.007946559 -0.0247954
0.01542128 0.0676059 -0.088608585 -0.02594618 0.031901594 -0.08194643 0.00484619 0.042714927
-0.17183982 0.06376033 0.02283999 -0.035325427 0.01614565 -0.06124741 0.06863013 -0.031126723
0.021625638 0.013455413 -0.037779007 0.0090553565 -0.06088579 0.02458862 -0.030815108 0.18241598
-0.040203363 -0.064710274 0.00071135047 0.074716605 -0.045706023 0.036060482 0.028400373 -0.019406399
-0.078900546 0.052228708 0.017080048 -0.11258206 0.06304363 -0.03086812 0.02067675 0.0032352544
-0.017359028 0.030811971 -0.021679984 -0.06745035 0.08152447 0.0071205785 -0.080096625 0.26841053
0.012197248 0.02508393 -0.026603324 0.027122721 0.020268345 -0.025357567 0.025924975 0.015326404
0.029309284 -0.0014372361 -0.016447792 -0.11990857 0.0575442 -0.04221978 0.065393195 -0.018343829
-0.020993331 0.06783872 -0.052552782 -0.028509844 0.064443335 -0.030097721 -0.0017485786 -0.05296391
0.03208863 -0.008337706 -0.029724691 0.053783976 0.07253558 -0.027249105 -0.018388124 0.0023996257
0.012370228 0.0010540229 -0.051942542 0.022242118 0.026096215 0.00038720958 -0.040926784 0.026857002
-0.03667969 0.10896553 -0.07435495 -0.035244934 -0.023107775 0.03795145 0.021782445 -0.048095126
0.0043616695 0.021635251 0.07054886 -0.038072444 0.0144600645 0.06445638 -0.021533763 0.1194445
-0.07513702 -0.08801251 -0.031002231 -0.032343227 0.049548373 -0.06383812 0.08770874 -0.021526303
0.00044305078 0.02845454 -0.04031679 -0.026781796 -0.0002225907 0.02715029 -0.031551767 0.06634031
-0.035586018 -0.020807587 -0.03497222 0.025247164 -0.030636514 0.053015586 0.0020570043 -0.06761236
0.115677275 -0.005501037 -0.069118984 0.07690317 -0.03700546 -0.05461528 0.10193415 -0.069532394
-0.005794153 -0.024118617 0.026236005 -0.11986318 0.18425006 -0.10921192 -0.030866193 -0.060772948
0.06662065 -0.032995906 0.0015531842 0.021796564 -0.06713274 0.05849821 0.006472557 -0.06954004
0.14458397 -0.061287533 -0.05942489 0.052403525 -0.010659944 -0.044354606 0.039567877 -0.016765295
