EWOthello/ckpts/battery_othello/state_random/layer4/checkpoint.ckpt (torch, 395137 bytes, 2 tensors)

proj.weight f4 [192, 512]
-0.059318904 0.034043334 -0.2226011 -0.13768758 -0.13644913 0.23235722 0.06565193 -0.09722156
-0.022789294 -0.27266297 -0.0069654067 0.0490101 -0.1779593 -0.0692004 0.029272884 0.08080872
0.20342761 0.01803131 -0.050122637 0.007873944 0.10114686 0.032912172 0.16355094 0.06369993
-0.26212916 -0.0020979822 -0.0015576323 0.089414775 -0.057003025 0.07663646 0.20284705 0.13040085
0.03361331 0.090354286 -0.09653305 0.04530154 -0.13150334 -0.026594196 0.1553872 -0.1489326
-0.1265879 -0.15100452 -0.13840568 0.08158499 -0.0032197693 0.1446826 -0.09442248 -0.08192762
0.05822375 -0.32757786 -0.10557472 0.068628445 -0.05488354 0.09115404 0.057330675 0.15126249
-0.049534723 0.111774445 0.11434122 0.111234285 -0.026161993 0.022239141 -0.15587471 -0.085006736
0.053407032 -0.20763831 -0.0687663 0.009843833 0.04374189 0.26723704 0.08599579 0.09704641
-0.03691599 0.023227423 0.16982318 0.2156986 -0.07809216 0.18175644 -0.28019825 -0.057014424
0.18823789 0.17229275 0.022939682 0.022095537 0.114869475 -0.095229335 -0.11416567 0.040673073
-0.076722026 -0.04645318 0.07703314 -0.05024609 -0.15345095 0.007362562 0.21908413 0.09040188
0.01966131 -0.2964438 0.024708448 0.22558615 0.039372027 -0.029413953 -0.085406125 0.099143595
-0.055230774 0.18391374 0.1422718 0.16626516 0.078289494 -0.08415651 -0.044727683 -0.19906619
0.083701454 0.03543869 -0.11964393 -0.006891025 -0.084429376 -0.08965374 0.1016132 0.1895754
-0.16331272 -0.046278752 -0.06225002 -0.0030954764 -0.13441807 -0.29841125 -0.17044799 0.08143363
-0.014711399 -0.085331276 0.012311258 -0.04574007 0.021759458 0.17023313 0.076912776 0.07783578
0.12707596 -0.13777158 -0.19274466 0.11935713 -0.14406523 -0.09289143 -0.40845668 -0.069702074
-0.06199277 0.05516186 0.13373683 0.16577151 -0.10462971 -0.3498835 0.08735598 0.0660316
0.07738253 -0.056807 0.11090501 -0.15989706 0.10799058 0.15629016 -0.052754987 -0.12462118
0.0505505 0.06545087 -0.039994135 -0.11859378 -0.054093786 -0.13219735 0.05006289 0.045391098
0.09849912 0.14398652 -0.23320916 -0.022790648 0.091051124 0.0077622505 -0.06690124 0.10328907
-0.13538407 -0.09711423 0.11974815 0.0023645156 -0.11062342 0.0716017 0.0022244754 0.12075304
-0.03135452 -0.145684 0.05402519 0.014399156 -0.030575002 -0.09232743 0.096850835 -0.24749948
-0.15067548 0.14914528 -0.16940047 -0.05401119 -0.119225964 -0.049865495 0.0011422709 0.13264254
-0.19401586 0.12603085 0.07196853 0.08732373 0.03091896 -0.0036685849 -0.23181218 -0.102290176
-0.04466992 0.061085317 0.03407473 0.077852644 0.0077193724 -0.07051798 -0.07152836 -0.14765291
0.036248468 0.029120957 0.07153384 0.01735107 -0.044909175 -0.09104515 0.03455164 -0.06349655
-0.3975603 0.14552754 0.04829395 0.043931145 0.16339882 0.011547063 0.21262911 -0.029452946
-0.18758725 -0.12324858 -0.025894118 0.18365017 -0.32333085 -0.05469948 0.10479618 0.17197725
-0.008201427 0.024826791 -0.17362314 -0.099554166 -0.025080426 -0.035915248 0.023074433 -0.067477785
-0.085521296 0.1037308 -0.040714335 0.01855211 -0.016149133 0.13677548 -0.19229895 -0.031044591
00000000: 61f8 72bd 0671 0b3d 8bf1 63be f9fd 0cbe
00000010: 52b9 0bbe 0def 6d3e 8574 863d 191c c7bd
00000020: 9db0 babc 7b9a 8bbe 113e e4bb d1be 483d
00000030: f63a 36be f0b8 8dbd b0cd ef3c 0b7f a53d
00000040: 544f 503e 66b6 933c 654d 4dbd b701 013c
00000050: 1626 cf3d eace 063d e679 273e 1c75 823d
00000060: cb35 86be 4d7e 09bb 7829 ccba 181f b73d
00000070: 017c 69bd 94f3 9c3d 23b7 4f3e cd87 053e
00000080: 1cae 093d ab0b b93d 1fb3 c5bd 1c8e 393d
00000090: d0a8 06be 12dc d9bc d21d 1f3e ca81 18be
000000a0: 42a0 01be eea0 1abe 38ba 0dbe 0816 a73d
000000b0: c402 53bb ad27 143e 9360 c1bd abc9 a7bd
000000c0: 077c 6e3d 49b8 a7be 8f37 d8bd 128d 8c3d
000000d0: 90cd 60bd f8ae ba3d 92d3 6a3d 8ee4 1a3e
000000e0: ece4 4abd 00ea e43d bb2b ea3d cdce e33d
000000f0: ad51 d6bc dc2e b63c 9f9d 1fbe 0318 aebd
00000100: 55c1 5a3d 239f 54be 59d5 8cbd 0748 213c
00000110: b22a 333d 4bd3 883e 901e b03d 45c0 c63d
00000120: 3935 17bd 7047 be3c 21e6 2d3e 18e0 5c3e
00000130: c8ee 9fbd 5c1e 3a3e 2576 8fbe f587 69bd
00000140: 6fc1 403e 836d 303e 00ec bb3c b301 b53c
00000150: b040 eb3d 9907 c3bd b1cf e9bd cf98 263d
00000160: 7020 9dbd b145 3ebd 8dc3 9d3d d8ce 4dbd
00000170: 3f22 1dbe a641 f13b 9757 603e 9f24 b93d
00000180: c110 a13c 7bc7 97be 5f69 ca3c 0e00 673e
00000190: 9044 213d 88f5 f0bc 68e9 aebd cc0b cb3d
000001a0: aa39 62bd e253 3c3e b3af 113e 6a41 2a3e
000001b0: 3e56 a03d 405a acbd 6034 37bd 02d8 4bbe
000001c0: ab6b ab3d 2928 113d e007 f5bd 1cce e1bb
000001d0: 4fe9 acbd 619c b7bd 951a d03d 0e20 423e
000001e0: 733b 27be ca8e 3dbd e1f9 7ebd 7add 4abb
000001f0: e4a4 09be 5cc9 98be eb89 2ebe adc6 a63d
00000200: 1408 71bc 2ac2 aebd 29b5 493c f159 3bbd
00000210: e440 b23c 9851 2e3e 7284 9d3d 5e68 9f3d
00000220: 3320 023e fe13 0dbe db5e 45be 8371 f43d
00000230: d685 13be dd3d bebd 3c21 d1be f6bf 8ebd
00000240: 21ec 7dbd 67f1 613d 4ff2 083e 02c0 293e
00000250: 1a48 d6bd ee23 b3be b1e7 b23d 933b 873d
00000260: bb7a 9e3d 75ae 68bd 2a22 e33d 0ebc 23be
00000270: 2a2a dd3d 870a 203e 9d15 58bd 6439 ffbd
00000280: 0b0e 4f3d 1b0b 863d e4d0 23bd 4ce1 f2bd
00000290: 7291 5dbd be5e 07be bf0e 4d3d 04ec 393d
000002a0: e8b9 c93d 3471 133e 62ce 6ebe 74b3 babc
000002b0: 0379 ba3d 7a5a fe3b 8403 89bd 3889 d33d
000002c0: 1fa2 0abe d3e3 c6bd 853e f53d fdf5 1a3b
000002d0: 888e e2bd e9a3 923d 81c8 113b 5f4d f73d
000002e0: 996d 00bd 302e 15be 8549 5d3d 70ea 6b3c
000002f0: 6d78 fabc 2a16 bdbd bb59 c63d 8170 7dbe
00000300: ac4a 1abe 8ab9 183e 5177 2dbe d63a 5dbd
00000310: be2c f4bd c33f 4cbd 40b8 953a 72d3 073e
00000320: 18ac 46be 3b0e 013e 3d64 933d c9d6 b23d
00000330: c249 fd3c a46c 70bb 2c60 6dbe 837d d1bd
00000340: cef7 36bd 9934 7a3d f291 0b3d 3571 9f3d
00000350: caf2 fc3b bb6b 90bd 767d 92bd 5332 17be
00000360: 4679 143d 138f ee3c 5580 923d d523 8e3c
00000370: aff2 37bd e175 babd 0586 0d3d 7b0a 82bd
00000380: 068d cbbe 2c05 153e e0cf 453d 25f1 333d
00000390: 0552 273e e42f 3d3c 72bb 593e 4e47 f1bc
000003a0: df16 40be c069 fcbd e71f d4bc ca0e 3c3e
000003b0: 9f8b a5be 900c 60bd 619f d63d ce1a 303e
000003c0: 475f 06bc 8e61 cb3c 44ca 31be 0ee3 cbbd
000003d0: 7775 cdbc de1b 13bd 9806 bd3c cb31 8abd
000003e0: ca25 afbd d070 d43d 13c4 26bd 98fa 973c
000003f0: 304b 84bc df0e 0c3e 04ea 44be 3a51 febc

proj.bias f4 [192]
-0.18041843 0.26901686 -0.18919167 -0.2778295 0.4578369 -0.26762262 -0.23337516 0.5499087
-0.2166331 -0.17142847 0.46525478 -0.16876839 -0.24936207 0.72181946 -0.27827156 -0.15329883
0.40554312 -0.16948895 -0.17323257 0.30018488 -0.18585138 -0.20817088 0.28251913 -0.17069604
-0.22506724 0.389702 -0.21691829 -0.24380042 0.33111265 -0.16436802 -0.19094217 0.6581664
-0.20087823 -0.062884785 0.54246414 -0.18273555 -0.103475116 0.5779781 -0.17193726 -0.14197426
0.60643065 -0.20926316 -0.20153324 0.35547385 -0.19645913 -0.31274417 0.5296511 -0.30534005
-0.16165705 0.41380444 -0.17131142 -0.17595805 0.56900585 -0.13468812 -0.19669007 0.6326818
-0.039331067 -0.17568892 0.2296825 0.11240881 -0.022720253 0.3782231 -0.09915688 -0.11074559
0.5931687 -0.10886778 -0.14306244 0.47893935 -0.17155455 -0.21074922 0.5218529 -0.21433103
-0.19581328 0.52747846 -0.2002177 -0.15398559 0.7633864 -0.21077433 -0.13203773 0.43496355
0.0075605093 0.12692142 -0.06799432 -0.054398816 -0.13766037 -0.06649282 0.20640527 0.019812202
0.44239953 -0.14366572 -0.16275752 0.5441478 -0.0931677 -0.24611649 0.70574844 -0.26969302
-0.21539313 0.5645921 -0.1858364 -0.16115582 0.6338259 -0.16799334 -0.016782042 0.4055938
-0.109973855 -0.085994236 -0.06831153 0.14791001 0.098315194 -0.068283916 -0.024820447 -0.13763444
0.32900414 0.04696974 -0.118139125 0.5759261 -0.14132336 -0.18414748 0.50871694 -0.18588054
-0.23667866 0.5567824 -0.23193373 -0.15389721 0.42109054 -0.12261182 -0.15225804 0.6308348
-0.10143517 0.0067504 0.38714626 -0.1212051 -0.18242055 0.28352076 0.11551802 -0.10191635
0.5449604 -0.0808122 -0.24000785 0.76821476 -0.20415108 -0.24726743 0.71681654 -0.31987292
-0.1652467 0.3029884 -0.1726866 -0.2052371 0.32962438 -0.19853008 -0.24113157 0.7352438
-0.20037636 -0.18702921 0.7139894 -0.1628339 -0.16511735 0.7191087 -0.15841329 -0.19084239
0.764061 -0.19746253 -0.22440405 0.3272323 -0.17136821 -0.30016446 0.54360265 -0.27994907
-0.22114563 0.32922205 -0.19433458 -0.28207415 0.48838007 -0.26613328 -0.2353935 0.51953155
-0.18465093 -0.22839808 0.47061443 -0.14076462 -0.26882485 0.66248983 -0.20309412 -0.3049438
0.7168348 -0.28596103 -0.37860066 0.576941 -0.29907644 -0.2220278 0.31755185 -0.19235353
00000000: 9cbf 38be 94bc 893e 76bb 41be ab3f 8ebe
00000010: 9969 ea3e d505 89be e6f9 6ebe d1c6 0c3f
00000020: 11d5 5dbe f28a 2fbe e035 ee3e 9fd1 2cbe
00000030: c558 7fbe 29c9 383f 9c79 8ebe 5efa 1cbe
00000040: 59a3 cf3e 838e 2dbe e163 31be d5b1 993e
00000050: d34f 3ebe bf2a 55be 59a6 903e f1ca 2ebe
00000060: 0778 66be 0587 c73e d41f 5ebe d1a6 79be
00000070: 9987 a93e 1750 28be 5886 43be 987d 283f
00000080: 06b3 4dbe bdc9 80bd eede 0a3f 071f 3bbe
00000090: c3ea d3bd 5ff6 133f 5210 30be b361 11be
000000a0: 0a3f 1b3f 1549 56be bb5e 4ebe ab00 b63e
000000b0: 952c 49be 0120 a0be 3797 073f 8855 9cbe
000000c0: 6d89 25be 2dde d33e 436c 2fbe 592e 34be
000000d0: 5eaa 113f afeb 09be 1f69 49be 6ff7 213f
000000e0: 9d19 21bd cce7 33be e431 6b3e 9736 e63d
000000f0: d31f babc 75a6 c13e c312 cbbd 95ce e2bd
00000100: e7d9 173f 12f6 debd f67e 12be 8a37 f53e
00000110: ffab 2fbe a5ce 57be 2798 053f 9879 5bbe
00000120: 4783 48be d408 073f de05 4dbe 66ae 1dbe
00000130: 4b6d 433f 3ad5 57be e634 07be 8bb3 de3e
00000140: 26be f73b b0f7 013e 9b40 8bbd 4bd1 5ebd
00000150: d7f6 0cbe 632d 88bd e75b 533e 334d a23c
00000160: 3182 e23e 1b1d 13be e8a9 26be 454d 0b3f
00000170: b5ce bebd f605 7cbe eeab 343f 3415 8abe
00000180: 0490 5cbe 1c89 103f e64b 3ebe 0806 25be
00000190: 6a42 223f 7206 2cbe 7e7a 89bc fea9 cf3e
000001a0: f939 e1bd bf1d b0bd eae6 8bbd b975 173e
000001b0: 7a59 c93d 70d8 8bbd 4054 cbbc 0bf0 0cbe
000001c0: 3b73 a83e 5863 403d edf2 f1bd e56f 133f
000001d0: 12b7 10be 2891 3cbe 463b 023f 7857 3ebe
000001e0: e45b 72be 4b89 0e3f 0980 6dbe 3b97 1dbe
000001f0: 2e99 d73e e81b fbbd 88e9 1bbe 647e 213f
00000200: 3ebd cfbd 7632 dd3b 0938 c63e 613a f8bd
00000210: 74cc 3abe a229 913e b694 ec3d 85b9 d0bd
00000220: 8682 0b3f de80 a5bd 9ec4 75be b9a9 443f
00000230: fb0c 51be ac33 7dbe 4a81 373f 62c6 a3be
00000240: 6e36 29be 4c21 9b3e c2d4 30be ad29 52be
00000250: 87c4 a83e 784b 4bbe 32eb 76be f038 3c3f
00000260: 762f 4dbe 9684 3fbe 02c8 363f eebd 26be
00000270: 8614 29be 8217 383f 1837 22be 306c 43be
00000280: 8099 433f 9e33 4abe 2dca 65be fe8a a73e
00000290: 267b 2fbe 28af 99be 8b29 0b3f 7c55 8fbe
000002a0: 0074 62be cb8f a83e a5ff 46be 066c 90be
000002b0: f40c fa3e 9f42 88be fe0a 71be 0500 053f
000002c0: 2215 3dbe 30e1 69be 60f4 f03e 9a24 10be
000002d0: 69a3 89be ef98 293f e8f7 4fbe 9821 9cbe
000002e0: 7c82 373f 7c69 92be f2d7 c1be 68b2 133f
000002f0: 8c20 99be 415b 63be 2896 a23e 53f8 44be
