EWOthello/ckpts/battery_othello/state_tl256/layer6/checkpoint.ckpt (torch, 724499 bytes, 4 tensors)

proj.0.weight f4 [256, 512]
0	0xbc393983	-0.011305216
1	0xbe829ddd	-0.25511065
2	0xbd8c416f	-0.06848418
3	0xbc46b2a1	-0.012127549
4	0x3bcdb6bf	0.0062778885
5	0x3c3a3159	0.011364304
6	0x3d276920	0.04087174
7	0x3e0fc4c4	0.14039904
8	0x3d6f74a5	0.05846085
9	0x3d4d5c0c	0.05013661
10	0xbd99caa1	-0.075093515
11	0x3e6b6b49	0.22990145
12	0x3daba8a2	0.083817735
13	0x3e6d2d6b	0.23161857
14	0xbda7f383	-0.08200743
15	0x3cee9d8e	0.029127862
16	0x3d524988	0.051339656
17	0x3e8593a6	0.2608921
18	0xbdedc5f6	-0.11610024
19	0x3e7f6c0c	0.2494356
20	0xbca52999	-0.020161437
21	0x3e0bce1a	0.1365284
22	0x3e11dc99	0.14244308
23	0x3d809c4d	0.06279812
24	0x3d65f43b	0.05614112
25	0xbcd67de4	-0.026183076
26	0x3b50efb9	0.0031881167
27	0xbe910e50	-0.28331232
28	0x3d681814	0.056663588
29	0x3decb014	0.11557022
30	0xbe02a32a	-0.12757555
31	0x3c98cec6	0.018653285
32	0x3d79d856	0.06099733
33	0xbd4698f1	-0.0484857
34	0x3da24033	0.07922401
35	0x3c6d7dcd	0.014495325
36	0xbce460a8	-0.02787812
37	0x3ddee5eb	0.10883697
38	0x3d763d95	0.060117323
39	0xbdd81b55	-0.10552088
40	0xbe12dfb0	-0.14343143
41	0x3cf6c09f	0.030121146
42	0xbdc641d5	-0.09680525
43	0x3cdb84a5	0.026796648
44	0x3e41a0bb	0.1890897
45	0xbd26a89d	-0.040688146
46	0xbc93c3ef	-0.018037764
47	0x3df295b4	0.1184496
48	0x3e1aa61e	0.15102431
49	0x3dbd74e8	0.09250814
50	0xbdd83095	-0.10556141
51	0x3dc68d08	0.09694868
52	0xbc0a4ffc	-0.008441921
53	0xbe0e40a2	-0.13891843
54	0xbc8afa75	-0.01696513
55	0x3da08193	0.07837214
56	0xbba6ffec	-0.0050964262
57	0x3c776137	0.015098861
58	0xbe739071	-0.23785569
59	0x3d3173b2	0.043323226
60	0xbb6128de	-0.0034356634
61	0xbd39d457	-0.04536852
62	0x3d9b5c59	0.07585973
63	0xbdf03065	-0.117279805
64	0xbdae083c	-0.08497664
65	0xbdcd0c10	-0.10012066
66	0x3ce5fbb2	0.02807412
67	0xbe2e6e32	-0.17034224
68	0x3e22a129	0.1588179
69	0x3dc7612f	0.09735333
70	0xbe691594	-0.22762138
71	0x3db2b4b5	0.087258734
72	0x3c2a0af4	0.010378588
73	0xbc2671fc	-0.010159012
74	0x3db18ecc	0.086698145
75	0xbdcfdbd5	-0.101493515
76	0x3d0156a2	0.03157676
77	0xbc1fdf6a	-0.009757856
78	0xbd43dba2	-0.04781688
79	0x3e07c59e	0.13258979
80	0xbe1fc1a2	-0.15601209
81	0xbc36662b	-0.011132757
82	0x3d5aebf1	0.053447668
83	0xbd236775	-0.039893586
84	0xbe02394b	-0.12717168
85	0x3d9b2e29	0.07577164
86	0xbd22d4f5	-0.039753873
87	0xbe2a777c	-0.16647142
88	0x3e27ae9f	0.16375206
89	0xbc1f30c4	-0.0097162165
90	0xbd162f01	-0.03666592
91	0xbc1e294e	-0.0096534025
92	0x3e89d707	0.26921865
93	0xbc0bf8bb	-0.008543189
94	0x3d85b78c	0.065291494
95	0x3e301053	0.17193727
96	0xbd62f539	-0.055409644
97	0xbda9db2d	-0.082937576
98	0xbcc6ba6c	-0.024258815
99	0x3d9dc66c	0.077038616
100	0x3e3e3fe6	0.18579063
101	0xbdc7c488	-0.09754282
102	0x3e4050be	0.187808
103	0x3e4b5418	0.19856298
104	0x3d37e8eb	0.044899862
105	0x3e7c8428	0.24659789
106	0xbe7ea29f	-0.24866723
107	0xbd2c74a3	-0.04210342
108	0x3e0f854e	0.14015695
109	0x3d0b2773	0.03397317
110	0x3dda0442	0.10645343
111	0xbd9029d1	-0.07039226
112	0x3a19f18b	0.00058724795
113	0x3de07ad9	0.10960931
114	0xbcb90a31	-0.022587867
115	0xbe3e9026	-0.18609676
116	0xbe1cd2b5	-0.15314753
117	0xbe1ee4ad	-0.1551692
118	0xbd5c667e	-0.05380868
119	0xbc9a7cbc	-0.018858306
120	0x3dd655c2	0.10465576
121	0x3dee2d06	0.11629681
122	0x3e39373f	0.18087481
123	0xbbf73406	-0.0075440435
124	0x3da8aa36	0.0823559
125	0x3d3892bf	0.045061823
126	0x3bd4cd79	0.006494221
127	0x3e08fcf6	0.13377747
128	0x3c2ca828	0.010538138
129	0xbd1eac2b	-0.03873841
130	0x3caa73ed	0.02080723
131	0x3ce7ee53	0.028311884
132	0x3c9f3069	0.019432263
133	0xbdc8b8de	-0.098008856
134	0x3e599b53	0.21250658
135	0x3c93b8a7	0.018032385
136	0xbd8a063a	-0.06739469
137	0x3ddf2843	0.10896351
138	0xbe2df0b2	-0.16986349
139	0x3da85739	0.082197614
140	0x3e13a909	0.1441995
141	0x3c3ca48a	0.011513839
142	0x3ddbe02c	0.10736117
143	0xbcf94921	-0.030430378
144	0x3da524cd	0.0806366
145	0x3d972c88	0.073815405
146	0xbde16ac8	-0.11006695
147	0x3db62cf9	0.088952966
148	0x3e0549f8	0.13016498
149	0xbd10da55	-0.035364468
150	0x3d98def1	0.07464398
151	0x3dbabedc	0.09118435
152	0xbb8af8aa	-0.004241069
153	0xbe1b2b6d	-0.15153284
154	0xbde0a954	-0.10969797
155	0xbcb1d9fa	-0.021710385
156	0xbcd0bf2c	-0.025481783
157	0xbd9f4321	-0.07776476
158	0x3d959734	0.0730423
159	0xbe7cd137	-0.24689184
160	0xbd79e2e4	-0.061007395
161	0xbd7f0e54	-0.062269524
162	0x3d3d1353	0.046161007
163	0xbabd549e	-0.0014444774
164	0xbe0c5275	-0.1370333
165	0x3c9f28d7	0.019428654
166	0x3ded2cef	0.11580836
167	0x3dc3f112	0.09567465
168	0xbd86f632	-0.06589927
169	0xbe4255fd	-0.18978114
170	0x3d051d5c	0.032498702
171	0x3e107bff	0.14109801
172	0xbcb8858e	-0.022524621
173	0xbe319a45	-0.17344005
174	0xbc958f60	-0.018256843
175	0x3da28837	0.07936137
176	0x3dc9316b	0.09823879
177	0x3d4fca81	0.050730232
178	0xbd81657a	-0.06318183
179	0x3e11f866	0.14254913
180	0xbd000a95	-0.03126009
181	0xbd989382	-0.0745001
182	0x3ddb1718	0.10697764
183	0xbc078866	-0.008272266
184	0xbd222c19	-0.039592836
185	0xbd97950b	-0.074014746
186	0x3d82fd89	0.06396014
187	0xbd38e154	-0.045136765
188	0xbd336fb9	-0.04380772
189	0x3c395f22	0.011314185
190	0x3d6c1f0c	0.057646796
191	0x3c8615c3	0.016367799
192	0x3dd84d41	0.1056161
193	0x3e54d697	0.20784985
194	0xbc9b7e66	-0.01898117
195	0x3d0d718c	0.034532115
196	0xbd206cfe	-0.039166443
197	0xbdbbe909	-0.09175307
198	0x3dbbda68	0.09172517
199	0xbe759396	-0.23982081
200	0xbcab0db9	-0.020880567
201	0x3dce4b79	0.10072989
202	0x3c97caed	0.01852938
203	0xbe2c2b89	-0.16813482
204	0x3e46d82b	0.19418399
205	0xbdc60d31	-0.09670485
206	0x3e230e58	0.1592344
207	0x3e32d9c1	0.17465879
208	0xbe6fd299	-0.2342018
209	0xba2301fb	-0.00062182517
210	0x3bab3034	0.005224252
211	0xbd2ed23b	-0.04268096
212	0xbd9e6b97	-0.07735365
213	0x3d239e67	0.039945986
214	0x3e20ee9e	0.15716025
215	0xbdc930b9	-0.09823746
216	0xbe04e9a2	-0.12979749
217	0xbd6414e7	-0.055683997
218	0xbe413420	-0.1886754
219	0xbdb0397a	-0.08604713
220	0x3d561276	0.0522637
221	0xbcaa81a4	-0.02081377
222	0xbe540660	-0.20705557
223	0x3e365b1e	0.17808196
224	0x38aed73a	8.3370556e-05
225	0xbc406074	-0.011741746
226	0xbbec38b8	-0.00720891
227	0xbd2f3e37	-0.042783942
228	0xbcf622f0	-0.030045956
229	0xbd63c56a	-0.05560819
230	0x3d986cc5	0.07442621
231	0xbc66b11a	-0.01408031
232	0xbd24304b	-0.04008512
233	0xbd68104b	-0.056656163
234	0x3d1bafc7	0.03800943
235	0x3d4056d5	0.04695781
236	0xbcfe226f	-0.031022279
237	0x3d40cfc2	0.047073133
238	0x3df659c8	0.12028843
239	0xbdb90527	-0.09034186
240	0xbca4eafc	-0.02013158
241	0x3dad7ab5	0.0847067
242	0x3c9b0279	0.018922077
243	0x3ca34319	0.019929456
244	0x3da4bc25	0.08043698
245	0x3dd5b0e8	0.10434133
246	0xbe1c2e2d	-0.1525199
247	0x3d80d7c8	0.06291157
248	0x3dbeb442	0.09311725
249	0xbc395439	-0.011311584
250	0x3d3beb5c	0.045878753
251	0x3cf364b4	0.029711105
252	0xbd85a723	-0.065260194
253	0x3d063711	0.03276736
254	0xbdb8ad17	-0.09017389
255	0x3e16446b	0.14674537

proj.0.bias f4 [256]
0	0x3db8b71c	0.090193
1	0xbc296802	-0.010339739
2	0x3e624408	0.22096264
3	0xbd5957f7	-0.053062405
4	0x3e0965de	0.13417765
5	0xbd565411	-0.052326266
6	0x3de27eb5	0.11059324
7	0xbc63b4a0	-0.013898045
8	0x3de02799	0.10945053
9	0x3d716e5d	0.05894314
10	0xbd922556	-0.071360275
11	0x3e3c6cf4	0.18400937
12	0x3e063d0f	0.1310923
13	0xbd2bd03f	-0.041946646
14	0xbc3cfa0e	-0.011534227
15	0x3daf5328	0.08560783
16	0x3e438d5e	0.19096896
17	0xbc7a8918	-0.015291475
18	0xbdac83df	-0.0842359
19	0xbb8bd5db	-0.004267437
20	0x3e68d9f2	0.2273939
21	0x3e4e38e7	0.20138894
22	0x3e3aff95	0.1826156
23	0xba60455e	-0.00085552584
24	0xbd3026d1	-0.04300577
25	0x3e277404	0.1635285
26	0x3e40d6c2	0.18831924
27	0xbceee2f6	-0.029160958
28	0x3c8cc1e3	0.017182296
29	0xbd91313c	-0.07089469
30	0xbcea607e	-0.028610464
31	0x3e0d5917	0.13803516
32	0xbcde8bdd	-0.027166301
33	0xbdd33998	-0.103137195
34	0x3dc49f6a	0.09600718
35	0x3e54f446	0.20796308
36	0x3d8476b0	0.0646795
37	0xbd6db0af	-0.058029827
38	0x3e7bef44	0.24602991
39	0xbd031491	-0.032002036
40	0xbd18c8da	-0.037300922
41	0xbcb7a5ca	-0.022417922
42	0x3e19e78a	0.15029731
43	0x3e5ca09a	0.2154564
44	0x3ce9bf4b	0.028533598
45	0x3dbd9af0	0.092580676
46	0xbc422fd3	-0.0118522225
47	0x3de7c42a	0.11316712
48	0x3dc8d0cc	0.0980545
49	0x3e6d4b35	0.2317322
50	0x3e5c324a	0.21503559
51	0x3dd4b21c	0.10385534
52	0x3ddac0be	0.10681294
53	0xbdd14edb	-0.102201186
54	0xbce211e1	-0.027596416
55	0x3e27a5d9	0.1637186
56	0xbdbad375	-0.091223635
57	0x3db3320d	0.08749781
58	0x3e103abc	0.14084905
59	0x3c98371e	0.01858097
60	0x3e769b0a	0.2408258
61	0x3cbb3bb8	0.022855625
62	0x3e790e78	0.24321926
63	0x3e8838bc	0.26605785
64	0x3d75e3ab	0.060031574
65	0x3b7bf571	0.0038445855
66	0x3e3b72d6	0.18305525
67	0xbca0d07b	-0.019630661
68	0xbcc23501	-0.023706915
69	0x3dc5db61	0.09660984
70	0xbbec6e18	-0.0072152726
71	0x3e108a80	0.14115334
72	0xbd8d0f86	-0.068877265
73	0xbbe0f42b	-0.0068650446
74	0x3d3e4a2e	0.046457462
75	0xbc91276e	-0.017718997
76	0x3cd4ec75	0.025991658
77	0xbdd52e9a	-0.10409279
78	0x3e4c559b	0.19954531
79	0x3dbaf4f6	0.09128754
80	0xbd594401	-0.05304337
81	0xbd91bb0d	-0.07115755
82	0x3e9e8862	0.30963427
83	0x3db25aca	0.08708723
84	0xbcbb3b85	-0.02285553
85	0x3e310d2e	0.17290184
86	0x3e441c1b	0.19151346
87	0x3c8def59	0.017326044
88	0x3e27ec52	0.16398743
89	0x3d7ffc50	0.062496483
90	0x3e14f72e	0.14547417
91	0xbd013b8e	-0.031550936
92	0xbc3c472d	-0.011491579
93	0x3e581a38	0.21103752
94	0xbcf094f6	-0.029367905
95	0xbdcbe5a6	-0.09955911
96	0x3e0270e0	0.12738371
97	0x3d8024db	0.062570296
98	0x3e68df4a	0.22741428
99	0xbc9d1353	-0.019174254
100	0x3e3232d9	0.1740221
101	0x3e20e594	0.15712577
102	0x3dab438d	0.08362494
103	0x3e5e71b5	0.21723063
104	0x3e01d377	0.12678324
105	0x3e306cd1	0.1722901
106	0x3dbdf053	0.09274354
107	0x3e1a4f8c	0.15069407
108	0x3e46cb63	0.19413523
109	0x3d88c241	0.06677676
110	0xbb9f7546	-0.004866275
111	0xbcce9e95	-0.025222102
112	0xbbf0220e	-0.0073282784
113	0x3dfe9176	0.12430088
114	0x3e0a1423	0.13484244
115	0xbd05fde0	-0.032712817
116	0x3e3910fc	0.18072885
117	0x3e833807	0.25628683
118	0x3dcf69db	0.10127612
119	0x3e70f8cb	0.23532407
120	0x3e0cc6f3	0.13747768
121	0x3df7c3df	0.12097906
122	0xbc5480d7	-0.012970171
123	0x3e4bfa70	0.19919753
124	0x3dbf78d6	0.093492195
125	0x3dc131b0	0.09433305
126	0x3e29fa4f	0.16599391
127	0x3e44b8b7	0.19211088
128	0x3e339869	0.17538609
129	0x3c3d8f30	0.011569783
130	0x3dfddba5	0.123954095
131	0x3e16fd38	0.14745033
132	0xbd466ff4	-0.04844661
133	0x3db0dac2	0.08635475
134	0x3df3229a	0.11871834
135	0xbd583c98	-0.05279216
136	0x3e5bd22b	0.21466891
137	0x3dead0d3	0.11465611
138	0x3de9623c	0.1139569
139	0x3e21e466	0.15809783
140	0x3e42a5a4	0.190085
141	0x3dd1c65c	0.10242912
142	0x3d70da16	0.058801733
143	0xbcdf51ec	-0.027260743
144	0x3daf703e	0.085663304
145	0x3b9ec70b	0.004845505
146	0x3e19e72d	0.15029593
147	0x3e203227	0.15644132
148	0xbd0b5a37	-0.034021582
149	0xbc8da740	-0.017291665
150	0x3e096fdd	0.13421579
151	0x3e3c1689	0.18367971
152	0xbd8b9683	-0.06815817
153	0xbc9a07e5	-0.018802593
154	0x3db5f6da	0.08884974
155	0xbc6bba83	-0.01438773
156	0x3cb18c88	0.021673456
157	0x3e34e3c3	0.17665009
158	0xbac65176	-0.0015130478
159	0xbdf1eb17	-0.11812418
160	0xbcb63a4a	-0.022244591
161	0x3d8bbc0e	0.06822978
162	0xbd3b9617	-0.045797434
163	0x3e2c5251	0.16828276
164	0xbd9dbaf3	-0.07701673
165	0x3e57e585	0.21083649
166	0x3e1bc760	0.15212774
167	0x3e4019df	0.18759869
168	0xbd525338	-0.051348895
169	0xbcb2394d	-0.021755839
170	0xbb56a319	-0.0032751022
171	0x3e539fdb	0.20666449
172	0x3bb96b56	0.0056585474
173	0x3e1095cc	0.14119643
174	0x3e578f07	0.21050654
175	0x3e76c538	0.2409867
176	0x3e4ca2a8	0.19983923
177	0x3dcfab54	0.101401
178	0x3d0bbf36	0.0341179
179	0x3da9dc1e	0.08293937
180	0x3d527918	0.051385015
181	0x3e4e794e	0.20163462
182	0x3c0dfeba	0.008666689
183	0xbd00a4b8	-0.031407088
184	0xbcc3d0e7	-0.023903323
185	0x3e0b718c	0.13617533
186	0x3de3565b	0.111004554
187	0x3d92b8e1	0.07164169
188	0x3ccd46a3	0.025058096
189	0xbd2284d7	-0.039677467
190	0x3d721c15	0.059108812
191	0xbc391c51	-0.011298255
192	0x3e4517cd	0.1924736
193	0xbcd7c811	-0.026340516
194	0x3e111587	0.14168368
195	0x3e30086f	0.17190717
196	0xbd34a553	-0.044102978
197	0x3d8b6be8	0.06807691
198	0x3e9137a2	0.28362757
199	0xbdb0b884	-0.086289436
200	0x3e12cab3	0.14335136
201	0x3de9a10a	0.11407669
202	0x3e933102	0.28748327
203	0x3e22cff7	0.15899645
204	0x3e2b82ef	0.16749166
205	0x3e28aa75	0.16471274
206	0xbd1023d0	-0.035190403
207	0x3e08b241	0.13349248
208	0x3e552b94	0.20817405
209	0x3dfb8751	0.12281669
210	0x3e387a47	0.18015395
211	0x3c0dbc76	0.00865089
212	0x3dd05aa7	0.101735406
213	0x3d924f08	0.0714398
214	0x3e5c649c	0.21522754
215	0xbd83c946	-0.06434874
216	0xbc69d695	-0.014272352
217	0x3e2f6b8b	0.17130868
218	0xbd214d24	-0.039380208
219	0xbd7c06c3	-0.061529886
220	0x3ccaf943	0.02477706
221	0x3dc78999	0.097430415
222	0x3e2d7c0d	0.16941853
223	0xbcbcc372	-0.023042414
224	0x3e4fdcf4	0.2029913
225	0x3dd7c70d	0.10536013
226	0xbd1c7446	-0.038196824
227	0x3e5585c3	0.20851807
228	0x3cf93dba	0.030424941
229	0xbdc11b5b	-0.09429046
230	0xbd58be5c	-0.052915916
231	0xbd3185ad	-0.043340374
232	0x3da8f9f5	0.082508005
233	0x3d949d37	0.07256549
234	0xbdb5a183	-0.088686965
235	0x3defef64	0.11715582
236	0xbdbf093f	-0.093279354
237	0x3e2691d3	0.16266565
238	0xbcc2e7b7	-0.02379213
239	0x3e8ab14a	0.27088386
240	0x3e9a5fac	0.30151117
241	0xbd32c3e3	-0.043643843
242	0xbca444e8	-0.020052388
243	0x3e36eae1	0.17863037
244	0x3e8973e4	0.2684623
245	0x3e17b3d3	0.14814691
246	0xbc344093	-0.011001724
247	0x3dce49a5	0.1007264
248	0x3de9f775	0.11424152
249	0xbbf66bf1	-0.007520192
250	0x3c9799a7	0.018505884
251	0x3e2d6690	0.16933656
252	0xbd48da32	-0.049036212
253	0x3dc5d73b	0.096601926
254	0x3e52b947	0.2057849
255	0x3d822d23	0.063562654

proj.2.weight f4 [192, 256]
0	0x3da390a9	0.07986576
1	0x3e7a95af	0.24471162
2	0xbe0a5e07	-0.13512431
3	0xbdd0a37b	-0.101874314
4	0x3d35a3ec	0.04434578
5	0xbcf0029a	-0.029298116
6	0x3d5da662	0.054113753
7	0xbd9725c8	-0.07380253
8	0xbda2fc78	-0.07958311
9	0x3db3b43e	0.08774613
10	0xbc096aa1	-0.008387239
11	0xbb88d0d3	-0.0041752844
12	0xbd6b106b	-0.057388704
13	0x3d8d3960	0.06895709
14	0x3ee4287f	0.44562146
15	0xbdcdc2cb	-0.100469194
16	0x3dabc648	0.083874285
17	0x3eab12c8	0.33412766
18	0xbd283dbc	-0.0410745
19	0x3df95c0c	0.1217576
20	0x3d071482	0.032978542
21	0x3cc8b2f2	0.02449939
22	0x3d27f422	0.041004308
23	0xbe1afa6f	-0.15134595
24	0xbd7bdf91	-0.061492506
25	0x3d5ead27	0.05436435
26	0xbd7b863d	-0.061407316
27	0xbd81950e	-0.06327258
28	0xbe94603f	-0.2897968
29	0x3d372aaa	0.044718422
30	0xbe390833	-0.18069534
31	0xbc0a1533	-0.008427906
32	0x3e040e3b	0.12896053
33	0xbc65c326	-0.014023578
34	0xbd322f02	-0.04350186
35	0xbe08e682	-0.13369182
36	0x3dd53c1e	0.10411857
37	0x3d29438f	0.041324195
38	0x3cc96aa6	0.024586987
39	0x3df0ad11	0.1175176
40	0x3b820a3b	0.0039685047
41	0xbdbcbcfb	-0.09215733
42	0xbd39067b	-0.045172196
43	0x3cf06936	0.029347043
44	0xbdf1c86c	-0.118058056
45	0xbe2509c5	-0.16117008
46	0x3cb31106	0.021858703
47	0xbdbd562f	-0.09244954
48	0xbca8c69a	-0.020602513
49	0xbcdb260b	-0.026751539
50	0x3e20001d	0.15625043
51	0xbd746d57	-0.059674587
52	0xbd9a4f56	-0.075346634
53	0xbd156201	-0.036470417
54	0xbe1154a5	-0.14192446
55	0x3c9d7f49	0.019225733
56	0x3e7d69cf	0.24747394
57	0x3dab9b11	0.08379186
58	0xbdb8d020	-0.09024072
59	0xbc870a23	-0.016484326
60	0x3cc9432d	0.024568165
61	0xbd9eb1ea	-0.07748778
62	0xbdca11b0	-0.09866655
63	0x3e4c2270	0.19935012
64	0xbe42506e	-0.18975994
65	0xbe5f7b13	-0.21824293
66	0xbd7e51af	-0.06208962
67	0x3e4c1786	0.19930848
68	0x3c2289a5	0.009920512
69	0xbdee2728	-0.11628562
70	0xbdb026e2	-0.08601166
71	0x3d60da08	0.05489543
72	0x3dd9d301	0.10635949
73	0x3e7b1ed9	0.24523486
74	0xbdb7eecf	-0.08981096
75	0x3e055cbb	0.13023655
76	0xbd951a9c	-0.07280466
77	0xbd0aa46c	-0.03384821
78	0xbdc6d655	-0.09708849
79	0xbd25b240	-0.040453196
80	0xbd2c7727	-0.04210582
81	0xbd813ee8	-0.063108265
82	0xbd48347c	-0.048878178
83	0x3bbb00eb	0.0057068965
84	0xbe9742b1	-0.2954307
85	0x3d0fb813	0.035087656
86	0xbd9fdfa9	-0.07806332
87	0x3d848a7a	0.06471725
88	0x3db3b61d	0.0877497
89	0x3ce1bce2	0.027555887
90	0x3d1e9157	0.038712826
91	0x3e0e7a73	0.13913898
92	0x3daca39b	0.08429643
93	0xbd3381a9	-0.043824825
94	0x3e25f266	0.16205749
95	0xbeb9563a	-0.36198598
96	0xbdea3895	-0.114365734
97	0xbd0fdff8	-0.035125703
98	0x3e163884	0.14669997
99	0xbe85f199	-0.26160887
100	0xbd50e6a0	-0.05100119
101	0x3cf8a5f6	0.030352574
102	0x3e06da92	0.13169315
103	0xbd63d8e3	-0.05562676
104	0x3dab1ea3	0.08355453
105	0x3db5b086	0.0887156
106	0xbed2897c	-0.41120517
107	0x3c5bb1ec	0.013409119
108	0x3da28adf	0.07936644
109	0xbcf9a4f4	-0.030474164
110	0xbe908960	-0.2822981
111	0xbdee6915	-0.116411366
112	0x3be26b95	0.0069097974
113	0xbdd6a91d	-0.104814745
114	0x3dafe83a	0.085892156
115	0xbdc304a0	-0.095223665
116	0xbc8d4adb	-0.017247608
117	0x3e038d76	0.12846932
118	0xbd95d7d6	-0.07316558
119	0xbe11fdb3	-0.14256935
120	0xbd65795b	-0.056023937
121	0xbdc88983	-0.09791853
122	0xbe8a6396	-0.27029103
123	0xbb2b9bfb	-0.00261855
124	0xbd442d53	-0.047894787
125	0xbcf516d4	-0.029918112
126	0x3dbe5d66	0.09295158
127	0x3d613c98	0.054989427
128	0xbde64961	-0.11244465
129	0x3d0a8ad1	0.033823792
130	0xbc6a6590	-0.014306441
131	0xbdce2a29	-0.10066635
132	0xbe849e50	-0.25902033
133	0xbd8e274d	-0.0694109
134	0xbdb11a5f	-0.08647608
135	0x3e3fff84	0.18749815
136	0x3d34def1	0.044157926
137	0xbdd60556	-0.104502365
138	0xbd31be03	-0.0433941
139	0xbc787d7d	-0.0151666375
140	0xbd2a3050	-0.04154998
141	0xbd85352b	-0.065042816
142	0xbd57f474	-0.052723363
143	0xbd4a25e0	-0.049352527
144	0xbdf2195b	-0.118212424
145	0xbdd5e584	-0.10444167
146	0x3e1039e9	0.14084591
147	0xbcba656d	-0.022753442
148	0x3dc911da	0.09817858
149	0x3a08110b	0.0005190528
150	0x3dbf761a	0.09348698
151	0xbc2c0eba	-0.010501558
152	0x3da7a4ce	0.08185731
153	0xbe48c61d	-0.19606824
154	0x3e0f8ca4	0.14018494
155	0x3dcc77ed	0.099838115
156	0x3cf8fc52	0.030393753
157	0x3e46dc55	0.19419987
158	0xbdc3cf6b	-0.09561046
159	0x3d7f68c5	0.062355775
160	0x3c8ea373	0.017411923
161	0x3ddf62dd	0.109075285
162	0x3e05698e	0.13028547
163	0x3cffd6b3	0.031230306
164	0x3db0e56a	0.08637507
165	0xbdf75a3e	-0.12077759
166	0x3d6dfb6e	0.05810111
167	0xbdceade2	-0.10091759
168	0xbdbe58c0	-0.092942715
169	0xbea66339	-0.32497576
170	0x3e1027e5	0.14077719
171	0xbcb27c16	-0.021787684
172	0xbd4f038a	-0.050540484
173	0xbd612b00	-0.05497265
174	0x3e0cfaef	0.13767599
175	0xbd1f4dc5	-0.038892526
176	0x3d9e5c2a	0.07732423
177	0xbd8c2068	-0.068421185
178	0x3d76d6ce	0.060263447
179	0xbd1e5ab8	-0.038660735
180	0xbe22f4ba	-0.15913668
181	0x3c906aad	0.017628992
182	0x3bd67cd7	0.006545644
183	0xbb51aa66	-0.0031992435
184	0xbdf56a8b	-0.11983212
185	0x3da3e514	0.080026776
186	0x3cc534a0	0.024072945
187	0x3c1d6101	0.009605647
188	0x3be7aece	0.007070399
189	0x3e4ab3ea	0.19795194
190	0x3e13f266	0.14447936
191	0xbda4b12b	-0.080416046
192	0x3def862f	0.11695515
193	0xbdc66e17	-0.09688967
194	0xbc7f70df	-0.015590875
195	0x3d03f4fc	0.032216057
196	0x3cba9e18	0.022780463
197	0xbbcc486a	-0.0062342184
198	0xbcf91386	-0.030404817
199	0xbe6db4bd	-0.23213477
200	0xbdb58437	-0.088631086
201	0x3d16be16	0.036802374
202	0x3da9c62f	0.08289754
203	0xbd93a1e6	-0.07208614
204	0x3d0560e7	0.032563116
205	0xbe2c545d	-0.16829057
206	0xbc5c7b57	-0.013457141
207	0xbd02b3f8	-0.031909913
208	0x3da78075	0.08178798
209	0x3daf11ca	0.08548315
210	0x3d380778	0.044928998
211	0xbdc77585	-0.09739212
212	0xbd85c09d	-0.06530879
213	0xbd7e92d1	-0.062151734
214	0x3c86ac57	0.0164396
215	0x3dbf03c1	0.09326888
216	0x3d08a025	0.03335585
217	0xbc89d3ee	-0.016824689
218	0xbd33a316	-0.043856703
219	0xbcf5fc67	-0.030027581
220	0xbe1de5ea	-0.15419737
221	0xbd05e4c6	-0.03268888
222	0x3cfe1bbd	0.031019086
223	0x3d91bd05	0.07116131
224	0xbd9be54d	-0.07612095
225	0xbce55fe6	-0.02799983
226	0xbdbdb089	-0.09262187
227	0x3daf8644	0.08570531
228	0x3deffa05	0.11717609
229	0xbddde020	-0.10833764
230	0x3e4eee45	0.2020808
231	0x3bcadc50	0.006190814
232	0x3c87bda0	0.016569912
233	0xbdc3ffc1	-0.095702656
234	0x3d085a12	0.033289023
235	0xbd06a8b5	-0.032875735
236	0x3def8711	0.11695684
237	0x3d07b078	0.033127278
238	0x3d6f476a	0.058417715
239	0x3d26ff13	0.0407706
240	0xbc8dd0fa	-0.017311562
241	0xbe4bd461	-0.19905235
242	0x3e634f83	0.221983
243	0xbdf13747	-0.117781214
244	0x3d30ec25	0.043193955
245	0xbda2af7a	-0.07943626
246	0xbd185bcd	-0.037196923
247	0x3dc428b1	0.09578074
248	0x3d0ff0ef	0.03514188
249	0xbdabe3f4	-0.08393088
250	0x3d8a5846	0.06755118
251	0xbd0fa4ad	-0.035069156
252	0x3ce74c9f	0.028234778
253	0xbd473f7d	-0.04864453
254	0xba942716	-0.0011303152
255	0xbdc0470a	-0.093885496

proj.2.bias f4 [192]
0	0x3b0de69a	0.0021652342
1	0x3c459b1a	0.012060905
2	0xbccc6ee5	-0.024955222
3	0xba1b1247	-0.00059155043
4	0x3af702e2	0.0018845464
5	0xbc087a82	-0.008329989
6	0x3cc224bf	0.023699163
7	0x3c2d3e55	0.010573943
8	0xbd0bb317	-0.03410634
9	0xbce86b7b	-0.028371563
10	0x3c13b621	0.009015591
11	0x3cb22717	0.021747155
12	0x3bac1a2b	0.005252143
13	0xbc188c46	-0.009310788
14	0x3ab82fd6	0.0014052342
15	0xbb809fe2	-0.0039253095
16	0x3c49f995	0.012327571
17	0xbc08357c	-0.008313533
18	0xbc9a805d	-0.018860037
19	0x3c7a4394	0.015274901
20	0xbbadce16	-0.0053041084
21	0x3ab83288	0.0014053145
22	0x3c8a72f3	0.016900515
23	0xbd042870	-0.032265127
24	0x3cb58955	0.022160212
25	0xbc6b7518	-0.014371179
26	0xbc20fdb0	-0.009826109
27	0xbc95b074	-0.018272616
28	0xbcab1d55	-0.02088801
29	0x3d2af0b3	0.041733455
30	0x3c8750fa	0.016518105
31	0xbc89cce0	-0.016821325
32	0xbba9ba39	-0.00517967
33	0x3b7d8faf	0.0038690378
34	0xbce6bb05	-0.02816535
35	0x3d01e7c4	0.03171517
36	0x3cc3cfbc	0.023902766
37	0xbd2f33b1	-0.042773906
38	0x3c782aba	0.015146906
39	0x397fd6e7	0.00024398752
40	0xbd02244f	-0.031772908
41	0x3cbe750f	0.023249177
42	0xbce48ed2	-0.027900133
43	0xbc90e0c6	-0.017685305
44	0x3d3a7912	0.045525618
45	0x3c826b9c	0.015920453
46	0xbab90b22	-0.0014117698
47	0xbca5a2d7	-0.02021925
48	0x3d045dbe	0.032315962
49	0x3ad8c6c2	0.0016538727
50	0xbd186337	-0.037203994
51	0x3caad657	0.020854158
52	0xbb98c8da	-0.0046626152
53	0xbc2f3271	-0.0106931785
54	0x3cdc4572	0.026888583
55	0xbcb6f91d	-0.022335583
56	0x3c4168e8	0.011804797
57	0x3d0d4e52	0.03449852
58	0xbbfca7ff	-0.0077104564
59	0xbb283318	-0.002566522
60	0xbce3a2cc	-0.027787589
61	0xbcacfd91	-0.021117004
62	0x3d8e40cc	0.06945953
63	0x3c38e95d	0.011286107
64	0xbcf97bce	-0.030454542
65	0x3ce2ecac	0.027700745
66	0x3d0bcd0a	0.034131087
67	0xbd007519	-0.031361673
68	0xbbdc44f2	-0.006722086
69	0x3ce9e88e	0.028553274
70	0x3bd7ad94	0.0065819714
71	0xbd1aa4be	-0.037754767
72	0xbbde0601	-0.006775618
73	0xbba2254e	-0.0049482947
74	0x3c298c55	0.010348399
75	0x3d125625	0.035726685
76	0xbd03521e	-0.032060735
77	0x3b7311cf	0.0037089472
78	0x3d64adb7	0.05582973
79	0xb8f78eb9	-0.00011804462
80	0xbd004b6b	-0.031321924
81	0x3d6cf282	0.05784846
82	0xbcb5d6c7	-0.02219714
83	0xbc5e9010	-0.013584152
84	0x3d6e3e5b	0.058164936
85	0xbcb0bf98	-0.021575734
86	0xbc8f7ab2	-0.01751456
87	0x3d1c42c1	0.0381496
88	0xbc6f4b9d	-0.01460543
89	0xbb5b5a53	-0.0033470585
90	0x39937c46	0.00028130616
91	0xbc956c33	-0.01824007
92	0x3ce68186	0.028137933
93	0x3cabfa74	0.020993449
94	0xbc400c08	-0.0117216185
95	0xbc6be659	-0.014398181
96	0x3cafa992	0.021443162
97	0x3b23791b	0.002494401
98	0xbccad8d4	-0.024761595
99	0x3d08f226	0.033434056
100	0xbca4a988	-0.02010037
101	0xbc1583da	-0.009125674
102	0x3b9487e6	0.004532802
103	0xbc6082e0	-0.013703078
104	0x3d0b2d70	0.03397888
105	0x3d5b3bfe	0.05352401
106	0xbcb9a9ce	-0.022663977
107	0xbc47d524	-0.012196813
108	0x3cdbf27d	0.026849026
109	0xbcb14060	-0.021637142
110	0x3c757ed2	0.01498385
111	0x3d52a991	0.051431242
112	0xbb87d5d8	-0.004145365
113	0xbcadd63f	-0.021220325
114	0x3d1e6999	0.038674925
115	0xbcd1f34c	-0.025628708
116	0xbbc39095	-0.0059681633
117	0xbd0f6ce1	-0.035015944
118	0x3a19dfd1	0.0005869838
119	0x3d124e65	0.035719294
120	0x3c402806	0.011728292
121	0x3c353b29	0.011061468
122	0xbcce385c	-0.025173359
123	0x3c9d80ed	0.019226516
124	0xbc78ca91	-0.015185014
125	0xbb802ed1	-0.003911831
126	0xb9d91462	-0.00041404652
127	0xbd1bb22b	-0.03801171
128	0x3d538478	0.051640004
129	0x3c8cf0de	0.017204698
130	0xbc52613b	-0.012840564
131	0x3c65bede	0.014022557
132	0x3d63407f	0.05548143
133	0xbae9b806	-0.0017831333
134	0xbcd02584	-0.025408514
135	0x3d0e02a4	0.034670487
136	0xbce3c3f4	-0.027803399
137	0x3bda0724	0.0066536833
138	0xbb7effbe	-0.0038909758
139	0xbcbfff53	-0.023437178
140	0x3cd36697	0.025805755
141	0x3ac01d9d	0.0014657263
142	0x3bc86960	0.0061160773
143	0xbbeebbc1	-0.0072855656
144	0x3caaa6dd	0.02083152
145	0x3ba725a6	0.0051009236
146	0xbcf66e06	-0.03008176
147	0x3d0227cd	0.03177624
148	0xbca9b76a	-0.020717341
149	0xbc04b215	-0.008099099
150	0x3c2ad01d	0.010425595
151	0xbcd2ed2c	-0.025747858
152	0x3c6eb7db	0.014570202
153	0x3c903200	0.017601967
154	0xbce6b3d8	-0.028161928
155	0x3c40a081	0.011757017
156	0x3d2808b5	0.04102393
157	0xbc9c26a9	-0.019061403
158	0xbbb0a66e	-0.0053909337
159	0x3c9c1608	0.019053474
160	0xbce6e8a1	-0.028187098
161	0x3c4c296f	0.01246105
162	0x3d0585aa	0.032598175
163	0xbcd4e00a	-0.025985736
164	0xbaa13028	-0.0012297677
165	0x3abe8aa4	0.0014537168
166	0x3b9c0c15	0.0047621825
167	0xbc108519	-0.008820795
168	0xbc21ae2d	-0.009868187
169	0x3c7845f1	0.015153394
170	0xbc8b99ba	-0.017041076
171	0x3c70c167	0.014694548
172	0x3be1d3a9	0.006891687
173	0xbcd975fe	-0.02654552
174	0x3d0b57e7	0.034019377
175	0xbb8aa6fa	-0.004231331
176	0xbcfafe66	-0.030638885
177	0xbbdc6b70	-0.0067266747
178	0xbbfa71a9	-0.007642944
179	0x3c9485b5	0.018130163
180	0x3ceb8d11	0.02875379
181	0xbbf87908	-0.0075827874
182	0xbc905d12	-0.017622504
183	0x3d65dce6	0.05611887
184	0x3ad8ff35	0.001655555
185	0xbd73c8d1	-0.059517685
186	0xbb808093	-0.0039215772
187	0x3b7f2e89	0.003893765
188	0xbbb7a060	-0.005603835
189	0xbc487bae	-0.012236519
190	0x3c3ac87e	0.01140034
191	0xbc186e3f	-0.0093036285
