EWOthello/KLiScripts/KLi_Paper_Checkpoints/state_tl64_championship/layer6/checkpoint.ckpt (torch, 183059 bytes, 4 tensors)

proj.0.weight f4 [64, 512]
000000 88 95 56 3e d0 65 fa 3d f1 4a 02 3e 0a 88 5c 3e
       0.20955479 0.122264504 0.127239 0.2153627
000010 15 1f 44 3e 96 5e 48 be 89 5c a2 bd 41 3e ab bd
       0.19152482 -0.19567332 -0.07927806 -0.08361483
000020 86 55 34 be be 15 fa bd 4e 29 69 3e 6f 9f 41 be
       -0.1761075 -0.12211178 0.22769663 -0.18908475
000030 49 96 b4 bd 04 61 1b be 05 60 4c 3e fd 5f ab 3d
       -0.08817727 -0.15173727 0.19958504 0.08367918
000040 69 5a 81 3e e3 59 2b bd f6 82 27 be 51 39 f8 bd
       0.2526429 -0.04183377 -0.16358551 -0.12120307
000050 0d 61 0a 3d 9b 32 0b bc ca 53 19 3e 16 cb 7c 3e
       0.03378396 -0.008495952 0.14973369 0.24686846
000060 0e 2b 4a 3d dd a0 f0 bc 07 5e 17 ba 0e 3b 5b be
       0.049357466 -0.02937358 -0.0005774204 -0.21409246
000070 0c ad 40 3c f5 58 56 bd 3d 35 b9 3d b3 c7 33 3e
       0.011760008 -0.05233093 0.090433575 0.17556648
000080 7b 9e 1f be 77 5a 2d 3e 0f 71 0f be 41 af 34 be
       -0.15587799 0.16929041 -0.14007972 -0.17644979
000090 8a 0e 9e bd 61 04 c0 bd 4b ab 12 be f4 1c 98 3c
       -0.07717617 -0.09375835 -0.14323156 0.018568493
0000a0 ce 68 95 3e 60 bb 96 bd ac 9b d1 3d 5c 87 4b be
       0.29181522 -0.07359958 0.1023477 -0.19875854
0000b0 c5 81 1a be df 61 a4 bd 99 9b 6d 3e f8 32 0e be
       -0.15088566 -0.0802648 0.23203887 -0.1388663
0000c0 c3 8a 9a 3c f4 1f 8f 3e 39 8a 28 be 60 e4 e4 3c
       0.018864995 0.27954066 -0.16458978 0.027940929
0000d0 69 13 1c 3e 35 d8 d2 3d 79 5d 99 be 6c a5 1d 3e
       0.1524178 0.102951445 -0.29954126 0.15395135
0000e0 6d 1f 83 bd 90 29 2f bd 83 9b 0c bd d3 2b 27 3e
       -0.06402478 -0.042764246 -0.034327995 0.16325311
0000f0 61 1a 38 3c da 94 d4 bd df 79 be 3d 74 58 4d be
       0.011236758 -0.10379954 0.09300589 -0.20053273
000100 09 0c 15 3e ff aa ae bd 00 d6 17 be e3 a0 15 3d
       0.14555372 -0.08528709 -0.14827728 0.036530387
000110 2b f9 ae 3d fb 91 bc bd d4 7c b4 3c 8e a0 29 be
       0.08543619 -0.09207531 0.022032179 -0.16565153
000120 c5 18 35 3e 0a 7e 2d bd 83 1a cb 3d e7 c6 ff bd
       0.1768523 -0.04235653 0.09917166 -0.124891095
000130 12 54 fc bd e1 e4 f5 3d 9b 4f 06 be 04 bc 1e 3d
       -0.12320723 0.12006546 -0.13116305 0.038753524
000140 a2 2a ed bd 74 4d 01 3e ce 58 14 3d f1 e0 2c bd
       -0.11580397 0.12627202 0.036217503 -0.04220671
000150 83 50 fb bd 06 b0 95 3d cf c5 4e 3d 2b db 3b be
       -0.12271216 0.073089644 0.050481614 -0.18345325
000160 ea 9a 90 be c1 88 1a be 74 bf b6 bd bf a8 12 3d
       -0.2824319 -0.1509123 -0.089232355 0.03580546
000170 3a f6 2d bd d3 51 52 bd 3f 31 a0 bd ca 4a 01 3e
       -0.042471148 -0.051347565 -0.07821893 0.12626186
000180 2a 46 9b ba c1 5d 09 3e ad 86 73 3e 18 1a 69 bd
       -0.0011846472 0.1341467 0.23781843 -0.05690965
000190 3d 18 e6 3d 35 12 be 3d c4 8c 26 3e 37 de 7c be
       0.11235092 0.092808165 0.16264635 -0.24694143
0001a0 f2 2d 4d bd 65 0b 8d bd d6 ad e9 bd 49 b9 36 3e
       -0.050092645 -0.06886939 -0.1141011 0.17844118
0001b0 38 c0 a9 3d 67 58 f9 3a f0 88 76 be 4a b7 80 bd
       0.08288616 0.0019023538 -0.24075675 -0.062849596
0001c0 29 26 27 3e 99 b5 0c be 15 33 e3 3d 73 e7 03 be
       0.1632315 -0.13741149 0.110937275 -0.1288126
0001d0 00 2f d4 3d 9c 65 eb bd d6 f7 93 3d d6 3f 1e be
       0.10360527 -0.1149399 0.07225005 -0.15454039
0001e0 c7 5a f5 bd ca 98 31 3d f2 96 15 bd 70 86 86 bd
       -0.11980205 0.0433586 -0.036520906 -0.06568611
0001f0 49 d0 19 be 11 21 64 3d 13 a2 74 3c 26 21 51 3b
       -0.1502086 0.055695597 0.01493122 0.0031910627
000200 25 74 3b 3e 00 c6 32 3e 51 f0 f4 bd 4b 46 32 3d
       0.18306024 0.17458344 -0.11959899 0.043524068
000210 e5 2b d0 bd 98 7f 06 3d 5a 79 64 3e e0 10 80 3d
       -0.10164622 0.032836527 0.22311917 0.06253219
000220 47 64 f1 bd 0a 07 37 3c 37 34 be 3d 13 d1 48 3d
       -0.117867045 0.011171112 0.09287303 0.049027514
000230 69 b2 3e 3d 4c b8 3c 3d 67 f8 40 be 5e 03 0f bd
       0.046556864 0.046074197 -0.18844758 -0.03491532
000240 39 ff 1f 3e dc a2 0b be 6e 35 44 be a9 5e 96 bd
       0.15624703 -0.13636345 -0.19161007 -0.07342274
000250 01 d1 80 3c a4 a3 db 3d fc f1 92 be bd eb 15 bb
       0.01572466 0.10724571 -0.28700244 -0.0022876107
000260 9d 6a 93 bd 81 bb 08 be 52 ff e3 3b c8 0d 15 3d
       -0.07198069 -0.13352777 0.006957927 0.036390096
000270 1e 64 e4 bb 3d 4b 08 3e 28 cb 58 3c f0 0c 1f 3d
       -0.0069699427 0.13309951 0.01323203 0.038830698
000280 76 d5 56 be ad 00 88 bd 42 f5 38 be bf a2 48 be
       -0.20979866 -0.06640754 -0.18062308 -0.19593333
000290 95 7b b3 3c 57 66 97 bd 61 95 ff bd 58 e2 a4 3e
       0.021909514 -0.07392567 -0.12479664 0.32203937
0002a0 98 30 5f 3e 47 25 a0 be 84 94 bf 3d a8 d9 da 3e
       0.21795881 -0.3127844 0.09354499 0.42744184
0002b0 9a d0 97 bc 30 0c 92 bd 2a d9 07 3e 4a 8a a6 3d
       -0.018532086 -0.07131231 0.13266435 0.08131845
0002c0 5a ea 19 3e 97 0c d2 3d 46 4a 78 3e 16 7b 10 be
       0.15030804 0.102563076 0.24247083 -0.14109454
0002d0 8b 30 f7 bd fe 4a 93 bd d0 b9 12 3e 69 99 ac 3d
       -0.12069806 -0.07192038 0.14328694 0.08427698
0002e0 1c 60 f1 bc 9c 77 7f be 85 31 c8 bd c0 54 3d 3d
       -0.029464774 -0.24947971 -0.0977507 0.046223402
0002f0 bc d7 c0 3c dc 53 fd bd 54 79 7b bd 95 02 b4 bd
       0.02354037 -0.123695105 -0.061395004 -0.08789555
000300 b7 fb e1 3d 60 1e 29 be b3 68 f2 bd a3 79 9e 3d
       0.11034339 -0.16515493 -0.11836376 0.07738044
000310 ae da d5 bc 15 c4 21 3e ff 68 5f be de 34 80 3d
       -0.026105251 0.15797456 -0.21817397 0.062600836
000320 c7 d5 aa 3d da c1 42 3d 42 7a 94 be ce fe 3f be
       0.08341556 0.047548153 -0.28999525 -0.18749544
000330 31 3b 2c 3e b2 77 19 be 9a 1a 3f 3d 59 87 35 bc
       0.16819455 -0.14987066 0.04665623 -0.011079633
000340 e5 a7 53 bd 1d 23 a5 3d e3 c3 05 bd 7b fd 8d be
       -0.05167379 0.08063338 -0.032657515 -0.27732453
000350 2c 40 56 be 2f d0 6e be 3c 38 cb bd 2a 77 b0 bd
       -0.20922917 -0.23321603 -0.09922835 -0.08616479
000360 65 ee a8 bd 7e 64 91 bd 0d f3 f2 3c 01 be 1b be
       -0.08248595 -0.070992455 0.029656911 -0.152092
000370 d1 71 b7 bc a6 75 3d bc bb 50 2f bd 44 fa 15 3e
       -0.02239314 -0.011563694 -0.0428016 0.1464625
000380 a8 b9 8a be 89 7e 08 bd 80 4a f0 bd aa 66 0e bd
       -0.2709477 -0.0333238 -0.1173296 -0.034765877
000390 8c df 96 bd e9 3c df bc 25 9b 69 3e ca 2b 59 3e
       -0.07366857 -0.027250724 0.22813089 0.2120811
0003a0 76 3e 30 be 3b 7b 54 be 7d 44 b5 3d 87 2f 7a be
       -0.17211327 -0.20750134 0.08850954 -0.24432193
0003b0 8b 7a e3 3d d2 37 4e be 37 c6 39 3d fa ff 08 3e
       0.111073576 -0.20138481 0.045355048 0.13378897
0003c0 ac 13 a8 3d 8c 58 e3 bd c3 89 0b be e1 93 43 3d
       0.08206877 -0.11100873 -0.1362677 0.04774845
0003d0 b6 2b 9f bc 16 65 1c 3e 1d de 27 be da ff 89 bd
       -0.019430023 0.15272936 -0.16393323 -0.06738253
0003e0 17 ed 93 3d d2 ec ec 3c 96 98 dc 3d 8c f7 3a 3e
       0.07222956 0.028921518 0.10771291 0.18258494
0003f0 db de 54 3d d0 d1 ce 3c de da de bd 8f 72 98 3d
       0.051970344 0.02524653 -0.10881589 0.07443725

proj.0.bias f4 [64]
000000 f8 95 ca 3e af 04 6e 3f 0d d5 2f 3f 8e ea ed be
       0.39567542 0.92975897 0.68684465 -0.46468014
000010 25 74 ba 3e 78 3f 3e 3f 03 b0 80 3e 17 03 07 3f
       0.36416736 0.74315596 0.25134286 0.5273909
000020 e8 92 40 3f 8c 23 b3 3e bf 41 ec 3e af 70 1c bd
       0.7522416 0.34988058 0.4614391 -0.0381934
000030 7d 5d 5d 3f c8 f2 9f 3e 60 86 fd 3e 5a d5 22 3f
       0.86470777 0.31239915 0.49516582 0.636068
000040 f7 05 dd 3e a1 10 90 3e 61 28 49 3e ed 21 e5 3e
       0.43168613 0.28137687 0.1964431 0.44752446
000050 33 53 16 3f 26 c3 46 3f d7 69 e5 3e ae d1 26 3f
       0.587207 0.7764152 0.44807312 0.65163696
000060 b5 5d 42 3f e9 e4 e4 3e 97 83 b6 3e e0 bf 17 3f
       0.75924236 0.44705895 0.3564727 0.59277153
000070 1c 48 33 3f 70 66 10 3f b0 d6 71 3f f7 33 87 3f
       0.70031905 0.5640631 0.9446821 1.0562733
000080 44 c8 60 bd 80 61 ce 3e f4 a5 35 3f 3e e3 99 3d
       -0.05487849 0.40308762 0.7095635 0.07514046
000090 57 e6 33 3f 5d 3d aa 3e 6e 81 ab 3e 95 50 3f 3f
       0.70273346 0.3324994 0.33497185 0.74732333
0000a0 ce 13 f6 3e 66 a1 41 3f a3 1f ff 3e d4 c7 02 3e
       0.48061985 0.756369 0.49828824 0.12771541
0000b0 da 7f 56 ba 6c b7 02 3f 86 3f 7f be 85 ad 49 3f
       -0.00081825035 0.5106113 -0.24926576 0.78780395
0000c0 20 bf 6a 3e bf 0c 70 3e e1 d8 0d 3f 23 f6 ae 3e
       0.22924471 0.23442362 0.55409056 0.34172162
0000d0 bc 08 b1 bc 41 f7 d8 3e 07 42 00 be be 86 1c 3f
       -0.02161061 0.4237614 -0.12525187 0.611431
0000e0 1e ec 57 3f 43 59 b3 3e 52 81 47 3e 70 16 cf 3e
       0.8434466 0.3502904 0.19482926 0.40446806
0000f0 4e 8a 38 3f b3 78 32 3f 7c f1 a2 3e ae 2e fb bd
       0.72086036 0.6971542 0.31824863 -0.12264763

proj.2.weight f4 [192, 64]
000000 0d f8 db bc 93 4c 5c be fd 53 d4 bd 84 b9 db 3b
       -0.026851678 -0.21513586 -0.10367582 0.006705465
000010 c1 27 47 bd 8e 5a f0 3d ab d7 46 3d ab 08 5f 3d
       -0.048621897 0.11736022 0.04854552 0.054451626
000020 cc 4b 2c be 88 69 20 be 91 3f 60 bd 23 36 19 bf
       -0.16825789 -0.15665257 -0.05474812 -0.5984823
000030 3c 44 b3 bd d6 b1 4d bb ad d0 f8 bd 90 f7 29 bd
       -0.08753249 -0.0031386516 -0.12149177 -0.04149586
000040 b3 73 ea 3d a3 5b 16 3c ea 14 e3 3c 38 d8 f1 3d
       0.11447849 0.009177121 0.027719934 0.118088186
000050 0d f0 cf bd dd 17 e9 bd d1 fc 58 be d6 c4 0c be
       -0.10153208 -0.11381505 -0.21190192 -0.13746962
000060 cf 5d e6 3c 10 41 48 bc e7 97 8a bd f7 74 1d be
       0.028120903 -0.012222543 -0.06767254 -0.1537665
000070 df e1 90 3c a8 b3 4a bd ff 42 5f bc f4 3c 0b bf
       0.017685829 -0.04948774 -0.013626813 -0.5438988
000080 3e cf 94 be a1 3f 59 be 61 62 ad bd 62 c6 71 3e
       -0.29064363 -0.21215679 -0.0846603 0.23610833
000090 85 0a 31 bd 02 21 88 3d 6d 31 33 be 20 87 02 3d
       -0.043222923 0.06646921 -0.17499323 0.031867146
0000a0 f5 d0 eb bd 95 74 d6 bd 58 e0 1f 3d 4c dd ca 3e
       -0.11514465 -0.10471455 0.03903231 0.3962196
0000b0 d9 89 85 be ac 0b f2 3d 57 b1 93 3d e5 41 e9 bd
       -0.26081732 0.118186325 0.07211559 -0.113895215
0000c0 f4 1a e9 3e d7 c8 46 3e 8a ad ae 3c 09 1f 41 bd
       0.45528376 0.19412552 0.021322984 -0.047148738
0000d0 c0 4f 3e be 94 34 a5 bb 83 c4 05 3d ad 76 51 bd
       -0.1858511 -0.005041668 0.03265811 -0.05113857
0000e0 cb 47 cf bd 38 bc 90 3b 09 65 83 3e 52 40 0f 3d
       -0.10121115 0.0044169687 0.2566302 0.03497345
0000f0 17 f2 2b 3e 0d 40 b6 3d cf e2 a2 bb e3 91 87 3e
       0.16791569 0.088989355 -0.0049708853 0.2647849
000100 cb 9c ce 3c 21 8a 3f 3e e1 4b ef 3d 5f d0 1f 3d
       0.02522125 0.18705036 0.11684395 0.039017078
000110 d2 d9 4b 3e 02 11 55 be 1c ac 13 be a3 db 80 be
       0.1990731 -0.20807269 -0.14421123 -0.2516757
000120 93 29 a2 3e ed 8b 44 3e 78 12 b0 3d 3d 2b 0a 3c
       0.31672344 0.19194002 0.08597273 0.00843316
000130 5c 9f e5 3d a5 5b 76 bd f0 c7 93 bc b5 bb 2f 3d
       0.11212036 -0.060145993 -0.018039674 0.04290362
000140 ad 69 b4 be 22 12 62 bd c8 e8 6a bd e7 cf e5 bd
       -0.35236874 -0.055193074 -0.057350904 -0.11221295
000150 62 fe 31 3e bd 9f 37 3e 14 2a b5 3e 63 69 fa 3d
       0.17382196 0.17932029 0.35383666 0.12227132
000160 48 8c 0a be 38 ff 37 3d 9c 20 8b 3e d2 5f b2 3e
       -0.13530076 0.04492113 0.27173316 0.3483873
000170 e8 d2 36 be 60 09 60 3e d8 d1 9b bc a1 1f 26 3f
       -0.17853892 0.21878576 -0.01902096 0.6489201
000180 df 17 21 3c d7 97 81 3e c5 54 93 3c 14 61 9a 3b
       0.0098323515 0.25311157 0.017984757 0.0047112796
000190 68 ca 8a bc 7b 6c fb bc b7 64 c0 3d 10 63 93 bd
       -0.016942218 -0.030691376 0.0939421 -0.07196629
0001a0 fc 90 0c 3e a0 05 93 3e 91 20 85 bd d0 0b dc bc
       0.13727182 0.2871523 -0.06500352 -0.026861101
0001b0 04 c3 f1 3b 1a 35 69 be cc a4 42 be 8d 07 1c 3e
       0.007377984 -0.22774163 -0.19008178 0.15237255
0001c0 be a5 e2 3d 7d 14 09 bf a3 b9 d5 3c 25 42 c0 3d
       0.11066769 -0.5354689 0.026089495 0.09387616
0001d0 ca 56 7c 3d 98 46 81 be 6b ca 93 3c 56 01 89 be
       0.061606206 -0.2524917 0.018040856 -0.26758832
0001e0 ef f9 b3 3d 65 25 57 be c8 df b0 3c a0 01 86 3c
       0.087879054 -0.21010359 0.021591082 0.016358197
0001f0 80 a4 c3 be 21 52 df bd 24 cf 1c 3e 04 70 02 bf
       -0.3821144 -0.10904337 0.15313393 -0.5095217
000200 27 f3 12 3d 22 d5 05 be 2e e9 5a bd 31 85 0d 3c
       0.03587642 -0.13069585 -0.053445034 0.008637712
000210 0c df 06 be 7b 16 d1 3d e6 9e c9 3d e7 87 a5 3d
       -0.13171023 0.10209366 0.098447606 0.08082562
000220 5c 8d 25 be 56 9a e2 bd 8c b2 0b bd 46 e7 05 3f
       -0.16167206 -0.110645935 -0.034105822 0.5230602
000230 e9 71 0a be 8e 57 43 3b 4f 0d 5a bd 6d f4 92 bd
       -0.13520016 0.0029806825 -0.05323535 -0.07175527
000240 5c 5a ba 3d 1c 44 7d bb 64 a8 c2 3c a6 ac cb 3c
       0.09099266 -0.0038645333 0.023761936 0.024862599
000250 a7 be de bd f6 70 2b be 7f 19 11 be 05 9e 60 bd
       -0.10876208 -0.1674231 -0.14169882 -0.0548382
000260 aa e0 66 3d 84 39 17 bd 04 e7 08 be ee 07 71 be
       0.0563666 -0.036920086 -0.13369375 -0.23538181
000270 23 78 8c 3d 83 6d e3 bd 07 ac 22 bd b1 2a 0e bf
       0.06858852 -0.11104872 -0.03971484 -0.5553389
000280 d9 05 82 3e 22 b5 3d be b5 42 7e bd 41 47 89 be
       0.25395086 -0.18526128 -0.062075336 -0.26812175
000290 dd ec 53 3c 3f 8a 92 bb 74 ab 87 bd 5c 7c 23 3d
       0.012934891 -0.0044720466 -0.06624499 0.03991352
0002a0 09 57 ba bd 76 8b 52 be 3a 32 ee bc ca 5a c7 be
       -0.09098632 -0.20561013 -0.029076684 -0.38936454
0002b0 ac 69 2a 3e a1 96 f7 3d 31 1c cf 3d 5c 56 fc bc
       0.16641873 0.12089277 0.10112799 -0.030802898
0002c0 08 1f 00 bf 9f 91 2a 3e 5a 19 9f bd ea 6b f7 bd
       -0.5004735 0.16657113 -0.07768507 -0.1208113
0002d0 d0 04 59 3d 89 49 04 3e db ea 31 3d 4d 95 b2 3d
       0.052983105 0.12918676 0.043436866 0.08719883
0002e0 ad a1 d9 bd fc ba bd 3c b7 c2 89 be e3 b7 b0 3c
       -0.1062654 0.02316045 -0.26906368 0.021572059
0002f0 4e b6 e5 3d 0e 99 01 3c 7c c5 96 bd 43 c1 66 3e
       0.112164125 0.007910026 -0.07361886 0.22534661
000300 91 9d 27 be 95 6f 3c be 8a 10 21 be b9 24 84 3d
       -0.163687 -0.1840194 -0.15728965 0.06452317
000310 3f 1b 2b bd df 31 fd 3c 86 01 46 be 5a 09 65 3d
       -0.04177403 0.03090757 -0.19336519 0.05591712
000320 45 3a be 3c e5 38 78 3d 07 23 85 3d 99 a6 3a 3d
       0.023221144 0.060601134 0.065008216 0.045569036
000330 15 19 d1 be b6 f4 fc bd 17 77 05 be 8c c7 29 be
       -0.4083945 -0.123513624 -0.1303371 -0.16580027
000340 78 f7 51 be 9c 97 f7 3c b1 4f d3 3b 28 9c 4f bc
       -0.20504558 0.03022366 0.006448709 -0.012671508
000350 a2 5f 45 3e d5 ae b0 bd 75 5c 84 bd b1 ea a6 bd
       0.19274762 -0.086270966 -0.06462947 -0.081502326
000360 ef af 0b be 0a 10 4e bc 60 7c 69 3d 37 19 da 3d
       -0.13641332 -0.012577066 0.05700338 0.106493406
000370 91 fa 2c bc c9 e6 7d 3d 13 70 0e 3d 7a 5b ca be
       -0.010557787 0.061987672 0.03477485 -0.39522916
000380 8e ec fe be 5a 09 9b bd c9 51 f6 3d 91 bf 00 be
       -0.49789852 -0.07570143 0.12027318 -0.12573077
000390 7d 85 b3 bd c0 e3 07 3d 04 b5 80 3d 71 ee 90 3d
       -0.08765695 0.033176184 0.06284526 0.07076729
0003a0 e6 2f 84 bd 7b 76 70 3d ac a6 a1 bc bf 61 d2 3d
       -0.064544484 0.05870674 -0.019732796 0.1027255
0003b0 e1 15 99 be 05 58 7c 3e 35 13 f3 3d bc 8c ff 3d
       -0.29899505 0.24642952 0.11868898 0.12478015
0003c0 96 55 a9 3e 6f 1b 08 3e 13 f4 cb bc 6c 79 3f be
       0.3307311 0.13291715 -0.024896657 -0.18698663
0003d0 80 8f 65 bc f1 d8 02 bd 97 91 08 3d e8 b6 ee bc
       -0.014011264 -0.031945173 0.03334197 -0.02913995
0003e0 cf f1 c5 bd 35 de 31 3e 63 8c ba 3e eb 3c 4f bd
       -0.09665262 0.17369922 0.36435232 -0.050595205
0003f0 fa 92 89 bd 8b 39 0d bd 49 a9 e4 bc b3 45 97 3d
       -0.06717487 -0.034478705 -0.027912753 0.07386341

proj.2.bias f4 [192]
000000 09 d7 08 be 74 7c e7 3d b5 1e 09 bc bf 2a 88 bd
       -0.1336328 0.113030344 -0.0083691375 -0.06648778
000010 a0 a9 1e 3e 48 62 be bd dd 44 ad bd bf 26 01 3e
       0.15494394 -0.092960894 -0.084604 0.12612437
000020 d1 dd a2 bb 1b 1b 0f bd 46 e1 04 3e d0 48 32 bd
       -0.00497029 -0.03493796 0.1297656 -0.04352647
000030 ee 29 92 bd 20 81 75 3d 52 be e3 3c d8 4a 40 bc
       -0.07136904 0.059937596 0.027800713 -0.011736594
000040 f2 c7 e5 3d fb e4 88 bd e9 07 f1 bd 51 0d 5f 3e
       0.11219777 -0.066842996 -0.11769087 0.21782424
000050 b6 73 cd bd a3 1c a6 bd 91 88 19 3e be e4 f2 bd
       -0.10031836 -0.08110931 0.14993502 -0.11860035
000060 b7 48 74 bd 83 34 58 3e 70 da 0e be 42 b7 9f bd
       -0.05963966 0.21113782 -0.13950515 -0.077986255
000070 62 ad cf 3d f0 44 08 bd 5a b2 6b bc 33 ef 32 be
       0.10140492 -0.03326887 -0.014385784 -0.1747406
000080 1a 15 cb 3d dd 5a 95 3d 4c 0c 35 be 75 d2 de bb
       0.09916134 0.072927214 -0.17680472 -0.006799991
000090 20 ff 35 3e 0f 25 29 be 81 f6 a5 bd 51 9d e3 3d
       0.17773104 -0.16518043 -0.081036575 0.1111399
0000a0 c0 48 ea bc 4b c0 90 bd 2f c5 46 bd fc 0e dd 3d
       -0.028599143 -0.07067927 -0.048527893 0.10793874
0000b0 1c 86 82 bd 05 82 49 be 02 d6 89 3e ba bd 76 bd
       -0.063732356 -0.19678505 0.26921088 -0.06023953
0000c0 6e 1f b6 3c d3 c8 94 3d 38 21 8e bd 36 3e 3c 3e
       0.022231784 0.07264867 -0.0693993 0.18383107
0000d0 a0 ec 1b be c4 0f 08 be c3 0c 00 be 10 16 d9 be
       -0.15226984 -0.13287264 -0.12504868 -0.42399645
0000e0 d3 32 8d 3e b7 37 28 3e d0 0b a6 bd 92 fd b2 bd
       0.27577838 0.16427504 -0.08107722 -0.08739771
0000f0 3e 53 39 3e c8 71 ff bd 82 13 c3 bd e0 ef 0a 3e
       0.1809816 -0.12472874 -0.09525205 0.13568068
000100 a2 ff ae be 84 58 01 3c 96 67 82 bb fa 13 a5 3d
       -0.34179407 0.007894639 -0.0039796336 0.08060451
000110 c2 c3 c8 bc 42 11 b6 bd 2a 92 22 3e 0a 27 14 3c
       -0.024507407 -0.088900104 0.1587607 0.009042511
000120 04 95 8f 3c 8b 4d ff 3d 6e b3 cb bd e3 36 d7 3d
       0.01752711 0.12465962 -0.09946333 0.10508516
000130 c9 67 1c be 23 9a 1f bd ca 46 f0 3a a2 22 09 bc
       -0.15273966 -0.038965356 0.0018331644 -0.0083700735
000140 97 01 6b 3d 9a 47 15 3e 91 f6 18 bd e8 18 92 bd
       0.057374563 0.14578095 -0.03734452 -0.07133657
000150 0f f1 58 3e f6 03 20 bd 77 91 06 be 69 ed 92 3d
       0.21185707 -0.039066277 -0.13141428 0.07174189
000160 35 11 8e be 49 6a 55 3d d8 ab b2 3d 2c cc d7 bd
       -0.27747503 0.052103315 0.08724183 -0.105369896
000170 bd df 8f 3b 6f 5f 89 bd 36 64 d4 bc ba bf b9 3d
       0.0043906854 -0.06707656 -0.02592669 0.09069772
000180 da ec 64 bd 3e a5 9f 3c cd a6 2c 3d e1 c1 80 3d
       -0.05588994 0.019487973 0.04215126 0.062869795
000190 5e 4c b3 be d6 30 bd 3d bb cd 46 3d f1 1e d9 bd
       -0.350192 0.0923783 0.048536044 -0.10601605
0001a0 ee 71 4f 3d e8 9a 92 3d b8 a9 16 bd eb 73 a3 3a
       0.05064576 0.07158452 -0.03678295 0.0012470459
0001b0 b2 18 da 3d 41 1d 25 bd 47 0f d4 bc 3b 1a a8 3d
       0.106492415 -0.0403111 -0.025886191 0.08208128
0001c0 8d df 85 be 11 43 2b 3d 4a 9f a1 3a dd ba 53 be
       -0.26147118 0.041812006 0.0012330797 -0.20676751
0001d0 00 7a b9 3d b3 cc 90 bd 99 f4 53 bc c8 31 b0 3d
       0.09056473 -0.07070293 -0.012936735 0.08603245
0001e0 87 f1 fb bc 3e 63 fd 3d 4d f2 3e bd 81 42 59 bd
       -0.030754818 0.123724446 -0.046617795 -0.05304194
0001f0 c4 42 e7 bd 02 b9 c7 3d cc 95 25 3c e1 d8 94 be
       -0.112920314 0.09752084 0.010106515 -0.29071715
000200 cd de 0b 3e bd b4 85 3c 4d 78 c9 be 47 9a 16 3e
       0.1365921 0.016321534 -0.39349595 0.1470729
000210 15 53 e7 3d cc 8b be be 32 ee 98 3d da 98 dc 3c
       0.112951435 -0.37216032 0.07467307 0.026928354
000220 8a 3e e6 be ee 45 02 3e ad d4 ca bc 70 27 a4 bd
       -0.4496959 0.12721989 -0.024759615 -0.080153346
000230 4d 68 7c 3d 97 b8 99 bd 39 83 06 3e ed b0 ec 3b
       0.061622906 -0.07505911 0.13135995 0.0072232396
000240 be 8d 26 bd 32 c0 17 3e 49 a4 f5 bd 2a 9f b9 bd
       -0.04066252 0.1481941 -0.119942255 -0.09063561
000250 37 af 3f 3e c1 04 9c bd 6a 23 54 ba ee 24 66 bd
       0.18719183 -0.07618094 -0.00080924353 -0.056187563
000260 38 87 04 3d d2 87 8e 3d 63 4f 15 be a9 1d 9b 3c
       0.032355517 0.069594994 -0.14581065 0.018935042
000270 25 2b 12 3e ef d8 ba be ea 9c 9a ba d7 9b b7 3d
       0.14274271 -0.36493632 -0.0011796032 0.08965271
000280 6c 97 06 be 56 bf 1a bd c7 27 b3 bd b3 7a 10 3d
       -0.131437 -0.03778013 -0.08747821 0.035273265
000290 f7 0c 01 3d 0e e4 fc bd 42 a3 23 3e 73 42 06 bd
       0.031506505 -0.123481855 0.15980247 -0.032778215
0002a0 db 00 9e bd 6a 5f 1a 3e 99 b5 e5 bd 2d e8 50 bd
       -0.07715007 0.1507546 -0.11216278 -0.05100267
0002b0 ae d7 09 3e d3 b7 bc bd 27 cb 8b 3c 9b 44 9c 3d
       0.13461182 -0.09214749 0.017064644 0.07630273
0002c0 69 3b 8c bd 98 4e 4c bd d0 2a fb 3d b4 e9 96 bc
       -0.06847269 -0.04987964 0.12264025 -0.018421985
0002d0 30 d5 2e 3a 67 96 04 3e e3 54 88 bd 08 c3 02 bc
       0.00066693407 0.12947999 -0.06656816 -0.007981069
0002e0 23 f7 12 3e 21 47 b9 bd 7e e1 52 bd f2 20 1c 3e
       0.14352088 -0.0904677 -0.051484577 0.15246943
0002f0 26 41 cf bd 90 cd 2a be 31 8e 87 3e 75 e1 22 be
       -0.10119848 -0.16679978 0.2647567 -0.15906318
