EWOthello/ckpts/Dean_GPT_Synthetic_8L8H/linearProbe_Map_New_8L8H_GPT_Layer2.ckpt (torch, 395287 bytes, 2 tensors)

proj.weight f4 [192, 512]
00000000: 6adc ad3d f897 3abe fb87 72bf ce64 76be
00000010: 5ce3 063e ab85 02bf 0397 82be c025 bb3e
00000020: c2fe e73d 7bcc 183c 3cb1 b73d 220b fd3e
00000030: 9de1 59bd ca03 a43e e6ff 193f 9444 ca3e
00000040: e97e c23e 4607 493d 7d53 c13e a9cf a43e
00000050: b41d 803c e87a f6be b919 fdbe 99ac 15bf
00000060: 363b 9dbe b71f cabe a5b3 de3e 3ffe 45bf
00000070: 3c90 483f fdf8 3c3e 4587 773e 83ef 88be
00000080: e169 2e3d 99ee 1d3d b78a 273e 8e41 f1be
00000090: 0d0e a13e ba22 18bf 750e 22bc 297f 2e3f
000000a0: fba2 30bf 4d07 94be 405f eebe f2ea e0be
000000b0: c160 bb3e 3590 973e 726a f5bd 0219 483f
000000c0: 4f1c 873e 3ae2 b6be fa98 b93e 61de a1be
000000d0: d7e4 08bf 57a6 f6bc 6eb8 d1bc 11a6 66bd
000000e0: a708 6a3e 3d42 18bf 865d 833d fe9e 133f
000000f0: 6831 4ebe a19f a03e b4cf 30bf a8a5 47bd
00000100: 4667 183f 671e 4c3e e684 ffbe cfe5 90bc
00000110: 6949 bd3e 0301 02bf 57fd 1a3f b3d3 803f
00000120: bc59 7fbf 4a3a c03e fd64 fcbd 0ce5 193e
00000130: dd79 4cbf b855 33be 19bf f0be 10eb 36be
00000140: 3d29 7f3d c82c 8c3e 2325 1cbf 76e2 27be
00000150: b15b e6bd 3941 b7be 3132 2ebf 59b4 673f
00000160: 312f 2b3f d079 e33e 40e0 7cbe e7b9 933d
00000170: 39b2 2d3c 1d77 353e 958b 7cbe 4444 4abd
00000180: 06e7 833e 2768 913e 9086 313e 4f8c 0b3f
00000190: 9012 febe a7fd 52bf 54c5 d33e 39cf 87bd
000001a0: 6c70 6b3e 98b5 35bf 6492 6d3e 3cb6 143e
000001b0: 2c63 b63e 28fc b83e 15c8 cf3e 377c 94be
000001c0: 717d aa3d 3ced 13bf 0c3c 233c 965c 7b3e
000001d0: d899 b8be 3854 f4be 30bd bb3e 4211 443f
000001e0: 987e 84be 2f7a e1be d942 44be 76c0 56be
000001f0: 8038 9f3e 85c7 853d 4570 acbe 9568 843e
00000200: e150 483f 7f36 d83e 0fa6 8d3e 9494 143f
00000210: 0ba7 05bf 8dcb b0be 3869 bcbe 6845 84bf
00000220: 184d 67be 9c7e 343f 1dfc c2bb f71b 9a3d
00000230: 561f 0b3e c4c2 8f3e d503 14be dc45 083d
00000240: 0ce1 96bb b2e6 b33d c9dc 853e 1901 2abf
00000250: 43fd e13d 3e65 ee3d 017a 20be 6858 ac3e
00000260: 1d9a 453f 58b8 373d 57a2 e1be 26e7 6b3e
00000270: 15f1 cd3e 62ed 81bd ecd9 1ebe 9a83 9d3d
00000280: 58e8 ea3e 7f7c 70be 75b8 c7bd e1ef a93e
00000290: e97c 68bf f5b5 83be f71d 3ebd e752 8f3c
000002a0: cdca da3e 246d ecbc 9324 8b3f a1f6 30bf
000002b0: 4940 71bf 6b10 463e 193a 6d3c 091d b7bc
000002c0: 57e8 ac3e 601a 37bd efed 0a3f 207e 133f
000002d0: 46c1 bbbe 5c34 4f3f 3da3 f7be e6e9 7f3f
000002e0: fa0d 9b3b 4294 5b3e 0490 91bc 707d a83f
000002f0: ec02 81be d90f 203e a4a3 57bf 68e8 273d
00000300: 226b 30be 12e1 c43e bdd2 fe3e 90e1 0a3e
00000310: 3a39 d23d 0e3f 98be 285b f9bd 25ed d0be
00000320: 3109 93be 20ce b53e 5da0 0e3f ca44 3cbe
00000330: 91ec 1d3e fd8d af3e 1176 45be 2b88 923e
00000340: 4887 4b3e f483 3f3f ebcf 9f3d f6bb c23e
00000350: 58ff 2dbf e78d d53e 4ab3 cbbe d9b7 613e
00000360: 5766 f73e 6c08 2b3f 106e 18be 2b12 0bbf
00000370: f93e 953e 6934 493e 4f7a b6bd 3a3b fe3e
00000380: c97e 013e 2178 0bbf a008 933e f496 10be
00000390: 643c c33d ec30 0abf 82c3 4a3e 31c3 e03b
000003a0: de16 173e e785 da3e 223f 693d 52f0 8dbe
000003b0: f3aa 89be 75ca 96be 34eb 33bf 7f46 b93e
000003c0: f592 f13d 7567 993e 64cf fe3d 8cba f53e
000003d0: 0c51 bdbd 5b21 49bf 76eb 743e ea83 f4bd
000003e0: fe32 5cbe c408 b8bd cc18 273d 90e7 83be
000003f0: 24d3 d13e 0230 83bb c820 97bd 58ea 9a3d
0.08489306 -0.18222034 -0.9473874 -0.24061891 0.13172668 -0.5098521 -0.25505838 0.36552238
0.11327888 0.009326096 0.08969352 0.49422556 -0.053193677 0.3203414 0.60156095 0.39505446
0.3798745 0.049079202 0.3775901 0.32189682 0.015639164 -0.48140645 -0.49433687 -0.5846649
-0.30709237 -0.39477322 0.43496433 -0.77341074 0.78345084 0.18454356 0.24172695 -0.26745233
0.042581443 0.038557623 0.1636151 -0.47120327 0.31456032 -0.5942799 -0.009891142 0.6816278
-0.6899869 -0.2891182 -0.46557045 -0.4392925 0.36597255 0.2960221 -0.119831935 0.7816316
0.26388785 -0.35719472 0.36249524 -0.31614974 -0.5347418 -0.030108614 -0.025600638 -0.056310717
0.22854863 -0.5947607 0.064143226 0.5766448 -0.20136034 0.31371787 -0.6906693 -0.048741966
0.5953258 0.19933473 -0.4990608 -0.017687706 0.3697007 -0.50782794 0.60542816 1.0064605
-0.997463 0.3754447 -0.123239495 0.1502878 -0.7987345 -0.17513168 -0.47020796 -0.17863107
0.062295187 0.27377915 -0.60994166 -0.16394982 -0.112479575 -0.35791948 -0.68045336 0.90509564
0.66868883 0.44428873 -0.2469492 0.072131924 0.010601574 0.1772122 -0.24662621 -0.04938151
0.25762194 0.28399774 0.17336488 0.5451097 -0.49623537 -0.8241829 0.41361487 -0.066313215
0.22992104 -0.70980215 0.23200375 0.14522642 0.35622537 0.3612988 0.40582338 -0.29001018
0.08324707 -0.57783866 0.009963047 0.24547037 -0.36054873 -0.47720504 0.36667776 0.76588833
-0.25877833 -0.4403853 -0.19166125 -0.20971856 0.31097794 0.06532196 -0.33679405 0.2586104
0.7824841 0.42229077 0.27665755 0.5803921 -0.5220801 -0.34530297 -0.36799026 -1.0333681
-0.22588003 0.7050569 -0.0059504644 0.07524865 0.13586172 0.28078282 -0.14454587 0.033269748
-0.0046044644 0.08784236 0.26145008 -0.66407925 0.11034634 0.11640404 -0.15671541 0.336612
0.77188283 0.04485354 -0.44069168 0.23037395 0.40222993 -0.06344105 -0.15512818 0.07691117
0.4588039 -0.23484991 -0.09751979 0.33190826 -0.908156 -0.2572476 -0.046415295 0.017495586
0.4273285 -0.028860636 1.0870537 -0.69126326 -0.94238716 0.193422 0.014479184 -0.022352712
0.3377101 -0.044702888 0.5426931 0.57614326 -0.36670893 0.8093927 -0.48366728 0.99966276
0.0047318907 0.21443275 -0.017768867 1.316328 -0.25197542 0.15631045 -0.8423407 0.040993124
-0.17228368 0.38452965 0.49770156 0.13562608 0.10264821 -0.29735607 -0.1217559 -0.40805927
-0.2871795 0.35508823 0.55713445 -0.18385616 0.15422274 0.34288016 -0.1928332 0.28619513
0.19875824 0.7481072 0.07803329 0.38034028 -0.6796775 0.41709825 -0.39785224 0.22042789
0.48320267 0.66809726 -0.14885736 -0.543246 0.29149607 0.19648899 -0.08910047 0.4965456
0.12646021 -0.5448018 0.28717518 -0.14120084 0.09533003 -0.539809 0.19801143 0.006859206
0.14754817 0.42680284 0.056944974 -0.27722412 -0.26888236 -0.29451337 -0.70280766 0.36186597
0.11795608 0.29961744 0.124419 0.47993886 -0.09243974 -0.7856652 0.23917946 -0.11939223
-0.21503827 -0.08986047 0.040795133 -0.25762606 0.409814 -0.0040035257 -0.073792994 0.07564229

proj.bias f4 [192]
00000000: a77e b7bd 8001 3a3e 0304 8fbe 99e5 34be
00000010: a85b 403e 7281 31be a87b 4dbe 4b3c 2d3e
00000020: d1ba e0bd 702c e9bd 8aa4 413e 5bf9 64be
00000030: 7c8f 3cbe a835 2f3e ad55 05be 0fd0 5dbe
00000040: ff10 343e 474a ecbd 76c9 39be bd26 403e
00000050: 7655 3abe 72bd 45be a561 513e 0698 58be
00000060: d06c 22be db4b 3f3e 1b65 43be 6cfb 653d
00000070: 3d81 cc3d 1f34 75be 5453 43be fae1 e53d
00000080: c0ba 0d3b c545 b0bd 1a9c 8e3d ae05 27bd
00000090: 886e b03c f69e e53d 03cf 57be 0452 623d
000000a0: 3e83 eb3d 3efb 82be 0aee 0fbe 3990 2c3e
000000b0: 063c 28be 7ec6 8ebd 99d9 353e fadb 90be
000000c0: 8ffd 42be e455 163e 19ff a7bd 137e 65bd
000000d0: b445 e43d 5252 0abe 57ee 523e d474 39be
000000e0: e1e8 173c d525 89bd 2f20 16be e9ab 413e
000000f0: d046 d8bd e073 1cbe 5707 5e3e b5bd adbe
00000100: bf1c 77bd 8f09 aa3e cff3 0bbc 18ed e03d
00000110: 4f03 2ebe 1f8f e5bd e7eb 0e3e 0501 1ebe
00000120: 6c4a 64be 653c 2a3e 5b92 8fbd ca93 6c3e
00000130: 14ee eb3d b4a4 cbbe 9b67 c8bd 2049 16be
00000140: e99c 803e e313 a63e 103f fbbd f9bb 07bd
00000150: c3c5 3e3e dae0 f9bd 62bb 8d3d 69d1 2e3e
00000160: 01cb 2bbe 5b92 453d 30b6 fbbd 8978 403e
00000170: 20cd 39be bcc8 61bd 93d6 3f3e 4d9d 98be
00000180: 1f8d 8ebe a130 3f3e 8b72 57bd 9d4e c33d
00000190: f5cf 843d 8829 3bbe edc0 423e 00dd 62be
000001a0: 0327 813d 07c2 9c3c 2fd9 fcbd 388c 483e
000001b0: 7783 4a3e 2b74 f9bd 21f1 563d d0dc 613e
000001c0: 10b4 26be 5478 6b3c c8db d43c be2a 9f3d
000001d0: 76d2 2ebe 209d 313d a674 373e 4703 b3be
000001e0: 1713 37be 0a30 313e 7a88 08be e0e2 84bd
000001f0: cbd9 9f3d fc0e 53bd f827 663e 5301 97bd
00000200: e331 1dbe ced3 ba3e 5997 56be d89b 20be
00000210: 3533 943e 5021 3cbe 7f1c a0bc 86ab a93e
00000220: 1ab0 23be c381 24be 7ab1 cd3b 578f b93d
00000230: 02e5 1dbe 492c bb3c 4f13 183e 71a6 94be
00000240: 5b71 3ebe 0d87 543e 93cf 4fbe b335 c13c
00000250: 3a45 1c3e c3b0 8fbe 60b1 d13d b2e4 293d
00000260: 13bc 5abe 42b7 503e e055 8f3d ed1a 93be
00000270: 79e5 c23e 2cad d8bc e74a edbe 3a88 b9bc
00000280: f736 b73d 2b53 babd 00e8 69ba 9228 3c3e
00000290: 34a9 85be 5848 97bd 1312 4a3e a989 9abe
000002a0: fb1d 2bbe 7618 413e 0bb2 52be 6e35 40be
000002b0: 3690 883e da3f 9abe 3e13 0dbe 9cb1 463e
000002c0: 8e72 48be 3afc dd3d b29e 2a3e 2a4d c9be
000002d0: 1d3a 14bc 58f1 2a3e 171e 92be ff78 1f3d
000002e0: 6c64 143e 68a9 a2be 4279 5538 3de4 713e
000002f0: e028 ebbe 7d05 b1bd fe72 533e f268 a9be
-0.08959704 0.18164635 -0.27932748 -0.1766571 0.18784964 -0.17334536 -0.20066702 0.16917531
-0.109731324 -0.11385429 0.18910423 -0.22360747 -0.1841411 0.17110312 -0.13020964 -0.216614
0.17584608 -0.11537605 -0.18143257 0.18764777 -0.18196663 -0.19310549 0.20447405 -0.21151742
-0.15861821 0.1868128 -0.19081537 0.056147978 0.09985588 -0.23945664 -0.19074756 0.11224742
0.0021626204 -0.086070575 0.06963368 -0.0407769 0.02153708 0.1121196 -0.21075062 0.055253997
0.11499642 -0.25582308 -0.14055648 0.16851892 -0.16429147 -0.06971453 0.17758788 -0.2829283
-0.19042037 0.14681202 -0.08202953 -0.056028437 0.11146107 -0.13507965 0.20598732 -0.18110973
0.009271831 -0.06696669 -0.14660715 0.18913235 -0.105603814 -0.15278578 0.21682487 -0.33933797
-0.06033015 0.33210418 -0.008542015 0.10982722 -0.1699345 -0.11208939 0.13957177 -0.15430076
-0.22294015 0.16624601 -0.07010337 0.23103252 0.11520019 -0.39774096 -0.09785386 -0.14676332
0.25119713 0.32437047 -0.122678876 -0.03313825 0.18630128 -0.1220109 0.06920506 0.17072071
-0.16776659 0.04823528 -0.12290609 0.1879598 -0.18144655 -0.055123076 0.18734197 -0.2980751
-0.27842042 0.18670894 -0.05259947 0.09536479 0.06484977 -0.18277562 0.19018908 -0.22154617
0.06306269 0.019135488 -0.12346112 0.19584739 0.19776712 -0.121803604 0.052476052 0.2205689
-0.16279626 0.01437195 0.025983706 0.07771824 -0.17072472 0.043362737 0.17915592 -0.34963438
-0.17878376 0.17303482 -0.13333312 -0.064885855 0.078052126 -0.051527962 0.22476184 -0.073732994
-0.15351062 0.3648972 -0.20956172 -0.1568445 0.28945318 -0.18372083 -0.019544838 0.33138674
-0.15985146 -0.16065125 0.0062772604 0.09060543 -0.15419391 0.022848265 0.14851116 -0.29033235
-0.18597929 0.20754643 -0.20294027 0.023585176 0.15260783 -0.28064546 0.1023891 0.041477866
-0.21360807 0.20382407 0.06998801 -0.2873148 0.380657 -0.026449762 -0.46346208 -0.022647966
0.089460306 -0.09097894 -0.00089228153 0.18374851 -0.26105654 -0.07386845 0.19733457 -0.3018315
-0.16710655 0.18856987 -0.2057573 -0.18770382 0.26672524 -0.3012684 -0.13776872 0.1940369
-0.19574949 0.10839124 0.166621 -0.39316684 -0.009047058 0.16693628 -0.28538582 0.03893375
0.14491433 -0.31769872 5.0896087e-05 0.23622222 -0.45929623 -0.08643625 0.20649335 -0.3308788
