EWOthello/KLiScripts/KLi_Paper_Checkpoints/state/layer3/checkpoint.ckpt (torch, 395137 bytes, 2 tensors)

proj.weight f4 [192, 512]
00000000: cbb9 5e3e d9c8 823b 6386 26be c78b c9bc
00000010: 486b 0c3e b53a fdbd d971 cb3c ee8a b33d
00000020: 6a93 243c cbc7 d93d 4785 8bbd 68db cfbd
00000030: a5f4 8d3e 7335 9bbe 3168 d53d 7d48 133c
00000040: cd1a 703e d8cf 56be 2557 653e dde9 263d
00000050: 46f8 83bd baea df3d 9ccb bc3d c73d 3dbe
00000060: 2b2b 9c3c ebfc a0be 1e98 a83e 3919 2ebe
00000070: d4a2 5f3e 7690 493d 77f3 09be e346 78bd
00000080: 7faa 06be 42a7 dfbd 9ca6 773d e032 35be
00000090: 9b91 ca3d 3a9b 38bc c9a8 cabc 4845 993e
000000a0: f1bf 1abe 3f92 273d 0215 04be 6efa 04bc
000000b0: 3bd0 b53c 057a 473e 74f9 40bb 137b 303e
000000c0: 073f 0e3e 7fd8 bd3c 5b19 aa3c 0e9c 853c
000000d0: 63cd 62be 1169 753d 665e 85be 6d5c dd3d
000000e0: 4ba3 d1bd 2462 d63d d364 7abd 2f30 f5bd
000000f0: 1e17 e03d 4395 743e eb9f 14be 0b0f 90bb
00000100: ec03 b23d a2e0 f0bd 52de 293d 2bdc 213e
00000110: 6647 543e 6975 62be 5b6a e3bd 9009 b23e
00000120: ac53 48be aede a63d 7b1f 75be 8cb6 e5bd
00000130: 2a04 b03e 8ba9 383e 8e3d 59be 6ddf a03d
00000140: 74c1 643e c62f f1bd c64d 49bd 8f6a 303e
00000150: 4908 9abc e64a 8fbe 059c 8dbe fa8f 9d3e
00000160: 850c d9bd e23b ea3d 3600 d6bc 56de 3bbd
00000170: 1af8 ec3b dd73 113e 2efc 0dbd 3cc3 17be
00000180: 29d9 42be 28d2 213e 44f4 213d 048e bbbc
00000190: 7e5c 8d3d 2017 fdbd 1c21 7a3c 9ea2 bf3c
000001a0: d092 93bd 1854 5b3e 0f43 3ebd 96be 9a3d
000001b0: a72f f83d fb39 993d 04a9 31be 6b9e 3a3d
000001c0: 540d d3bb 2d16 233e 7805 efba 0bb3 49be
000001d0: 9ca3 3f3d 01af 693e 65bc 2a3e 117f a33d
000001e0: 3fed de3d 6d6a 3cbe 8794 3a39 3fad 163d
000001f0: 4c33 883e d6a4 283e 7fc8 0a3e 3427 e33d
00000200: 5511 883b 1eb3 e1ba 74da 32bd ec7c b43d
00000210: b1dd 063d 967e 93bd 2fb6 42bd e59c 083e
00000220: 5b76 2c3d 8ebe 0a3d 78c7 65bc b274 1e3d
00000230: 732d 8e3e 735c d8be 1c35 31bd f336 5f3e
00000240: 6677 933e 07ce 13be 6f8c 143e 904a 403d
00000250: b5b9 bcbd 5232 f53d 499d ed3d 0980 0ebd
00000260: e780 c23e 5ac3 0a3e 1610 87bd 8216 bd3d
00000270: b115 b73e 8d8b 95bd 60b1 1e3e 0b45 aabe
00000280: c96a 983d f81e 31be 5c43 a13d dff0 303e
00000290: d54d 95bd 78e3 383e 9787 683e 7307 2bbe
000002a0: d0dd 843e 0c02 51bd 95fc 083e 30b6 b1bd
000002b0: 2e8e 05be b06d b63d 640d 373e b43f bfbe
000002c0: 3dff 093d 7cf7 623e cb6c 753e efa1 39bd
000002d0: 309a 0dbe 4cc5 c0bd aa3f 063e a7ca b83e
000002e0: 1e20 d0bd 2d91 e33c e37f 0c3e b123 81be
000002f0: 3b3f 133e 3610 e03d 069c ecbd 9750 c9bd
00000300: 56a5 5c3d 76b2 2bbe 4817 113e 73d0 42bc
00000310: 89f5 d03c bfd6 d03d 52e2 2b3e cc5c f7bd
00000320: 50d9 d4bd bead 09bc 8802 303e f841 eb3d
00000330: 058d f5bd 7976 a1bd fff4 9f3c d3be 3bbe
00000340: 62af c33d 86ba f6bc a740 abbd 7afb f53d
00000350: 353e 94be 6e1a b93d f800 533e 9397 cc3c
00000360: 8a29 2fbe 86bf 24be d962 923d 5ff3 07be
00000370: 1b74 d6be 9060 8bbe c552 133d b6ca 723e
00000380: fe3e a6bd 36c0 633e 276c 843d 6ff1 95bd
00000390: 65a9 c4bc ebf4 213e 444d 7fbe 738e dabd
000003a0: 27e2 373e a465 9a3e 7868 bc3e a059 89be
000003b0: f4a8 55bb c732 f33d 7ceb a83b b3a2 ebbd
000003c0: 0aac 063d 0499 efbd a284 ab3d bb9a 18be
000003d0: 6653 85bd 6fd0 713d 023c a63c 2259 6c3d
000003e0: 182a 84bd 4e01 a2bd 403d 13be b98f 823d
000003f0: 828c 47be fa18 b8bd d7c5 303c 0e05 673e
0.21750562 0.003991228 -0.16262202 -0.024602784 0.137128 -0.12364713 0.02483456 0.08766733
0.010044912 0.106338106 -0.0681253 -0.1014927 0.2772571 -0.30314216 0.104202636 0.0089894505
0.23447724 -0.20977724 0.22396524 0.040750373 -0.06443839 0.109334424 0.09218523 -0.18480597
0.019063553 -0.3144296 0.32928556 -0.17001809 0.21839458 0.049210034 -0.1347178 -0.060614478
-0.13150977 -0.10920574 0.060461625 -0.17695189 0.09891053 -0.011267478 -0.024738686 0.2993567
-0.15112282 0.040910956 -0.12898639 -0.008116348 0.022194019 0.1948014 -0.002944556 0.17234449
0.1389123 0.023174522 0.020764044 0.016309764 -0.22148661 0.059914652 -0.26048583 0.108086444
-0.10236224 0.104679376 -0.06113131 -0.11972081 0.10941909 0.23885064 -0.14514129 -0.0043963245
0.08692154 -0.11761595 0.041471787 0.15806644 0.20730361 -0.22115101 -0.1110427 0.3477292
-0.19563168 0.081479415 -0.2393779 -0.11216459 0.34378177 0.18033426 -0.21214887 0.07855115
0.22339422 -0.1177669 -0.049146436 0.17228149 -0.018802779 -0.2798683 -0.27658096 0.30773908
-0.10598091 0.11437203 -0.026123147 -0.045866333 0.0072317244 0.14204355 -0.034664325 -0.1482057
-0.19028153 0.15802824 0.03953959 -0.022894867 0.06902407 -0.12357926 0.015266683 0.023392972
-0.07205737 0.21418798 -0.04645067 0.07555883 0.12118464 0.07481762 -0.1734963 0.045561235
-0.006440798 0.15926428 -0.0018235883 -0.19697206 0.04678689 0.22820665 0.1667343 0.0798322
0.10885095 -0.18399973 0.00017793673 0.036786314 0.26601636 0.1646913 0.13553046 0.11091462
0.0041524568 -0.0017219519 -0.043665364 0.088128895 0.032926265 -0.07201879 -0.047537025 0.133411
0.04210506 0.033873133 -0.014024608 0.038685508 0.2776905 -0.42258033 -0.04326354 0.21798305
0.2880203 -0.14434062 0.14506696 0.04694611 -0.09215108 0.119724885 0.116022654 -0.034790073
0.3798897 0.13551083 -0.06594865 0.09232809 0.35758737 -0.07302008 0.1549735 -0.332558
0.07442243 -0.1729697 0.07874176 0.17279385 -0.07290236 0.18055522 0.22707973 -0.1670206
0.2595048 -0.051027343 0.13377602 -0.08677328 -0.13042518 0.0890764 0.17876202 -0.3735329
0.03369068 0.2216472 0.23967282 -0.045320448 -0.13828349 -0.094126314 0.13110223 0.3609211
-0.10162376 0.027779186 0.1372066 -0.25222543 0.1437959 0.10940592 -0.115531966 -0.098298244
0.053868614 -0.16767296 0.14169037 -0.0118905185 0.025507705 0.101972096 0.16785553 -0.120782465
-0.103930116 -0.00840324 0.17188466 0.11487192 -0.11989788 -0.07883925 0.019526003 -0.18334512
0.09554936 -0.030118238 -0.08361941 0.12010856 -0.2895371 0.09038244 0.20605838 0.02497462
-0.1710569 -0.16088685 0.0714776 -0.13276432 -0.41885456 -0.2722211 0.035967607 0.2371014
-0.081174836 0.22241291 0.06465941 -0.073214404 -0.024006555 0.15816085 -0.24931818 -0.10671701
0.17957364 0.3015567 0.36798453 -0.2682619 -0.0032601925 0.118749194 0.005155025 -0.11505642
0.032878913 -0.11699107 0.08374907 -0.14902775 -0.065100476 0.05903667 0.020292286 0.05770219
-0.06453341 -0.07910405 -0.14378834 0.06375069 -0.19487193 -0.08989139 0.010789356 0.22560522

proj.bias f4 [192]
00000000: 59b7 40be f5f3 423e f8c6 09be 0b9e fdbd
00000010: 6ab2 513e fc03 42be 1453 75bd 2bac 293e
00000020: 59e0 0bbe 27f5 4ebd d27b 103e cb50 d5bd
00000030: 15b6 54bd edb9 a93d 7bbc 80bd 8f5d 10bd
00000040: b923 453e b54f 34be 234a e2bd aa28 4e3e
00000050: 0f08 4bbe 0e91 02be 55ec 4e3e b28c 5cbe
00000060: 2812 3cbe 0b9d 483e 1423 e7bd 32fb 02be
00000070: beab d53d ae44 71bd 8f79 0a3e 53c3 c6be
00000080: fa56 b13c e1a4 0d3e dade f9be e7aa 923d
00000090: 71a2 a73d 0f15 dcbe c101 043e 5314 2b3c
000000a0: 7472 2cbe 8aba 653d f190 e4bd 9b6e 0c3e
000000b0: f057 f4bd fe59 fabd 7bc6 5c3e 013a 52be
000000c0: ca3c 0cbe a20d 123e 607b e3bc 1566 5e3d
000000d0: 2a39 c5be dd03 e63d 7972 573d a93e afbe
000000e0: 34a3 813e a289 b63d 8f3f bebe 11dd 6f3e
000000f0: 4d43 4a3e 5159 a4be 0e5b d63d 179a 1a3e
00000100: 9a4f e3be 757a 273e 599f 6c3b c54e 87be
00000110: 0c64 a83d 4db3 13bd 6cad 483e 554d 43be
00000120: b72a 70bd fe9f ee3d 0722 a5bd d2e2 1d3e
00000130: 8aea ffbe 32ae 4f3d 7104 033e c48a e6be
00000140: 7b71 893e dcb1 153e 216c 7bbe a49f 163e
00000150: fdad 593e a7ab 78be 66c6 ab3d 095a 783e
00000160: 77c2 b0be cdab 9a3d 21a6 053e 6ad8 cabe
00000170: 607c 093d 9785 f83c d8d7 f53d 5e8f 2dbe
00000180: 1404 cdbd c287 fb3d 5eb5 0bbd 5695 c33d
00000190: ecae f5be 8ecf e93d 80a9 4a3e 3076 a8be
000001a0: f213 f93d cf07 f63d 954a 7abe a1f7 343e
000001b0: 3749 173e 9cad 78be bbd4 1a3e 5fb1 463e
000001c0: 8cc9 c8be 933d 2a3e 8e88 203e ffc0 edbe
000001d0: 442a 013d 0ac7 c5bc daea 253e 11c8 24be
000001e0: 50b9 0bbe 2133 4c3e 3df7 c1bd 7363 c6bc
000001f0: 737b 8fbd 695f d93c 825d d33d f7d0 d7be
00000200: 2a86 483e a31e 1b3e bbae 95be 94fb 1c3e
00000210: 3c7f 5d3d eda8 cbbe a28e 9f3e e019 0e3e
00000220: 3e6e b6be 06bf 2f3e dc08 2b3d 4f23 a8be
00000230: e440 9a3d 6b52 76bd c8ad 433e b761 23be
00000240: b788 06be e445 4f3e f545 35be 0854 ebbd
00000250: d7c7 093e 79a1 e0bd 38b5 8d3c f116 04bf
00000260: d945 2b3e 1bb5 853d 660b 06bf 43e1 163e
00000270: 0943 1c3e 375d c7be caae e5b9 fbee 34bd
00000280: 1e65 9fbd 54e7 553d 2924 08be b256 d63d
00000290: 5c8a 5ebd 70ec 5fbd 16d5 303e 1d3c 5fbe
000002a0: e78d 45be 1cb6 5b3e a6ff 28be c1fe 42be
000002b0: 7a56 693e 1dab 14be 1af1 49be a20c 6d3e
000002c0: 4869 6bbd 2550 24be 68a6 3a3e 0d58 52bd
000002d0: 7a9c 00be cfbd 353e 9da1 71bd f239 34be
000002e0: 5633 613e 768d 71bd 3ab2 4abe 9fb6 473e
000002f0: a7ad c2bd fbec 3dbe 1bd0 393e ba00 f3bd
-0.18819942 0.19038375 -0.13454807 -0.1238366 0.20478216 -0.18946832 -0.059893683 0.16569583
-0.136598 -0.050526764 0.14109734 -0.10415801 -0.05193146 0.08287416 -0.0628595 -0.035245474
0.19251908 -0.17608531 -0.11049297 0.201327 -0.19827293 -0.12750646 0.20207341 -0.21538046
-0.18366301 0.19591157 -0.112859875 -0.12791136 0.10433148 -0.05890339 0.13522933 -0.38820896
0.021647919 0.13832428 -0.48802835 0.07161503 0.0818528 -0.42984816 0.12891294 0.010441857
-0.16840535 0.0560861 -0.11160458 0.13714068 -0.11930835 -0.12224196 0.2156009 -0.20529939
-0.13695064 0.14263013 -0.02776879 0.05429657 -0.38520175 0.112312056 0.052599404 -0.34227493
0.25319827 0.0891297 -0.37157866 0.23424174 0.19752236 -0.32099393 0.10466586 0.15097843
-0.4439667 0.16355307 0.003610572 -0.26427284 0.082222074 -0.036059666 0.19597405 -0.19072469
-0.058634486 0.1165161 -0.08063131 0.15418556 -0.49983627 0.050703235 0.12794663 -0.45027745
0.2684439 0.14618629 -0.24552967 0.14709336 0.21257778 -0.2428423 0.08387451 0.24253096
-0.34523365 0.075523 0.13051654 -0.39618236 0.03356588 0.030337138 0.120040596 -0.16949221
-0.100105435 0.12281753 -0.034108512 0.09549968 -0.47985017 0.11416541 0.19791222 -0.3290267
0.121620074 0.12013208 -0.24442513 0.17672588 0.14774023 -0.24284977 0.15120213 0.19403599
-0.39216268 0.16625051 0.15677091 -0.46436307 0.03153445 -0.02414276 0.1620287 -0.16091944
-0.1364491 0.19941379 -0.09470985 -0.024217343 -0.07005968 0.026534753 0.103205696 -0.42151615
0.1958243 0.15148406 -0.2923487 0.15330344 0.05407642 -0.39777318 0.31163508 0.13877058
-0.35630983 0.17162713 0.041756496 -0.32839438 0.07531908 -0.060137194 0.19109261 -0.15955244
-0.1313809 0.20241505 -0.17702468 -0.11490637 0.13455139 -0.109682985 0.017298326 -0.51597506
0.16725864 0.06528684 -0.5236114 0.14734368 0.15259947 -0.38938305 -0.00043808512 -0.044173222
-0.077829584 0.052222565 -0.13295044 0.104657546 -0.05433117 -0.054668844 0.17268786 -0.21800275
-0.19292413 0.21456188 -0.16503772 -0.19042493 0.22786894 -0.145184 -0.19720879 0.2314935
-0.05747345 -0.16046198 0.18227541 -0.051353503 -0.12559691 0.17748187 -0.058992017 -0.1760023
0.2199224 -0.0589728 -0.1979455 0.19503258 -0.09505778 -0.18547432 0.18145792 -0.11865373
