EWOthello/ckpts/battery_othello/state_tl32_championship/layer4/checkpoint.ckpt (torch, 92819 bytes, 4 tensors)

proj.0.weight f4 [32, 512]
0	0xbd2d79e0	-0.042352557
1	0xbe57b976	-0.21066841
2	0x3e65d5aa	0.22444788
3	0x3e0fff67	0.14062272
4	0x3e5d1f1a	0.21593896
5	0xbe7c2140	-0.24622059
6	0xbde12ed1	-0.10995258
7	0x3e2520b1	0.16125752
8	0xbe45fd9a	-0.19335023
9	0xbd1f1774	-0.038840726
10	0x3e61456f	0.21999143
11	0x3e28ba93	0.16477422
12	0xbd1f635d	-0.03891312
13	0xbdc867d1	-0.097854264
14	0x3e4eed0e	0.20207617
15	0x3e640589	0.22267736
16	0x3e171cd3	0.1475709
17	0x3dde5789	0.1085654
18	0xbe63887b	-0.22220032
19	0x3e27ffb6	0.1640614
20	0x3e809792	0.2511564
21	0xbd06923c	-0.032854304
22	0xbe161620	-0.14656878
23	0x3d4b07e7	0.049568083
24	0x3cf50a32	0.029912088
25	0x3d297d6f	0.04137939
26	0x3db74086	0.08947854
27	0xbe784705	-0.24245842
28	0xbe063a0a	-0.13108078
29	0xbc3f1de6	-0.011664843
30	0x3e7fcf57	0.24981438
31	0x3de6a0f0	0.11261165
32	0xbe8e3de4	-0.27781594
33	0x3ec1a16b	0.37818465
34	0x3d3cc61f	0.04608738
35	0xbe94e8e6	-0.29083937
36	0x3f00ffa7	0.50390095
37	0xbe5f4679	-0.21804227
38	0xbe4a438b	-0.19752328
39	0xbe1020f7	-0.14075075
40	0x3e04d572	0.12972048
41	0xbd72a924	-0.059243336
42	0x3e0a7425	0.13520868
43	0x3ad258ea	0.0016048227
44	0xbdf73c4c	-0.120720476
45	0x3c2adf6c	0.0104292445
46	0xbe846171	-0.25855592
47	0xbe51e9a2	-0.2049928
48	0xbe013bf8	-0.12620533
49	0x3e52bcfe	0.20579907
50	0xbe0b60e7	-0.13611184
51	0x3df85471	0.12125481
52	0x3def911d	0.116976
53	0x3dcfa4de	0.10138868
54	0x3d3ca530	0.046055973
55	0x3d1051d7	0.0352343
56	0x3e032f4a	0.12811008
57	0xbe66df89	-0.2254621
58	0x3e86d9ff	0.26338193
59	0x3df8480c	0.12123117
60	0x3e861651	0.261889
61	0xbbfc755f	-0.0077044214
62	0x3e21634c	0.15760535
63	0x3e04f366	0.12983474
64	0xbe4cbb44	-0.19993311
65	0xbe054a18	-0.13016546
66	0xbbae7f25	-0.0053252154
67	0x3dd74135	0.10510484
68	0x3dd6da45	0.1049085
69	0x3cffd24a	0.031228203
70	0x3e4135c6	0.18868169
71	0xbe35511d	-0.17706724
72	0x3ddb97bf	0.10722303
73	0x3dc63bcf	0.09679376
74	0xbc719340	-0.01474458
75	0xbd9c725a	-0.07638998
76	0x3c6e08f3	0.014528501
77	0x3c8fc4aa	0.017549831
78	0xbdd33d31	-0.10314406
79	0x3e5d45fe	0.21608731
80	0xbdcd4694	-0.10023227
81	0x3d4428f3	0.047890615
82	0xbe5ccf9e	-0.21563575
83	0xbdb93b12	-0.0904447
84	0xbd4b9064	-0.04969825
85	0xbc9cfef9	-0.01916455
86	0x3c8de741	0.017322185
87	0xbe368b82	-0.17826656
88	0xbd7e9df1	-0.062162343
89	0xbdfadeb2	-0.12249507
90	0xbf037492	-0.5134975
91	0xbe858685	-0.26079193
92	0xbe03dc8f	-0.12877105
93	0xbe291cc4	-0.1651488
94	0xbe0462f6	-0.12928376
95	0x3edf72ed	0.4364237
96	0x3eb8d121	0.36097053
97	0xbd03a833	-0.03214283
98	0x3c802bda	0.01564591
99	0x3d6889f9	0.056772206
100	0x3e429480	0.19001961
101	0x3d908d63	0.070582174
102	0x3e223596	0.15840754
103	0xbd9fbaf0	-0.077993274
104	0x3d84dc07	0.064872794
105	0xbdbb3ac4	-0.09142068
106	0xbe7472c8	-0.2387191
107	0xbe047713	-0.12936048
108	0xbe53e807	-0.2069398
109	0xbe43ae3f	-0.19109438
110	0xbec6eb4f	-0.388514
111	0xbe5c3a2f	-0.2150657
112	0xbd57e88d	-0.052712012
113	0x3e376769	0.17910542
114	0x3e1c6905	0.15274437
115	0xbe92dbf6	-0.28683442
116	0x3db7f95c	0.089831084
117	0x3cd61802	0.026134495
118	0xbd144d30	-0.036206424
119	0xbe4e7fda	-0.20165959
120	0xbe7130c9	-0.23553766
121	0x3e93318c	0.2874874
122	0x3df58a4a	0.11989267
123	0x3db5eb3b	0.08882757
124	0xbd2c1afd	-0.042017926
125	0x3e0ce94e	0.13760874
126	0xbdd49935	-0.103807844
127	0xbd20c6af	-0.03925198
128	0x3bbddf14	0.0057944153
129	0x3e9399a5	0.2882816
130	0x3d08a27e	0.03335809
131	0x3e712424	0.23548943
132	0xbe908969	-0.28229836
133	0x3cd98031	0.026550384
134	0x3e9362f3	0.2878643
135	0xbdf14132	-0.11780013
136	0xbd95a6f1	-0.07307232
137	0x3d9b7f1d	0.07592604
138	0xbd85428b	-0.06506833
139	0xbe2c2f0b	-0.1681482
140	0xbd880d74	-0.06643191
141	0x3dabcaff	0.08388328
142	0xbe07e6a8	-0.13271582
143	0x3bf2a93a	0.0074054273
144	0x3e63366e	0.22188732
145	0xbd5b27d3	-0.053504776
146	0x3d35ed5b	0.044415813
147	0xbe9858b4	-0.29755175
148	0x3d2049a0	0.039132714
149	0xbc94f9e3	-0.018185562
150	0xbd3f1e3e	-0.0466597
151	0xbe26aeb1	-0.16277577
152	0x3e266131	0.16248013
153	0x3dcb598a	0.099291876
154	0xbdfc79ed	-0.12327943
155	0x3e299d6f	0.16563962
156	0x3ea0286f	0.31280848
157	0xbe02390f	-0.12717079
158	0xbd05ee52	-0.032697983
159	0xbdc15a54	-0.09441057
160	0xbe2f2969	-0.1710564
161	0xbe449419	-0.1919712
162	0xbe8b250a	-0.27176696
163	0x3dd7d784	0.10539153
164	0xbd3c87fd	-0.046028126
165	0x3d25e051	0.040497128
166	0xbdf6568e	-0.12028228
167	0x3e0b819c	0.13623661
168	0x3d5e0a80	0.054209232
169	0xbd78055f	-0.060551997
170	0xbe0be8e0	-0.13663054
171	0x3df96711	0.121778615
172	0x3d641302	0.05568219
173	0x3da30032	0.07959022
174	0xbe25b343	-0.16181664
175	0x3e00646a	0.12538305
176	0x3e63583f	0.22201632
177	0x3bc4da76	0.006007488
178	0x3e212cdb	0.15739767
179	0xbeb3aa2f	-0.35090777
180	0xbe33dff3	-0.17565899
181	0x3ca13714	0.019679584
182	0x3e0b54d6	0.13606581
183	0xbe15c0ac	-0.1462428
184	0xbd217234	-0.039415553
185	0xbec0adba	-0.37632543
186	0x3e08f5dc	0.13375038
187	0x3e7f94f8	0.24959171
188	0xb9114683	-0.00013854545
189	0xbe173252	-0.1476529
190	0xbd8b13fa	-0.067909196
191	0x3dc1e0f7	0.09466737
192	0x3ce5b589	0.028040664
193	0x3d39d946	0.045373224
194	0x3e49f6e8	0.19723094
195	0x3db57f3f	0.08862161
196	0xbe8ad598	-0.27116084
197	0x3dbd046f	0.09229361
198	0xbc2d3cbc	-0.010573562
199	0x3e4f32c2	0.20234206
200	0xbdb877d1	-0.09007228
201	0x3ec57d8d	0.3857235
202	0xbe7571fa	-0.2396926
203	0xbcfca6a5	-0.030841181
204	0x3cd74e60	0.02628249
205	0xbce83722	-0.028346602
206	0xbc983a75	-0.018582562
207	0xbe92bc09	-0.28659084
208	0x3e857d05	0.26071945
209	0x3e1f2546	0.15541562
210	0xbdac434d	-0.08411274
211	0xbeb9f2b2	-0.36317974
212	0xbd49276d	-0.049109865
213	0xbbb3f032	-0.00549128
214	0xbda63f75	-0.08117572
215	0x3c9fe398	0.019517705
216	0xbc37cadd	-0.0112178
217	0xbdc917ad	-0.09818969
218	0x3e912674	0.2834965
219	0xbd183a81	-0.03716517
220	0xbd98267b	-0.074292146
221	0xbe00806e	-0.12548992
222	0xbde325b1	-0.110911734
223	0x3e9872d3	0.29775104
224	0xbe47ceb5	-0.19512446
225	0xbcbaa8cf	-0.022785572
226	0xbe82b29f	-0.25526902
227	0x3dda2899	0.10652275
228	0x3dce2f99	0.10067672
229	0x3e04d6f7	0.12972628
230	0x3daeb9bf	0.08531522
231	0x3dd0b0bd	0.1018996
232	0x3dbb8afa	0.09157367
233	0xbe2c18d5	-0.16806348
234	0x3d232e64	0.039839163
235	0xbe2893bf	-0.1646261
236	0xbdedee3e	-0.11617707
237	0xbdb543a4	-0.08850792
238	0xbd55a304	-0.052157417
239	0x3eb43b75	0.35201612
240	0x3e2f3028	0.17108214
241	0xbe6fb120	-0.23407412
242	0xbe72130a	-0.23640075
243	0x3e15142e	0.14558479
244	0x3d6e777d	0.05821942
245	0x3e7b987f	0.24569891
246	0xbec64683	-0.3872567
247	0xbebc62f4	-0.36794245
248	0xbe6d0d5d	-0.23149629
249	0x3eb8f8f2	0.3612743
250	0x3e154749	0.14577974
251	0x3d86cc8b	0.06581982
252	0xbb8518ef	-0.00406181
253	0xbe0b9f59	-0.13635005
254	0xbe03196b	-0.12802665
255	0x3d04b309	0.032397304

proj.0.bias f4 [32]
0	0x3f42fb75	0.7616494
1	0x3f89cd33	1.0765747
2	0x3fca23d8	1.5792189
3	0x3f6eb228	0.93240595
4	0xbea8deeb	-0.32982573
5	0x3fb3e271	1.405348
6	0x3f90d01c	1.131351
7	0x3f1cda05	0.6127017
8	0x3db4f886	0.088364646
9	0x3fab7529	1.339513
10	0xbec6293f	-0.38703343
11	0x3f7f8c0a	0.9982306
12	0x3f15d982	0.58535016
13	0x3f516801	0.8179932
14	0x3fb6ac3c	1.4271312
15	0xbc45cbcc	-0.012072515
16	0x3f3da07d	0.7407301
17	0x3e8523f1	0.26003984
18	0xbf14bcec	-0.5810077
19	0x3f03b043	0.5144083
20	0x3f82e90a	1.0227368
21	0x3f3aaf43	0.7292368
22	0x3fad48a2	1.3537791
23	0x3f76a17e	0.9634017
24	0x3f84fa9d	1.0388981
25	0x3f952a64	1.1653562
26	0x3f3f7361	0.7478543
27	0x3f6855a2	0.90755665
28	0xbf1b9b9e	-0.6078433
29	0x3f813697	1.0094784
30	0x3f13a573	0.5767433
31	0x3fa3b452	1.2789404

proj.2.weight f4 [192, 32]
0	0x3e099a2a	0.13437715
1	0xbc7cc2fe	-0.015427349
2	0x3daa5cfe	0.08318518
3	0x3cf57ca2	0.029966656
4	0x3f019033	0.50610656
5	0xbe07a571	-0.13246705
6	0x3e162717	0.14663349
7	0xbdad93b2	-0.08475436
8	0x3e1132b3	0.14179496
9	0xbde6c25f	-0.11267542
10	0xbefa7448	-0.4891684
11	0x3c504ea4	0.012714062
12	0xbe2f769f	-0.17135094
13	0xbe40573d	-0.18783279
14	0xbd706ee5	-0.058699507
15	0x3e8c10d4	0.2735659
16	0x3c9bf049	0.019035475
17	0x3e13ae2f	0.14421915
18	0x3e32375b	0.17403929
19	0xbec02b7c	-0.37533176
20	0x3d8d72b8	0.069066465
21	0xbdc43c2c	-0.095817894
22	0xbecaefa3	-0.39635953
23	0xbe70f94d	-0.235326
24	0xbd1ae298	-0.037813753
25	0xbdb12dfc	-0.08651349
26	0xbd8e94c4	-0.069619685
27	0x3d351430	0.044208705
28	0x3dbab052	0.09115662
29	0xbe94cc5f	-0.29062173
30	0x3dda9c2f	0.10674321
31	0xbe4a70a6	-0.19769534
32	0xbd2d02e7	-0.042239096
33	0x3e666002	0.22497562
34	0xbebb9682	-0.36638266
35	0x3e029071	0.12750413
36	0x3db03329	0.08603508
37	0x3edfea83	0.43733606
38	0xbddaf4e7	-0.10691243
39	0x3d7719e2	0.06032742
40	0xbe73ec84	-0.23820692
41	0x3dac0b04	0.084005386
42	0xbc54e729	-0.012994566
43	0xbde7a966	-0.11311607
44	0x3ebc91b4	0.36829913
45	0x3e0337db	0.12814276
46	0x3de5622c	0.112003654
47	0xbee891b5	-0.45423666
48	0xbc90ea8f	-0.017689971
49	0xbdefc08a	-0.11706646
50	0xbe7ca327	-0.24671613
51	0x3e929e75	0.28636518
52	0x3d8b5918	0.06804103
53	0x3eac650e	0.3367085
54	0x3e424557	0.18971764
55	0x3e5e69bd	0.21720023
56	0xbe5c147c	-0.21492189
57	0xbb861b44	-0.004092606
58	0xbd958563	-0.07300832
59	0x3e0be5fd	0.13661952
60	0xbe42412b	-0.18970172
61	0x3e76321e	0.24042556
62	0xbebcff7f	-0.36913678
63	0x3eab38dd	0.3344182
64	0xbd38f1bf	-0.045152422
65	0xbe040ebe	-0.12896249
66	0x3e818ad7	0.2530124
67	0xbe19a631	-0.15004803
68	0xbf23bf7a	-0.63964045
69	0xbe85b201	-0.2611237
70	0xbda490ce	-0.08035432
71	0x3bdbf439	0.006712463
72	0x3e238b24	0.15971047
73	0xbe15fe29	-0.14647736
74	0x3ebdbd6a	0.37058574
75	0x3c342eb4	0.010997463
76	0xbe50c591	-0.20387866
77	0xbe1904fa	-0.14943305
78	0xbe00e243	-0.12586312
79	0x3e914e89	0.2838023
80	0xbdc5b0c4	-0.09652856
81	0x3d7ef912	0.06224925
82	0x3dfe09ff	0.1240425
83	0xbd8d0301	-0.068853386
84	0xbd9f4c00	-0.07778168
85	0xbe4ee506	-0.20204553
86	0x3db34d5c	0.087549895
87	0xbdad4b36	-0.08461611
88	0x3de186d5	0.11012045
89	0xbd330f1b	-0.043715578
90	0x3c6000e9	0.013672092
91	0xbecfd51b	-0.40592274
92	0x3d8b36e1	0.06797577
93	0x3d5156e5	0.05110826
94	0x3e6fa70d	0.23403569
95	0xbe89f833	-0.26947173
96	0xbe41465c	-0.18874496
97	0x3da07e18	0.078365505
98	0x3e5c3f1e	0.21508452
99	0x3d2f4a37	0.042795386
100	0x3e19cc94	0.15019447
101	0xbe110f4d	-0.14165993
102	0xbc0f9ea2	-0.008765848
103	0x3e575dfa	0.21031943
104	0x3e50024b	0.20313375
105	0x3d4c967f	0.04994821
106	0xbeef4963	-0.46735677
107	0x3d44d6d2	0.04805643
108	0x3c0bbde6	0.008529162
109	0xbe2395d7	-0.15975128
110	0xbd0c5455	-0.034260113
111	0x3e111924	0.14169747
112	0xbcb9fb23	-0.02270276
113	0x3c21f3ae	0.009884758
114	0x3cdcf26d	0.026971066
115	0xbe96bc28	-0.29440427
116	0x3c6d064a	0.014466831
117	0x3d670654	0.05640252
118	0xbebb3758	-0.3656566
119	0xbc4ded14	-0.012568731
120	0xbeda852f	-0.42679736
121	0xbe05a26a	-0.13050237
122	0xbe1967c1	-0.14980985
123	0x3d20d8c2	0.039269216
124	0x3e45a8e2	0.19302705
125	0xbdc8a986	-0.09797959
126	0xbdcc0a64	-0.09962919
127	0xbe9823a8	-0.29714704
128	0x3ea80a0f	0.32820174
129	0xbe1219cd	-0.14267655
130	0xbeb9bb9a	-0.3627594
131	0x3ce70368	0.028199866
132	0x3bdbd2f7	0.0067084986
133	0x3e661fff	0.22473143
134	0x3e156db0	0.14592624
135	0xbede0a39	-0.43367174
136	0xbee7026e	-0.4511904
137	0xbe25716f	-0.16156553
138	0xbd765a26	-0.060144566
139	0xbe332ac6	-0.17496786
140	0x3db0e9fe	0.086383805
141	0x3e3756e8	0.17904246
142	0x3e1b5004	0.15167242
143	0xbed222bc	-0.41042125
144	0x3e1f617b	0.1556453
145	0xbd3a3eee	-0.04547017
146	0xbd63d126	-0.05561938
147	0x3e5c8cb9	0.21538056
148	0x3cec271e	0.028827246
149	0xbdd82c8c	-0.10555372
150	0x3e9d80d7	0.3076236
151	0xbe0a78a7	-0.13522588
152	0x3f103132	0.56325066
153	0x3e17e965	0.14835127
154	0x3e64bc90	0.22337556
155	0x3e16202c	0.1466071
156	0xbeaef283	-0.34169397
157	0xbe3f8bf9	-0.18705739
158	0x3d1a2487	0.03763249
159	0x3ed48ebb	0.41515145
160	0xbe8cc654	-0.27495062
161	0x3cdffbd0	0.027341753
162	0x3e8c6e17	0.27427742
163	0xbdc0fb3a	-0.09422918
164	0xbe8b7b6c	-0.272426
165	0xbe9495a9	-0.29020432
166	0xbe43c319	-0.19117393
167	0x3e864492	0.2622419
168	0x3e5c7498	0.21528852
169	0xbcf451d4	-0.029824175
170	0x3ef1776f	0.47161433
171	0x3c3e19b6	0.01160281
172	0xbc9e3993	-0.019314563
173	0xbdc6bad1	-0.09703601
174	0xbe331b8a	-0.17490974
175	0x3df18141	0.11792231
176	0xbdcc69d6	-0.09981124
177	0x39f15758	0.00046032178
178	0x3c38b9d9	0.011274778
179	0xbda02b8b	-0.07820805
180	0xbd78e162	-0.060761817
181	0x3cde31f4	0.027123429
182	0xbdccca22	-0.09999491
183	0x3da104a9	0.07862217
184	0xbea1dddd	-0.3161458
185	0xbe2578cc	-0.16159362
186	0xbdb71ef1	-0.089414485
187	0xbe76d415	-0.2410434
188	0x3e2134fa	0.15742865
189	0x3df11e59	0.117733665
190	0x3d2a21ba	0.04153607
191	0xbebe38cb	-0.37152705
192	0x3e80ccd3	0.25156268
193	0xbe6524c4	-0.22377306
194	0xbda9f8af	-0.08299386
195	0x3e0c7e08	0.13719952
196	0x3e06d1f4	0.13166028
197	0xbba27bba	-0.004958597
198	0xbd5c7be7	-0.0538291
199	0x3dcf20f3	0.101137064
200	0x3e2e23ef	0.17005895
201	0x3e80ef28	0.25182462
202	0xbf051bac	-0.5199535
203	0x3dddd377	0.10831349
204	0xbcc50dc8	-0.024054423
205	0xbd8154da	-0.06315012
206	0x3d99af5d	0.07504151
207	0x3d71bb3b	0.059016448
208	0x3e6cd2c5	0.23127277
209	0xbe0a23aa	-0.13490167
210	0x3d7f69af	0.062356647
211	0xbce80c90	-0.028326303
212	0xbd8010e3	-0.06253221
213	0xbe9238fa	-0.28559095
214	0xbec1fb0d	-0.3788685
215	0xbd9c9549	-0.076456614
216	0xbe667f48	-0.22509491
217	0xbe63eacd	-0.22257538
218	0xbd41bdce	-0.047300152
219	0x3dd51ef2	0.10406293
220	0x3e1a8e31	0.15093304
221	0x3d401bb9	0.04690144
222	0xbe4c5bbe	-0.19956872
223	0xbe68fbee	-0.22752354
224	0xbed0f8b8	-0.40814757
225	0x3eeafdf5	0.4589688
226	0x3e38f7a7	0.18063222
227	0xbd10931d	-0.03529655
228	0x3ceba58b	0.02876546
229	0x3e78ed78	0.24309337
230	0x3ecd5952	0.40107208
231	0xbe844507	-0.25833914
232	0xbe7c762a	-0.24654451
233	0xbecd13cb	-0.40054163
234	0xbd04ff87	-0.032470252
235	0xbe7a1a9d	-0.24424215
236	0xbc245ceb	-0.010031919
237	0x3b1e5657	0.002416035
238	0xbb42707a	-0.0029669092
239	0xbe265f69	-0.16247334
240	0xbe81fe6c	-0.2538942
241	0x3e7b5c31	0.24546887
242	0xbdc7705e	-0.09738229
243	0xbe6e8d99	-0.23296203
244	0x3df5122d	0.119663574
245	0x3eb25181	0.34827808
246	0x3ece7a59	0.4032772
247	0xbd875618	-0.06608218
248	0x3ea79703	0.327324
249	0x3ed9d233	0.42543182
250	0xbd9a186e	-0.07524191
251	0xbdf7ccea	-0.12099631
252	0xbea88440	-0.329134
253	0xbeac0056	-0.33594006
254	0x3e8866cd	0.2664093
255	0x3eb7d54d	0.35904923

proj.2.bias f4 [192]
0	0xbe4dcf9f	-0.20098732
1	0x3e1e4689	0.15456595
2	0xbcbfbf69	-0.023406701
3	0xbe036410	-0.1283114
4	0x3e54b5e9	0.20772518
5	0xbdee6b5d	-0.11641572
6	0xbdd423ae	-0.10358368
7	0x3eb0c3ba	0.34524328
8	0xbdf8657f	-0.12128734
9	0xbd8eb50b	-0.06968125
10	0x3ea45529	0.32096222
11	0xbe43236c	-0.19056481
12	0x39882fb7	0.00025975492
13	0xbc8946b0	-0.01675734
14	0xbd15b66a	-0.036550917
15	0xbe36ea25	-0.17862757
16	0x3f12165b	0.5706536
17	0xbe7dbf0a	-0.24779907
18	0xbd9db5ac	-0.07700667
19	0x3e5020b2	0.20324972
20	0xbe086ab5	-0.13321956
21	0xbd89d3f3	-0.06729879
22	0x3e1fb19b	0.15595095
23	0xbe2f55e4	-0.17122608
24	0xbe5b499e	-0.21414801
25	0x3e5720b0	0.21008563
26	0xbd01c65c	-0.03168331
27	0xbe4c0b42	-0.1992617
28	0x3e9ef528	0.31046414
29	0xbe011d79	-0.12608899
30	0x3d80ad3d	0.062830426
31	0xbca7f233	-0.020501232
32	0xbd90252b	-0.07038339
33	0x3e7011b8	0.23444259
34	0xbe8df8a3	-0.27728757
35	0xbdcd2592	-0.100169316
36	0x3e0ffdf7	0.14061724
37	0xbe52d088	-0.20587361
38	0xbc6816db	-0.014165605
39	0x3d5369c5	0.05161454
40	0x3d7099bc	0.058740363
41	0xbd10422e	-0.035219364
42	0xbe3f6cf2	-0.18693903
43	0x3e56fa45	0.20993908
44	0xbd5c1b67	-0.05373707
45	0xbe08b06c	-0.1334855
46	0x3e3d9105	0.18512352
47	0xbd421933	-0.047387313
48	0xbd9cba51	-0.076527245
49	0xbd11aa3f	-0.03556275
50	0x3d595246	0.053056978
51	0xbd0af7e4	-0.033927813
52	0xbd082f2c	-0.03324811
53	0x3cecbb7b	0.028897991
54	0x3d3eee81	0.046614174
55	0xbf20c3f5	-0.62799007
56	0x3e5b8c27	0.21440183
57	0xbc042554	-0.00806554
58	0xbe028635	-0.12746508
59	0x3da64001	0.081176765
60	0x3ea8c81b	0.32965168
61	0xbe882bf6	-0.2659604
62	0xbe526db7	-0.20549665
63	0x3e0d3470	0.13789535
64	0xbee38600	-0.4443817
65	0x3d8af917	0.06785791
66	0xbcadf166	-0.021233272
67	0x3e5eaaba	0.21744815
68	0xbd1dd32b	-0.038531464
69	0x3d5cc6c9	0.053900514
70	0x3d24f913	0.0402766
71	0xbdf2724f	-0.11838209
72	0xbed45407	-0.41470358
73	0x3f34dc75	0.7064889
74	0xbd5da180	-0.054109097
75	0x3b59be1c	0.0033224886
76	0x3cc0a001	0.023513796
77	0x3c63535e	0.013874857
78	0xbe104212	-0.14087704
79	0xbe14b395	-0.1452163
80	0x3e7131ef	0.23554204
81	0x3da67585	0.08127884
82	0xbd57768b	-0.052603286
83	0x3d14e27d	0.03634881
84	0xbd847007	-0.0646668
85	0xbd55efb4	-0.05223055
86	0x3e2af2a7	0.16694127
87	0x3ec0ceb9	0.37657717
88	0xbe6ba14c	-0.23010749
89	0xbe605437	-0.21907125
90	0x3db8e6ad	0.09028373
91	0x3e47ffd6	0.19531187
92	0xbdb76c99	-0.0895626
93	0x3d2c0e14	0.042005613
94	0x3e1ad995	0.15122063
95	0xbe404959	-0.1877798
96	0xbea556af	-0.32292697
97	0x3f18bf1f	0.5966663
98	0xbde37d22	-0.111078516
99	0xbc0f9a8a	-0.008764872
100	0xbed76ac5	-0.42073646
101	0x3e2891d5	0.1646188
102	0x3dd942a7	0.10608416
103	0xbeb3a763	-0.35088643
104	0x3d3b6509	0.04575065
105	0xbe390bae	-0.18070862
106	0xbd55f084	-0.052231327
107	0x3e8bf07f	0.2733192
108	0x3e7ceff6	0.24700913
109	0xbd4de593	-0.050267767
110	0xbe156a86	-0.14591417
111	0x3d8f40b4	0.06994763
112	0xbe67b410	-0.22627282
113	0x3d2a4851	0.041572873
114	0x3e86621a	0.2624672
115	0xbe07cce4	-0.13261753
116	0xbe2bc759	-0.16775264
117	0x3db80844	0.089859515
118	0x3dad015d	0.08447526
119	0xbdfefab6	-0.12450163
120	0xbe3293e0	-0.17439222
121	0x3e31f50c	0.17378634
122	0x3d5ca09a	0.0538641
123	0xbd2d5cf9	-0.042324994
124	0xbdd5e939	-0.10444874
125	0x3dc5522f	0.09634816
126	0xbd64eb3d	-0.055888403
127	0xbed0e73d	-0.4080142
128	0x3e93a47f	0.28836438
129	0x3df78fd9	0.12087984
130	0xbf197026	-0.5993675
131	0x3e34a83b	0.176423
132	0xbdfadafb	-0.122487985
133	0xbf065107	-0.5246739
134	0x3ed34bb0	0.41268682
135	0x3d7937ff	0.060844418
136	0xbe273eb9	-0.1633252
137	0x3db49128	0.08816749
138	0x3e978d08	0.29599786
139	0xbe66fb1b	-0.22556727
140	0xbe2d85b7	-0.1694554
141	0x3dbfade8	0.09359342
142	0x3e7e0e39	0.24810113
143	0xbe8bf38e	-0.27334255
144	0xbe495aa5	-0.19663484
145	0x3e3f3b30	0.18674922
146	0xbbde194e	-0.006777919
147	0xbe095a75	-0.13413413
148	0x3e34c138	0.17651832
149	0xbd94bbc3	-0.07262375
150	0xbd80f841	-0.06297351
151	0xbdb4a466	-0.08820419
152	0x3ddd5886	0.108079
153	0x3d10b61e	0.03532993
154	0xbede22c9	-0.43385914
155	0x3e17c5cc	0.14821547
156	0x3e3c12e5	0.18366583
157	0xbea88b33	-0.329187
158	0x3baceac2	0.0052770087
159	0x3d2ee923	0.042702805
160	0x3c4ab78b	0.012372862
161	0xbd6ee444	-0.05832316
162	0xbdb2012d	-0.086916305
163	0x3e2cf5a7	0.16890584
164	0xbdbecd57	-0.09316509
165	0x3c2e292f	0.010629936
166	0x3e288bfc	0.1645965
167	0xbe36955d	-0.17830415
168	0xbeac26c0	-0.33623314
169	0x3ea7a81e	0.3274545
170	0xbdece707	-0.115675025
171	0xbe0fbccd	-0.14036866
172	0x3da7618c	0.081729025
173	0x3d33c30e	0.04388719
174	0xbece5aff	-0.403038
175	0x3f37d3c3	0.718075
176	0xbe079f07	-0.13244258
177	0xbe842017	-0.25805733
178	0x3ddabab2	0.106801406
179	0x3e3a090d	0.18167515
180	0xbe5d3829	-0.21603455
181	0x3de05b6f	0.109549396
182	0x3d8a44ca	0.06751402
183	0xbe088004	-0.13330084
184	0x3dcc762d	0.09983478
185	0x3c549d9e	0.012977032
186	0xbe9cdcf1	-0.30637315
187	0x3eaa0ebd	0.3321437
188	0xbd7e8a16	-0.062143408
189	0xbd362c23	-0.044475686
190	0x3d133f2e	0.035948925
191	0xbd44cb69	-0.04804555
