EWOthello/ckpts/Dean_GPT_Synthetic_4L1H/linearProbe_Map_New_4L1H_GPT_Layer4.ckpt (torch, 395287 bytes, 2 tensors)

proj.weight f4 [192, 512]
00000000: 4beb a53c 98dd 9ebd af77 c53e a77a 06be
00000010: 203c b73c 90c9 d1bd 93f1 563b 06f6 f13e
00000020: 6abc 8cbd 23bf d8be 50e6 1cbf f3c2 863d
00000030: e881 63be ff20 d7be a08f 093f 76da 493e
00000040: 3298 3e3e eb09 90be 944b febd 5e36 ce3e
00000050: 0156 9abe 82c7 a7be f50d 423e e393 a33d
00000060: abd7 6dbe 3f98 183c 03e2 d1be 09ac 503e
00000070: 42b7 4bbd 9c36 c93d 4523 663e db18 ea3e
00000080: d114 843e 6d94 54be b8ae bb3d 308c c6be
00000090: bdb3 ce3e d2b4 7dbc b99c 033f 198f 193d
000000a0: 96a7 483e 95ce a2be 6d3d ba3e 41aa cf3e
000000b0: 6221 263b 71b0 e5be 76c6 8f3e db20 adbb
000000c0: d1ac 0cbf e92f c9bc 6d41 993e 4e2e 27be
000000d0: 3567 4cbe 1178 73be 850c 0f3e 758f 2f3e
000000e0: 920a c1be e697 153f 2470 cbbe a1f6 14be
000000f0: dafa 1fbf 54da 50be e4e0 89be ca41 1f3f
00000100: 9e8e 18be edcd c0bd 25fc 19be 5cd4 1fbf
00000110: f630 38be cb6c 6abd d185 803d 342d 2c3e
00000120: d12c 153f cd9b f93d 7e81 163f df3a 39be
00000130: 08ba 47be 3655 1fbe b81d 32be 9924 12bf
00000140: 3c4d a2bd 6b09 89be 43d0 953d fc61 5e3d
00000150: f5ea fd3e 8410 7a3d 26a1 40bf f327 75be
00000160: eb07 a0bc 2220 fd3e edd9 253e e6db 123d
00000170: 4e73 c9bd 7aca 0dbf c561 0fbe 8b9a 2c3e
00000180: 00ba 16bf 584c 223f 637e fb3e bd3c 573d
00000190: 5772 fbbd 08b4 dc3e a5bd 1e3f 354d 313e
000001a0: 0abe 773d 7949 383e d4d1 a63c 3f49 35be
000001b0: 9c3a 5b3e 6ed0 ae3e 9fc3 0bbe c34a b5be
000001c0: 1d10 f2be 6934 663e da3a 22be f751 15be
000001d0: 2354 d33e 1a34 9dbe 99f5 f9bd b204 c7b9
000001e0: fd7e d43e 3c85 443d f419 e93a 8fe9 d8bc
000001f0: 2270 cc3e 7c63 a53e 1bdb 333d 70bd 843e
00000200: e76f 5b3e 80bf c8bc 99e9 a93e 4021 af3d
00000210: 983a 003f 520d 7b3e 6ebf 863e 32cf babd
00000220: dcbd eabe 2e1a e8bd 788e 94be 7fd1 55be
00000230: a036 18bf 382b d8bd 9651 bbbd 443f c93e
00000240: 1f33 d1be 7901 8fbe 6335 933d a30e bd3e
00000250: afaa dcbd 6a13 f53c 3728 4fbe 0494 1abf
00000260: 1fa5 4fbe 66ca 97bd 313e b13e fc4c f9be
00000270: 549e 16be 2a8d a13c 97fa 9bbd bdf5 9b3e
00000280: 72e7 33be 3f11 743e a3ff 04be 6849 9e3e
00000290: 1f56 55be 295f c3b9 c1eb f7be 4a17 80be
000002a0: 72fa 813d 14fc debd 95e1 c1be e5fe 42be
000002b0: 1302 54be 1758 173e e4b6 e6bd f1a0 ecbe
000002c0: 3588 87be 3aa6 71be 5441 6abd 7791 373e
000002d0: b6f0 ba3c a803 b03d 86fa 2f3e d7de 8b3c
000002e0: f93f 8ebe ea55 493f 28f3 443e 5659 22be
000002f0: 19dd 68be 5235 bd3d 4d0b 92be 162c 8fbb
00000300: a5a4 bebe be40 6a3e 3439 babd c1cf dc3e
00000310: 8e99 5b3e 5888 a8be 9943 b9be 5df0 9ebd
00000320: dfa2 24be 179e a43e fa00 133e c653 98be
00000330: f185 cfbd 2508 8abe c96b 2dbe 80ca ac3e
00000340: bf7e 96bd 1bb6 213f 5b71 ac3e e0ca 6f3f
00000350: 4a8e 273e 5993 023e ff39 55be 018e 5e3e
00000360: 0c05 c23e b58a 67bc 72a3 293e 73c5 893e
00000370: 0c0b f4bd 9db9 193e f46b ee3c 773e 6f3d
00000380: 9a75 0bbd 58d2 4fbe 3c86 5d3e 8378 03bf
00000390: ec92 27bd 3604 873e 51b8 37be aedc 1cbe
000003a0: a0cb ecbe d06e d4be 405a 37be c644 80be
000003b0: 7866 07bf 5013 e43e de45 0ab8 b843 603e
000003c0: c8c8 863e 0623 ca3e 279f adbd a7da 693e
000003d0: 53bd 77be f76f a13e bcf3 113e 0f3d 193f
000003e0: 4047 6cbd 7024 513e 857f 94bd c039 84be
000003f0: 40a5 a83e b57c 0ebd 7865 133e 1362 c83e
0.020253798 -0.077571094 0.38567874 -0.13132726 0.022367537 -0.10243523 0.0032797798 0.47258013
-0.06871875 -0.42333326 -0.6128893 0.06580152 -0.22217524 -0.42017362 0.5373478 0.19712242
0.18612745 -0.28132567 -0.12416759 0.40275854 -0.3014374 -0.327694 0.18950637 0.079871915
-0.23226802 0.009313642 -0.40992746 0.20378126 -0.049735315 0.09824869 0.22474392 0.45722088
0.25797132 -0.20759745 0.09164184 -0.3877883 0.40371504 -0.015485005 0.51411015 0.037489984
0.19595179 -0.31798235 0.3637499 0.4055958 0.0025349488 -0.44861177 0.280811 -0.0052834577
-0.54951197 -0.024558978 0.29932728 -0.16326258 -0.19961245 -0.2377627 0.1396962 0.17144568
-0.37703377 0.58434904 -0.39733994 -0.14547206 -0.62492144 -0.20395786 -0.2692939 0.6220976
-0.14898154 -0.09414277 -0.15037592 -0.6243341 -0.17987427 -0.05723266 0.062755235 0.16814119
0.5827151 0.1218792 0.5879134 -0.18088864 -0.19504559 -0.15559849 -0.1739415 -0.57087094
-0.079248875 -0.26764998 0.073151134 0.054292664 0.4959332 0.061050907 -0.75245893 -0.2394102
-0.019535026 0.49438578 0.16196413 0.035854243 -0.09836446 -0.5538708 -0.1400214 0.16855828
-0.58877563 0.6339774 0.49119863 0.05254816 -0.12277668 0.43106103 0.62008125 0.17314608
0.06048397 0.17996778 0.020363726 -0.17703722 0.21409076 0.34143394 -0.13648842 -0.354086
-0.47277918 0.2248093 -0.15842763 -0.14582048 0.4127513 -0.30703813 -0.12205047 -0.00037959736
0.41503134 0.047978625 0.0017784224 -0.026478557 0.399293 0.32302463 0.043910127 0.2592578
0.21429406 -0.024505377 0.33186033 0.08551264 0.50089407 0.245168 0.26317924 -0.091215506
-0.45847976 -0.113331184 -0.29014945 -0.20880698 -0.5945835 -0.10555118 -0.09146421 0.3930608
-0.40859315 -0.2793081 0.07187917 0.3692523 -0.10774743 0.029916484 -0.20230184 -0.60382104
-0.20277832 -0.07411651 0.3461776 -0.48691547 -0.14708835 0.019720633 -0.076161556 0.3046092
-0.17568758 0.23834704 -0.12988143 0.3091538 -0.20833634 -0.00037264198 -0.48422053 -0.25017768
0.06346597 -0.10887924 -0.37867418 -0.19042547 -0.20703916 0.14779697 -0.11265352 -0.4621654
-0.26471105 -0.23598567 -0.057191208 0.17926584 0.022819858 0.085944474 0.17185411 0.017074032
-0.27783182 0.7864672 0.19233382 -0.15854391 -0.22740592 0.09238686 -0.28524247 -0.004369269
-0.3723499 0.2287626 -0.09092942 0.43127254 0.21445295 -0.32916522 -0.36184385 -0.077606894
-0.16077755 0.32151863 0.14355841 -0.29751414 -0.10132969 -0.2695934 -0.16935648 0.33748245
-0.07348394 0.63168496 0.33680233 0.9366894 0.16362873 0.12751521 -0.20822905 0.21733858
0.37894475 -0.014132191 0.16566256 0.26908454 -0.119161695 0.15012212 0.02910421 0.05840918
-0.0340477 -0.20295084 0.21633238 -0.5135576 -0.0409116 0.263704 -0.17941405 -0.15318558
-0.46249104 -0.41490793 -0.17905521 -0.2505247 -0.5289073 0.44545984 -3.2966833e-05 0.21900833
0.2632506 0.39479846 -0.084776215 0.22837315 -0.24193315 0.31530735 0.14253134 0.59858793
-0.057685137 0.20424056 -0.07250885 -0.2582531 0.32938576 -0.0347869 0.14394176 0.39137325

proj.bias f4 [192]
00000000: 9928 63be 2fb2 623e 470f 59be 8d17 60be
00000010: bfe0 4b3e 9036 23be b311 97be c22a 3c3e
00000020: 26cc a0bc 2c2c 9dbe 33ad 353e ed9b b5bb
00000030: 6c3f c3be 7b3a 403e 2dd9 043d 660c bcbe
00000040: a1db 4a3e c03e 3fbc 91f8 a1be cbe0 623e
00000050: 226e 6abd ddcd 9cbe dae4 713e 8ef2 28be
00000060: 883f 89be 60b1 583e 9263 04be 2064 16bf
00000070: a85c 583e cf25 6f3e 90b2 22bf 8a82 703e
00000080: 24d3 be3e 5d7f e8be 2b17 2d3e 98da 9d3e
00000090: 478d 29bf 98fc 5f3e 8774 b73e 72f2 d3be
000000a0: 51aa 183e 7210 8a3e fbd7 aebe 2fb6 3e3e
000000b0: 6b87 cd3d 91ea 82be c6f2 3c3e 9911 b3bd
000000c0: 9525 e7be fd71 553e b419 813d 9f6b 87be
000000d0: 5649 383e 09ae 563d 6baf 9dbe 9ba2 babd
000000e0: 00be 923e 1d4d 35be 4314 1cbe 37f7 a53e
000000f0: e5b1 e6be 4fc4 d3bd 436c eb3e c791 c7be
00000100: d0ac 64bd 4772 b03e ca2e a1be 4855 293e
00000110: e20b cc3d abe6 6cbe b011 353e 60ec c7bd
00000120: 752d e4be ff00 383e 25de 4c3e 3921 0dbf
00000130: c2d4 1f3e 9908 c13e 0902 b6be 84e2 1cbe
00000140: 4e1f 003f 90c9 b8be 85d3 ccbd 144b d13e
00000150: 7e0d 39bf 8fed ccbd 2594 333f 8715 1abe
00000160: a868 f7bd cb44 833e 0b1f 28bf 9367 453e
00000170: 13b0 ea3e 9557 91be 3a68 4c3e 7ab8 4dbd
00000180: 72b6 14bf 28de 433e 5978 973e 7f2e 3cbf
00000190: 951d 853e 7288 fc3e 09c4 7bbe 1c59 e6bd
000001a0: afdd b63e 8186 00bf 0dec c8bd b2c0 113f
000001b0: ad36 e5be 28c9 c8bd 44d9 f83e 7e3d d33d
000001c0: 4fd4 fcbd e362 7a3d 2799 2dbf fe82 2e3e
000001d0: ae61 f03e 96bb acbe 6942 4a3e 75a5 c3bb
000001e0: e3b5 8bbe 8e40 4b3e 22b4 c7bd af04 cbbe
000001f0: 8e63 0e3e 39da 533e f594 cabe 2598 99bd
00000200: 3876 ba3e 0870 57be 04f0 1bbe 3741 913e
00000210: c2c7 9fbe 1a05 14be d7a3 d73e 9889 12be
00000220: 0f5f ebbd 195b a43e d822 abbe 4c5c 353e
00000230: 721b b73d 62fb 8abe 9a91 3d3e 7328 71bd
00000240: 7e6f 85be 5194 543e a4ad 11be b284 b8bd
00000250: f6fe 2b3e 82a0 60be 5571 d7be 5b02 1a3e
00000260: ba34 663e d757 04bf b603 d13d b83c ab3e
00000270: 90fe 84be 57b6 1c3e 8814 2f3e fed6 55be
00000280: 4fa9 2d3e 4e0f cd3d 8ee0 acbe 6c91 4b3e
00000290: e0e3 843d 309a 05bd aea3 583e 3221 b7be
000002a0: 4b6c 73be b795 563e b188 3abe 1faf a1bd
000002b0: 9a1f 403e 7743 8abe 54c2 29be f114 383e
000002c0: 9195 29be e2bc 82be e4d4 353e 13d7 30bd
000002d0: 7aeb aabe 5ed1 2c3e 76f3 893d 8cce 81be
000002e0: 6f7d 253e 70bf 0ebd d477 09be fc73 2f3e
000002f0: 3e51 4fbe a61f 44be ce09 5c3e 7697 76be
-0.22183456 0.22138284 -0.21197234 -0.21883984 0.19909953 -0.15938783 -0.2950569 0.18375686
-0.019628596 -0.30697763 0.17741852 -0.0055422694 -0.38134325 0.18772309 0.032433677 -0.3672821
0.19810344 -0.011672676 -0.31634954 0.22156064 -0.057233937 -0.3062581 0.23622456 -0.16498777
-0.26806283 0.21161413 -0.12928608 -0.5874653 0.21129096 0.23354267 -0.63553715 0.23487297
0.37270463 -0.4540967 0.16903369 0.30830836 -0.662312 0.218737 0.3583109 -0.4139591
0.1490872 0.26965672 -0.34149155 0.18624185 0.100355946 -0.25569585 0.18451986 -0.08743591
-0.4514586 0.20844264 0.063037306 -0.26449296 0.17996725 0.052412067 -0.30797896 -0.09113046
0.28660583 -0.17705198 -0.15242104 0.32415172 -0.45057598 -0.10340177 0.45981035 -0.38978407
-0.05582887 0.34462187 -0.3148101 0.16536438 0.09963204 -0.23134868 0.17682528 -0.09761882
-0.4456593 0.1796913 0.20006616 -0.5512882 0.15608504 0.37701872 -0.35548428 -0.15320784
0.5004777 -0.3609128 -0.10001282 0.40877593 -0.7228621 -0.10006248 0.70147926 -0.15047275
-0.120805085 0.25638422 -0.6567237 0.19277792 0.4583746 -0.28387132 0.19961634 -0.05022476
-0.5809089 0.19127715 0.29584005 -0.7350845 0.25999132 0.4932285 -0.245865 -0.11247465
0.35716006 -0.50205237 -0.09810648 0.56934655 -0.44768277 -0.098039925 0.4860326 0.10314463
-0.12345182 0.061129462 -0.67811817 0.17042157 0.46949524 -0.33736867 0.19751896 -0.0059706517
-0.27287206 0.19848844 -0.097511545 -0.3965201 0.13905165 0.20688714 -0.3956677 -0.074997224
0.3641832 -0.2103883 -0.15228277 0.28370067 -0.3120709 -0.14455071 0.42117187 -0.143103
-0.1149274 0.32100752 -0.3342502 0.1771099 0.08940782 -0.27144915 0.18512574 -0.058876466
-0.26061624 0.20759703 -0.14226395 -0.090096846 0.16796479 -0.21936229 -0.42078653 0.15039961
0.22481051 -0.5169653 0.10205786 0.33444762 -0.25975466 0.15303932 0.17097676 -0.20882794
0.16959117 0.10012685 -0.33765072 0.19879693 0.06488776 -0.032617748 0.21156189 -0.35767514
-0.23771779 0.20955549 -0.18216206 -0.0789473 0.18762055 -0.27004597 -0.16578037 0.17976739
-0.16560961 -0.2553473 0.17756993 -0.04317386 -0.3338278 0.16876742 0.067358896 -0.25352895
0.1616113 -0.034850538 -0.13424617 0.17134088 -0.20245835 -0.19152698 0.21488115 -0.24081215
