EWOthello/KLiScripts/KLi_Paper_Checkpoints/state_tl128/layer0/checkpoint.ckpt (torch, 363539 bytes, 4 tensors)

proj.0.weight f4 [128, 512]
0.0031660672 -0.08176758 0.0072695524 0.06656584 0.17601766 -0.07378243 -0.17300247 0.023366896
-0.008762577 0.057875287 -0.07376804 0.11631814 0.14493757 -0.10721622 0.08535084 -0.10670428
-0.012000876 0.1739681 -0.22194308 -0.37727728 0.15546827 0.032279324 -0.06239577 -0.016247604
0.12797002 -0.15676373 -0.038465284 0.20143458 -0.027325017 -0.02000701 -0.057460282 0.06436965
-0.025120215 0.11907541 -0.045845233 -0.17931575 -0.08524747 -0.17510678 -0.02400131 0.05665696
0.08631068 -0.028273314 -0.083475344 0.11679044 0.10917759 0.078578696 -0.15013933 0.21273667
0.0018988989 0.17483729 -0.08811066 -0.07734242 -0.024349015 -0.21253741 0.11859606 -0.02475058
-0.24106145 -0.20138517 -0.08774461 -0.13924962 -0.027380215 0.11732242 0.24763605 0.082282566
0.051536463 0.16213982 -0.2726228 0.03396629 0.1618483 -0.17135231 0.12904693 -0.24754177
0.23422535 -0.101026796 0.30872405 -0.013870789 0.1859827 0.10941699 0.10607264 0.19434862
0.05749469 0.054751176 -0.014337989 -0.016760942 0.062974215 -0.043279514 -0.046677575 0.15373148
0.1379768 -0.1399531 0.15196589 0.10855527 0.109205596 -0.01849676 -0.047580007 0.04514398
-0.05164939 -0.33863473 0.20687073 0.21026772 -0.16866562 0.11790548 -0.053191267 -0.1072537
-0.0607 -0.239418 0.08712047 -0.03930486 0.19299994 -0.23666775 -0.28050083 -0.06799261
-0.11154846 -0.1570851 -0.09107567 -0.0128311915 -0.29894385 0.20206231 -0.100035645 -0.05423991
0.23859839 -0.07229107 0.030934107 0.04052985 -0.06783158 0.12011287 -0.032858845 0.007098694
-0.01291248 -0.17607711 -0.37793478 0.27448097 0.089429356 -0.23644447 0.18268266 -0.22161044
0.2645752 0.0038141247 0.1375486 0.16274302 -0.0762817 -0.02604258 -0.018599212 -0.046636295
0.04175988 0.10332604 0.11414157 -0.0707095 -0.17818123 0.20114294 0.062298078 -0.118522905
-0.10098566 -0.2051157 -0.0019976036 0.124164045 -0.036030423 0.030187918 0.14264877 0.20522809
0.21715327 0.11091925 -0.33323616 0.1951713 0.13578397 0.36696276 0.27281672 -0.109659836
0.21839625 0.20127283 -0.043126963 -0.13599052 0.042599086 -0.17517194 -0.019297004 0.074585006
-0.042092033 -0.10266753 -0.043730382 -0.016572807 -0.15146312 -0.063817784 0.06494973 0.12064058
0.02104727 -0.010520651 0.072276175 0.25011852 -0.02994032 -0.18473631 0.27498397 -0.07747319
0.20566717 -0.07365134 0.016312722 0.36517012 0.23303567 -0.3102025 -0.23733416 0.114393495
0.22303447 -0.067856096 -0.33146533 -0.06195668 -0.15295874 0.12843738 -0.20058537 -0.13932852
0.12673976 0.07823081 -0.1389034 0.07880073 -0.15807582 0.11016988 -0.2712909 0.21552704
0.11154571 -0.059032865 0.20143865 0.07591133 -0.18582126 -0.027977755 -0.00019462702 -0.2617494
-0.10690064 0.057105303 -0.0027573595 -0.06970971 0.21782522 0.40969542 0.11794153 0.2701723
0.03702136 0.015555814 -0.16065599 0.024895448 -0.07099868 0.17318283 0.10653781 -0.11508323
0.17472437 -0.26643848 0.08547773 -0.2612349 0.052887924 0.00556841 0.08572168 0.28324744
0.029005297 -0.2868213 -0.16162208 0.017674642 0.22035716 -0.026035056 -0.085065655 -0.06680659
00000000: cb7d 4f3b c375 a7bd 6d35 ee3b ac53 883d
00000010: f93d 343e 3e1b 97bd 8f27 31be ef6b bf3c
00000020: e990 0fbc a30e 6d3d b313 97bd 3438 ee3d
00000030: 846a 143e 2d94 dbbd 6ccc ae3d c687 dabd
00000040: 529f 44bc b224 323e 0c45 63be 7d2a c1be
00000050: 1333 1f3e 5337 043d b592 7fbd b219 85bc
00000060: 930a 033e ac86 20be c68d 1dbd de44 4e3e
00000070: b7d8 dfbc bee5 a3bc 795b 6bbd 3cd4 833d
00000080: e9c8 cdbc cfdd f33d 36c8 3bbd 8c9e 37be
00000090: 3a96 aebd 314f 33be 659e c4bc 2111 683d
000000a0: a7c3 b03d 709d e7bc 1ff5 aabd d42f ef3d
000000b0: 8098 df3d deed a03d 20be 19be a4d7 593e
000000c0: 79e4 f83a 8c08 333e 5d73 b4bd b465 9ebd
000000d0: 9677 c7bc 68a3 59be 7ee2 f23d bac1 cabc
000000e0: d0d8 76be ea37 4ebe 72b3 b3bd 7497 0ebe
000000f0: 794c e0bc bd46 f03d 4e94 7d3e c383 a83d
00000100: e617 533d fb07 263e 3795 8bbe 3d20 0b3d
00000110: 90bb 253e fb76 2fbe e124 043e 977b 7dbe
00000120: c5d8 6f3e 23e7 cebd 1411 9e3e 4e42 63bc
00000130: 4072 3e3e 0416 e03d 9d3c d93d 5303 473e
00000140: 8d7f 6b3d c542 603d e2e9 6abc 3e4e 89bc
00000150: a0f8 803d dc45 31bd fc30 3fbd c96b 1d3e
00000160: ca49 0d3e de4f 0fbe f29c 1b3e 3a52 de3d
00000170: 2fa7 df3d 8486 97bc 41e3 42bd e5e8 383d
00000180: 508e 53bd 8861 adbe ecd5 533e 6c50 573e
00000190: aeb6 2cbe 6e78 f13d 16df 59bd d4a7 dbbd
000001a0: 90a0 78bd fe29 75be 386c b23d 22fe 20bd
000001b0: c7a1 453e 0859 72be ce9d 8fbe b63f 8bbd
000001c0: 8573 e4bd ebda 20be e285 babd eb39 52bc
000001d0: 2b0f 99be 6ce9 4e3e 7ddf ccbd ab2a 5ebd
000001e0: 2353 743e 570d 94bd 8669 fd3c a102 263d
000001f0: 49eb 8abd bdfd f53d ff96 06bd 299c e83b
00000200: de8e 53bc 8f4d 34be ab80 c1be c588 8c3e
00000210: bd26 b73d 801e 72be 2a11 3b3e d9ed 62be
00000220: 6776 873e 65f6 793b 8ad9 0c3e 1ba6 263e
00000230: 9439 9cbd 4057 d5bc 605d 98bc b305 3fbd
00000240: 680c 2b3d 9a9c d33d 0ec3 e93d 24d0 90bd
00000250: 2475 36be 6af8 4d3e 452c 7f3d 23bc f2bd
00000260: 92d1 cebd da09 52be 3aea 02bb b849 fe3d
00000270: a394 13bd a74c f73c 8512 123e 5027 523e
00000280: 6d5d 5e3e a229 e33d ee9d aabe fcda 473e
00000290: f40a 0b3e 8be2 bb3e a2ae 8b3e 5695 e0bd
000002a0: 44a3 5f3e 771a 4e3e e6a5 30bd 1941 0bbe
000002b0: 617c 2e3d 4660 33be c014 9ebc 06c0 983d
000002c0: b268 2cbd 5b43 d2bd a11e 33bd b2c3 87bc
000002d0: 2619 1bbe e6b2 82bd 5d04 853d 6912 f73d
000002e0: 536b ac3c cf5e 2cbc 8805 943d 890f 803e
000002f0: 6745 f5bc 842b 3dbe b3ca 8c3e 44aa 9ebd
00000300: 6a9a 523e 84d6 96bd 42a2 853c 94f7 ba3e
00000310: e7a0 6e3e ddd2 9ebe ba07 73be 2347 ea3d
00000320: 2663 643e 23f8 8abd d3b5 a9be 4ac6 7dbd
00000330: 37a1 1cbe 1785 033e 4066 4dbe 23ac 0ebe
00000340: 11c8 013e 7a37 a03d b13c 0ebe 4762 a13d
00000350: a1de 21be bfa0 e13d a4e6 8abe 1fb3 5c3e
00000360: 1472 e43d 72cc 71bd ef45 4e3e 6677 9b3d
00000370: ee47 3ebe 9b31 e5bc cb14 4cb9 0404 86be
00000380: b9ee dabd 40e7 693d d1b4 34bb f7c3 8ebd
00000390: 930d 5f3e 99c3 d13e 548b f13d 0654 8a3e
000003a0: b6a3 173d d0dd 7e3c 0183 24be 8af1 cb3c
000003b0: c267 91bd d756 313e 7f30 da3d c2b0 ebbd
000003c0: f2ea 323e a06a 88be f30e af3d 95c0 85be
000003d0: 02a1 583d 3577 b63b d98e af3d cf05 913e
000003e0: 849c ed3c 3eda 92be 4280 25be 69ca 903c
000003f0: 4fa5 613e 7847 d5bc e736 aebd e5d1 88bd

proj.0.bias f4 [128]
0.023284368 0.0033900086 0.18680711 0.06794822 0.19996634 0.093797326 0.13784659 0.15321884
0.015687713 0.044946607 0.12086616 0.090043 0.22225246 0.013389413 0.1345306 0.02897267
0.0975912 0.16615152 0.036317643 0.048750836 0.0361522 0.16470432 0.09635657 0.27533278
0.14187168 0.11450234 0.06351409 0.044616204 0.026716013 0.17724986 0.07342025 -0.03583978
0.12384675 0.18772738 0.09056146 0.13525736 0.06791543 0.039352294 0.13513635 0.1597171
0.044165965 0.066335775 0.04298407 0.06529518 0.028796691 -0.020269964 0.12290378 0.03495376
0.041169353 0.2288013 0.07666789 0.06413961 0.31699672 0.08252063 0.24318923 0.020579722
0.18529837 0.16980235 0.13581455 0.108072884 -0.0044184034 0.033134837 -0.018859427 0.17809224
0.10661619 0.0018051643 0.07423864 0.10419201 0.10170133 0.0439402 -0.006378472 0.024009185
0.13242769 0.018402154 0.012793676 0.13604365 0.12085011 -0.017995471 -0.0031687915 -0.02216417
0.035063703 0.09537749 0.13451153 0.18582022 0.05675806 0.17921129 0.116248846 0.024255343
0.062834896 0.32085302 0.07299177 0.14131433 0.018899487 0.010379422 0.10115253 0.2628216
0.11392073 0.2203839 0.06901261 0.14694962 0.09338786 0.036414605 0.16394475 0.07833704
-0.006077253 0.019290866 0.045043003 0.18790537 0.054156158 0.14214152 0.10694089 0.063977376
-0.018612694 0.09146016 0.120321125 0.06843871 0.032781187 0.06960875 0.29710937 0.15395522
0.15176597 0.02445992 0.2348136 0.0622072 0.098775044 0.08245248 0.022707593 0.45435482
00000000: dcbe be3c e82a 5e3b 5d4a 3f3e 7028 8b3d
00000010: fac3 4c3e d018 c03d a827 0d3e 66e5 1c3e
00000020: 8583 803c ef19 383d ad88 f73d 7768 b83d
00000030: 2696 633e 455f 5b3c 64c2 093e 1858 ed3c
00000040: e5dd c73d a023 2a3e cfc1 143d f5ae 473d
00000050: 5414 143d 40a8 283e 9856 c53d 6bf8 8c3e
00000060: cf46 113e 3480 ea3d ad13 823d 7bbf 363d
00000070: 8adb da3c fd80 353e 5b5d 963d bccc 12bd
00000080: 5da3 fd3d 9b3b 403e 4978 b93d e880 0a3e
00000090: 3f17 8b3d df2f 213d 2f61 0a3e e18c 233e
000000a0: 5fe7 343d 0ddb 873d 1010 303d 7bb9 853d
000000b0: 0ae7 eb3c 320d a6bc fab4 fb3d ad2b 0f3d
000000c0: 32a1 283d e34a 6a3e 0e04 9d3d a15b 833d
000000d0: 654d a23e 9300 a93d 9906 793e ce96 a83c
000000e0: dbbe 3d3e abe0 2d3e f812 0b3e 5155 dd3d
000000f0: 41c8 90bb 65b8 073d 167f 9abc d05d 363e
00000100: 9759 da3d 439b ec3a 6e0a 983d 9f62 d53d
00000110: c948 d03d a4fa 333d 8002 d1bb e9ae c43c
00000120: 209b 073e 1dc0 963c 919c 513c 074f 0b3e
00000130: 4380 f73d 3d6b 93bc 80ab 4fbb a291 b5bc
00000140: f59e 0f3d 4655 c33d 64bd 093e a847 3e3e
00000150: 247b 683d 2a83 373e e013 ee3d 24b3 c63c
00000160: 95af 803d d946 a43e b67c 953d b4b4 103e
00000170: 19d3 9a3c 740e 2a3c 0f29 cf3d 8e90 863e
00000180: 464f e93d 51ac 613e 7c56 8d3d f679 163e
00000190: 2242 bf3d 7b27 153d 22e1 273e 2c6f a03d
000001a0: b123 c7bb e107 9e3c 037f 383d 446a 403e
000001b0: d9d2 5d3d 8c8d 113e d303 db3d 9206 833d
000001c0: a679 98bc 774f bb3d ec6a f63d 9829 8c3d
000001d0: 9145 063d 088f 8e3d b81e 983e 70a6 1d3e
000001e0: 8a68 1b3e 2c60 c83c fa72 703e facc 7e3d
000001f0: 924a ca3d d9dc a83d 4605 ba3c 32a1 e83e

proj.2.weight f4 [192, 128]
-0.005452675 0.005264213 -0.2663514 -0.071140714 -0.022386378 -0.06775698 0.08075096 -0.064675145
0.13789688 -0.18075527 0.2838903 -0.06918359 -0.015402191 -0.17592838 0.029684154 -0.05648985
-0.020404726 -0.14970063 0.056558836 -0.07581518 -0.12526987 -0.07230056 -0.007872455 -0.1829666
0.04115823 -0.013996518 -0.10991442 0.29230922 0.04501664 -0.024521844 -0.14363958 0.022547644
-0.10408054 -0.029017372 -0.13151838 -0.026307577 -0.0050068772 0.026897967 -0.21793547 -0.107641526
-0.10801334 -0.044352114 -0.21446863 -0.14487934 0.16746567 0.0080340495 -0.026506703 -0.061470196
0.04084161 -0.07333761 -0.039605446 0.13646327 -0.36304453 -0.051176816 -0.040746126 0.018516954
-0.0052831285 -0.06390238 0.013492312 -0.103051566 -0.21113499 -0.1481642 -0.027161472 -0.024857718
-0.103857316 0.012071686 -0.045174867 -0.04777679 0.038531322 0.07525128 0.0031780936 0.14201227
-0.019584067 -0.23103018 0.054058246 0.119664155 -0.06785459 0.036918227 0.064663425 -0.21719955
-0.10088259 0.26611224 -0.034523915 0.01826635 -0.21932973 -0.1491356 -0.22759815 0.015071023
0.049311828 -0.20024674 0.08756511 -0.2447549 -0.05107044 0.36576533 -0.11407575 -0.10980792
-0.15646529 -0.15244319 -0.13035966 0.03562321 -0.069638975 0.1305912 0.039051834 -0.007703004
0.03346806 -0.06671744 -0.033418477 0.0077443635 0.1603023 -0.18637803 0.06880907 0.01348147
-0.13762908 0.17377529 0.017166167 0.000699531 -0.11644912 -0.006015862 -0.02091083 -0.26997492
-0.119693175 -0.29368868 -0.09204158 -0.24543242 -0.1937137 -0.10703859 -0.11922389 -0.207352
-0.07621577 0.018499902 0.19967785 0.0733425 0.0054461136 -0.031633597 -0.14939123 0.07168806
0.073442265 0.038458716 -0.42263836 0.097576104 -0.026459388 0.015680341 0.036891937 0.109090425
0.025101176 -0.0066713444 -0.1293507 0.089044444 0.07047327 0.11884125 0.054617554 0.120025575
0.0013222238 -0.05019233 0.0012766074 -0.11300874 0.02173905 0.037331864 0.06926243 -0.13224839
0.1267192 -0.09473012 0.033805206 0.1233032 -0.05962025 -0.03349528 0.26563406 -0.032286588
0.080208026 0.007874994 0.12013173 0.017601987 -0.24542154 -0.006510775 0.009255989 0.027898466
0.026444564 -0.060734082 0.089289576 -0.048540663 0.4123953 0.015445747 0.015415008 -0.06559922
0.016183596 -0.06511867 0.20534952 0.1050849 0.0830191 0.026589233 -0.003291783 0.15465705
0.15987813 0.046483804 0.09986222 0.1578998 -0.058586303 -0.0594537 -0.034179553 -0.17741482
0.059345566 0.14492099 -0.11677925 0.062196482 0.09888291 -0.008864637 -0.08993878 0.23802103
0.12663467 -0.10288579 -0.023793215 -0.030234661 -0.029188221 0.2598836 0.17135455 -0.06589139
0.10829861 0.22364937 -0.025239332 0.24203336 -0.007479609 -0.07414441 0.031333104 0.11067208
0.12167017 0.22680922 0.029808413 -0.004326967 -0.0014755538 0.0118847 -0.07536351 0.14547843
-0.08868147 -0.016653052 0.09298727 0.043382216 -0.12481273 0.19674277 0.103472315 0.08424539
0.062740915 -0.045214534 -0.09866812 -0.0057482845 -0.07539043 0.070284955 0.032603707 0.29284614
0.0872575 0.06538182 0.1448174 0.06582426 0.17474563 0.046026565 0.03218471 0.32955223
00000000: 5aac b2bb 6b7f ac3b 365f 88be 39b2 91bd
00000010: a363 b7bc 2cc4 8abd c260 a53d 6774 84bd
00000020: d734 0d3e e917 39be 125a 913e 20b0 8dbd
00000030: 7959 7cbc 9226 34be 2f2c f33c e761 67bd
00000040: d027 a7bc 1f4b 19be 3daa 673d fd44 9bbd
00000050: bf46 00be 5112 94bd 78fb 00bc 995b 3bbe
00000060: 8895 283d a751 65bc d01a e1bd 8ea9 953e
00000070: 5e63 383d 09e2 c8bc 4116 13be d6b5 b83c
00000080: 2e28 d5bd d7b5 edbc c1ac 06be fd82 d7bc
00000090: bb10 a4bb 2059 dc3c 7a2a 5fbe 2973 dcbd
000000a0: 1936 ddbd 90aa 35bd aa9d 5bbe 405b 14be
000000b0: 1f7c 2b3e 3fa1 033c 9624 d9bc 2cc8 7bbd
000000c0: 8849 273d 0732 96bd 5239 22bd 07bd 0b3e
000000d0: f9e0 b9be c89e 51bd 69e5 26bd deb0 973c
000000e0: 181e adbb 40df 82bd dc0e 5d3c b30c d3bd
000000f0: c533 58be 5bb8 17be bc81 debc 6aa2 cbbc
00000100: 25b3 d4bd 52c8 453c 4809 39bd 98b1 43bd
00000110: 05d3 1d3d 581d 9a3d 9047 503b aa6b 113e
00000120: c46e a0bc 2d93 6cbe 2e6c 5d3d 7b12 f53d
00000130: 59f7 8abd 9137 173d 426e 843d 8f69 5ebe
00000140: 889b cebd dd3f 883e f368 0dbd 50a3 953c
00000150: f997 60be 01b7 18be 7d0f 69be 74ec 763c
00000160: 33fb 493d 7b0d 4dbe 5655 b33d 07a1 7abe
00000170: 3d2f 51bd 9845 bb3e 8ca0 e9bd fae2 e0bd
00000180: 7038 20be 111a 1cbe 017d 05be a5e9 113d
00000190: e19e 8ebd b3b9 053e d1f4 1f3d 7b69 fcbb
000001a0: ce15 093d 27a3 88bd d0e1 08bd 6ec4 fd3b
000001b0: 4926 243e e2d9 3ebe c5eb 8c3d 62e1 5c3c
000001c0: a3ee 0cbe 26f2 313e 10a0 8c3c bb60 373a
000001d0: e07c eebd b520 c5bb 304d abbc 273a 8abe
000001e0: b221 f5bd 5d5e 96be 4c80 bcbd a352 7bbe
000001f0: e25c 46be 0c37 dbbd a82b f4bd 1554 54be
00000200: 0317 9cbd 1b8d 973c 5a78 4c3e 9834 963d
00000210: 5075 b23b 3b92 01bd 04fa 18be 31d1 923d
00000220: e668 963d e386 1d3d 0e64 d8be fbd5 c73d
00000230: 5cc1 d8bc 0f74 803c 001c 173d cd6a df3d
00000240: fba0 cd3c 4b9b dabb 8374 04be ef5c b63d
00000250: 4a54 903d 0b63 f33d a8b6 5f3d f8cf f53d
00000260: 784e ad3a 7996 4dbd d653 a73a 2071 e7bd
00000270: 1816 b23c 4ce9 183d 76d9 8d3d 1f6c 07be
00000280: aec2 013e dd01 c2bd 5477 0a3d 6386 fc3d
00000290: 5d34 74bd 5932 09bd 3001 883e f13e 04bd
000002a0: 1b44 a43d 1e06 013c a007 f63d 0b32 903c
000002b0: c94f 7bbe 5758 d5bb 6fa6 173c 538b e43c
000002c0: 45a2 d83c 4dc4 78bd 74dd b63d 93d2 46bd
000002d0: 7a25 d33e 2910 7d3c 3b8f 7c3c e258 86bd
000002e0: 7693 843c f05c 85bd 2547 523e c136 d73d
000002f0: eb05 aa3d aad1 d93c f4ba 57bb 6b5e 1e3e
00000300: 18b7 233e cd65 3e3d 9084 cc3d 7cb0 213e
00000310: 31f8 6fbd b985 73bd dcff 0bbd 3bac 35be
00000320: 5614 733d 2b66 143e f629 efbd bdc1 7e3d
00000330: 2083 ca3d fc3c 11bc d331 b8bd c9bb 733e
00000340: 85ac 013e c9b5 d2bd fde9 c2bc aeae f7bc
00000350: 231c efbc 770f 853e 9177 2f3e 11f2 86bd
00000360: a9cb dd3d 5704 653e b7c2 cebc 98d7 773e
00000370: 8217 f5bb 06d9 97bd 2457 003d 0ba8 e23d
00000380: 362e f93d ad40 683e c630 f43c 3bc9 8dbb
00000390: 5f67 c1ba 0bb8 423c 2f58 9abd 4cf8 143e
000003a0: a19e b5bd fb6b 88bc 1c70 be3d 8db1 313d
000003b0: d19d ffbd f076 493e 4be9 d33d d988 ac3d
000003c0: 4f7e 803d e032 39bd 8312 cabd 1b5c bcbb
000003d0: 4c66 9abd 8ff1 8f3d 778b 053d eeef 953e
000003e0: 0fb4 b23d e7e6 853d 034b 143e dfce 863d
000003f0: 85f0 323e 5a86 3c3d 1dd4 033d 12bb a83e

proj.2.bias f4 [192]
-0.083534904 0.09580961 -0.08497935 -0.10036132 0.108129494 -0.075046994 -0.04707763 0.07089216
-0.05817977 -0.06300498 0.066496424 -0.033389486 -0.067356795 0.07015347 -0.032672644 -0.050135717
0.07101561 -0.053983096 -0.097164296 0.10512845 -0.0785175 -0.09561107 0.1092768 -0.097063325
-0.07480702 0.10718566 -0.10096277 -0.08753395 0.10012826 -0.082320996 -0.019856919 0.060624145
-0.04418575 0.07547297 -0.02929057 -0.027314724 0.05751045 -0.0516882 -0.0007713466 -0.05366133
0.08083219 -0.039029855 -0.09006915 0.099616505 -0.08054809 -0.10606924 0.1145778 -0.08423022
-0.05757378 0.07815017 -0.060318157 -0.0009806544 0.019586809 -0.02609202 0.08322958 -0.11467718
0.057847578 0.07567453 -0.1494953 0.0846349 0.08114768 -0.10423248 0.05628259 0.089606315
-0.13429259 0.06769459 -0.030419532 0.0640725 -0.04905529 -0.055264596 0.06617351 -0.04761206
-0.008968689 0.060439687 -0.0800044 0.033705663 -0.024004664 0.0105241295 0.044510935 -0.084718704
0.07981726 0.028990516 -0.06154542 0.07469278 0.020296045 -0.06145502 0.08413785 0.0933534
-0.10451852 0.04453083 0.008907792 -0.012307697 0.011507251 -0.07342027 0.07463614 -0.034166884
-0.04257304 0.079163186 -0.065472096 0.05385911 -0.007993613 -0.029778589 0.07502081 -0.11466059
0.06663155 0.056620907 -0.062622406 0.05006186 0.045601524 -0.061833147 0.05971625 0.09285713
-0.15240102 0.07495943 0.029368203 0.0037531906 -0.016841162 -0.05122842 0.0727312 -0.055273376
-0.04835808 0.06250101 -0.045748673 -0.0064840396 0.017997343 -0.01929667 0.08090556 -0.11261594
0.072511695 0.0622456 -0.12087311 0.080839634 0.04633575 -0.11910558 0.09130123 0.105413705
-0.16287674 0.06713813 -0.015897296 0.045648217 -0.0451769 -0.05477151 0.09055381 -0.07898303
-0.09871779 0.11136792 -0.08512479 -0.10203273 0.11271975 -0.08689035 -0.029491808 0.06681446
-0.046934795 0.0502598 -0.026156554 -0.01133263 0.026834639 -0.024043433 0.02602264 -0.03937003
0.04246066 -0.013410832 -0.08193953 0.09256186 -0.07687072 -0.09097728 0.109200165 -0.08903444
-0.11424824 0.11820594 -0.092271455 -0.06880734 0.09211365 -0.08606502 -0.053369552 0.08123402
-0.06493385 -0.02750318 0.059693858 -0.061278533 -0.05924523 0.08240144 -0.05506495 -0.057041246
0.069321744 -0.04740534 -0.08469361 0.106079206 -0.09146788 -0.07702365 0.0909599 -0.08610563
00000000: 5914 abbd d437 c43d a709 aebd 3c8a cdbd
00000010: ff72 dd3d 3db2 99bd 79d4 40bd e92f 913d
00000020: e94d 6ebd c108 81bd 472f 883d 6ac3 08bd
00000030: 5cf2 89bd 9fac 8f3d c0d3 05bd 1c5b 4dbd
00000040: a270 913d 611d 5dbd 13fe c6bd 964d d73d
00000050: c8cd a0bd bdcf c3bd 84cc df3d 23c9 c6bd
00000060: 6c34 99bd 2884 db3d 92c5 cebd 0045 b3bd
00000070: 0c10 cd3d e997 a8bd faaa a2bc 0651 783d
00000080: 1efc 34bd 9391 9a3d c7f2 efbc 21c3 dfbc
00000090: 1490 6b3d 02b7 53bd 3234 4aba fccb 5bbd
000000a0: 598b a53d c5dd 1fbd 2d76 b8bd bd03 cc3d
000000b0: 66f6 a4bd d43a d9bd c4a7 ea3d e580 acbd
000000c0: 7cd2 6bbd 320d a03d 2c10 77bd 4d89 80ba
000000d0: 8474 a03c efbe d5bc 4574 aa3d dfdb eabd
000000e0: 95f1 6c3d 3ffb 9a3d 4c15 19be 1055 ad3d
000000f0: c130 a63d d777 d5bd 9388 663d 8483 b73d
00000100: ff83 09be 76a3 8a3d 6232 f9bc 7138 833d
00000110: 33ee 48bd 215d 62bd fa85 873d dd04 43bd
00000120: 68f1 12bc 9b8f 773d 59d9 a3bd f30e 0a3d
00000130: 6ea5 c4bc 666d 2c3c 1951 363d 0081 adbd
00000140: 3b77 a33d 857d ed3c 0d17 7cbd 87f8 983d
00000150: e443 a63c 42b8 7bbd 7750 ac3d 1130 bf3d
00000160: ce0d d6bd f665 363d fdf1 113c 39a6 49bc
00000170: e988 3c3c 5e5d 96bd d5da 983d 93f2 0bbd
00000180: 1161 2ebd 4f20 a23d 3c16 86bd 5f9b 5c3d
00000190: a5f7 02bc 3af2 f3bc 83a4 993d 2cd3 eabd
000001a0: 1f76 883d 53eb 673d 2d40 80bd aa0d 4d3d
000001b0: aac8 3a3d c144 7dbd 0799 743d e12b be3d
000001c0: 030f 1cbe 5484 993d 9695 f03c 17f8 753b
000001d0: 7af6 89bc e4d4 51bd 18f4 943d 5666 62bd
000001e0: 1f13 46bd 8800 803d f662 3bbd 1178 d4bb
000001f0: 2a6f 933c 0d14 9ebc d0b1 a53d 30a3 e6bd
00000200: 0381 943d 3ef5 7e3d 528c f7bd 408f a53d
00000210: 8eca 3d3d a0ed f3bd 24fc ba3d 24e3 d73d
00000220: 29c9 26be b77f 893d 0c3b 82bc a0f9 3a3d
00000230: 6a0b 39bd 1758 60bd 4774 b93d dbc1 a1bd
00000240: 8d2c cabd dd14 e43d e855 aebd 89f6 d0bd
00000250: 9dd9 e63d 91f3 b1bd ce98 f1bc 05d6 883d
00000260: b33e 40bd 38dd 4d3d 4546 d6bc 7fac 39bc
00000270: 51d4 db3c bcf6 c4bc 6e2d d53c 7842 21bd
00000280: 3beb 2d3d 1bb9 5bbc eacf a7bd 1391 bd3d
00000290: 656e 9dbd 4c52 babd 56a4 df3d b057 b6bd
000002a0: fbfa e9bd f515 f23d d1f8 bcbd ddea 8cbd
000002b0: 15a6 bc3d db42 b0bd 089a 5abd 065e a63d
000002c0: 0afc 84bd 594e e1bc 8c81 743d 33ff 7abd
000002d0: 20ab 72bd 16c2 a83d c98b 61bd 15a4 69bd
000002e0: 8ff8 8d3d 1a2c 42bd d873 adbd 0e40 d93d
000002f0: 8353 bbbd 93be 9dbd 2f49 ba3d 2658 b0bd
