EWOthello/ckpts/battery_othello/state_tl8_championship/layer8/checkpoint.ckpt (torch, 25107 bytes, 4 tensors)

proj.0.weight f4 [8, 512]
0	0xbd52cf9b	-0.05146752
1	0xbd888140	-0.066652775
2	0x3ded3285	0.115819015
3	0xbd23d086	-0.039993785
4	0x3b0f34fd	0.0021851652
5	0xbe21794b	-0.15768926
6	0xbcc514f4	-0.024057843
7	0x3e18d911	0.14926554
8	0xbdd9697f	-0.10615825
9	0xbdcc96c4	-0.09989694
10	0x3a9d5419	0.0012003212
11	0xbd24b2bf	-0.040209528
12	0xbe181a8b	-0.14853875
13	0xbe070658	-0.13186014
14	0xbd472be4	-0.04862584
15	0x3d99280b	0.07478341
16	0x3dbf97bb	0.09355112
17	0x3db1a6e8	0.08674413
18	0xbcae9415	-0.021310845
19	0xbe1e10a8	-0.15436041
20	0x3e2f4294	0.17115241
21	0x3e1cffc7	0.15331946
22	0xbd59447e	-0.053043835
23	0x3e19ca15	0.15018494
24	0xbd6e6702	-0.058203705
25	0x3c9c170e	0.019053962
26	0x3d24b984	0.040215984
27	0xbdf6b196	-0.120455906
28	0xbcb25ad7	-0.021771831
29	0x3dc34f72	0.09536637
30	0x3db96899	0.090531535
31	0xbd101140	-0.0351727
32	0xbe336838	-0.17520225
33	0x3e125b85	0.14292724
34	0x3d93065f	0.071789496
35	0x3c0cff6e	0.008605821
36	0xbd51c9f3	-0.051217984
37	0xbd4737ce	-0.048637204
38	0xbdb77d15	-0.089594044
39	0x3d9ac62f	0.07557332
40	0x3da69d7b	0.08135506
41	0xb9e4d6e0	-0.00043647643
42	0x3d243346	0.04008796
43	0xbcda6a19	-0.02666192
44	0xbe01dd4f	-0.12682079
45	0x3c5117e8	0.012762047
46	0x3da437e4	0.08018473
47	0xbb499998	-0.0030761715
48	0xbe4d6eee	-0.20061848
49	0x3cf82a30	0.030293554
50	0xbd8e89d7	-0.069598846
51	0xbd0e1ab9	-0.034693453
52	0x3e0cbccd	0.13743897
53	0xbcf36cd5	-0.029714981
54	0xbe29acc7	-0.16569816
55	0x3e0006f6	0.12502655
56	0xbc2ecb2f	-0.01066856
57	0x3bd45260	0.0064795464
58	0xbdac8fca	-0.08425863
59	0x3d83ec82	0.06441595
60	0x3df27ece	0.11840592
61	0x3dcbe50a	0.09955795
62	0xbc8688ba	-0.016422618
63	0x3bb2eb15	0.005460153
64	0xbe376a67	-0.17911683
65	0xbda69354	-0.08133569
66	0x3c392630	0.0113006085
67	0xbd826163	-0.06366231
68	0x3b866bef	0.004102222
69	0x3c835026	0.016029429
70	0xba2ddd71	-0.00066324236
71	0xba87849a	-0.0010339201
72	0x3e0b0f88	0.13580143
73	0x3dca7546	0.098856494
74	0x3ce5571c	0.027995639
75	0xbdfe5e83	-0.124203704
76	0x3e1ef2d5	0.1552232
77	0x3d49ca26	0.04926505
78	0x3d070bce	0.032970242
79	0x3dfba1ae	0.12286697
80	0xbe1aa333	-0.15101318
81	0x3d388ac1	0.0450542
82	0x3da3bd82	0.0799513
83	0x3e3fd981	0.18735315
84	0xbdfdd1a8	-0.123935044
85	0xbd8c885d	-0.06861947
86	0xbe35b2fe	-0.17744061
87	0xbda544fb	-0.080697976
88	0xbda7b870	-0.081894755
89	0xbe7f718a	-0.24945655
90	0xbe2926ab	-0.16518657
91	0xbe37c65b	-0.1794676
92	0x3e02d26f	0.12775587
93	0xbdc969c8	-0.09834629
94	0x3d67ce9d	0.056593526
95	0x3e208769	0.15676655
96	0x3e023a13	0.12717466
97	0x3dbb0f13	0.091337346
98	0x3e3c3647	0.1838008
99	0x3e1bf591	0.15230395
100	0x3d007e33	0.031370353
101	0x3e0b68fa	0.13614264
102	0xbc652094	-0.013984818
103	0xbe3fd6f2	-0.18734339
104	0xbe0d648f	-0.13807891
105	0xbca59bf6	-0.02021597
106	0x3de8ef84	0.11373809
107	0x3d95596b	0.07292446
108	0xbdbf49f9	-0.09340281
109	0x3e3bf04f	0.18353389
110	0xbd85d999	-0.06535644
111	0x3ca91abd	0.020642633
112	0x3e0078d8	0.12546098
113	0x3d0086d3	0.03137858
114	0xbb21b82c	-0.0024676425
115	0xbe22e44b	-0.159074
116	0xbdb464bd	-0.08808277
117	0x3d7d3d58	0.06182608
118	0x3d20c313	0.039248537
119	0xbd90ee49	-0.07076699
120	0xbd94d960	-0.072680235
121	0xbd2e0bca	-0.04249171
122	0x3db26a4e	0.08711682
123	0xbcd4b167	-0.025963498
124	0xbe438cd0	-0.19096684
125	0x3de2dec2	0.11077644
126	0xbbf1938e	-0.007372326
127	0x3d2f2c67	0.042766955
128	0xbda6b20c	-0.081394285
129	0x3d668d0a	0.05628685
130	0xbd5a1f14	-0.053252295
131	0xbd0af23c	-0.03392242
132	0xbe2fe330	-0.17176509
133	0xbcc8c3b5	-0.024507383
134	0xbc084ccc	-0.008319091
135	0x3d7a11de	0.061052196
136	0x3c671a2f	0.014105364
137	0x3d3c4f67	0.04597416
138	0xbc9fc8e7	-0.019504977
139	0x3ca9f8fb	0.020748606
140	0x3adc76d8	0.0016820086
141	0x3d3e79e9	0.04650298
142	0xbdfa6e34	-0.12228051
143	0xbdf9f8d9	-0.12205667
144	0x3de14dd9	0.110011764
145	0xbe153b7c	-0.14573473
146	0xbb939153	-0.004503408
147	0xbd1a6aa6	-0.037699364
148	0x3bb5562d	0.0055339546
149	0x3c47e118	0.012199663
150	0xbe638b8d	-0.22221203
151	0xbd9ce6d5	-0.07661215
152	0x3c942f10	0.018088847
153	0xbd8df6c6	-0.06931834
154	0xbe6521b5	-0.2237614
155	0x3ae19089	0.0017209213
156	0xbc06c6e4	-0.00822613
157	0x3c8efc8a	0.017454404
158	0x3c2a9083	0.010410431
159	0xbdead98c	-0.11467275
160	0xbd0d44bb	-0.034489375
161	0xbdb7de7e	-0.08977984
162	0xbdb5b70b	-0.08872803
163	0x3bca3bb1	0.0061716666
164	0xbcdd90b1	-0.027046533
165	0x3ac1804e	0.0014762969
166	0xbc747812	-0.014921205
167	0x3d7efbd7	0.062251892
168	0x3d8e7053	0.06955018
169	0xbde66afa	-0.11250873
170	0x3e5bd22c	0.21466893
171	0x3da99376	0.08280079
172	0x3d1ddb0c	0.038538978
173	0xbcf9722a	-0.030449945
174	0x3e161671	0.14656998
175	0x3dca5e35	0.0988125
176	0x3d981875	0.0742654
177	0x3dd9b611	0.106304295
178	0xbce7c83a	-0.028293718
179	0xbe4d1632	-0.20027998
180	0xbd46478b	-0.048408072
181	0xbd9eb5df	-0.07749533
182	0x3d9e0861	0.07716442
183	0xbe73e3d7	-0.23817383
184	0x3d1bec0d	0.038066912
185	0xbe0e67d9	-0.13906802
186	0xbd483b0e	-0.048884444
187	0xbd3ae3e7	-0.0456275
188	0x3d96cd9f	0.07363438
189	0xbaef85ab	-0.0018274089
190	0x3dcbb02b	0.09945711
191	0xbd3a8e14	-0.045545653
192	0xbe08ff62	-0.13378671
193	0x3c681406	0.01416493
194	0xbdfdb764	-0.123884946
195	0x3d6c8e60	0.057752967
196	0x3a7e8729	0.00097094715
197	0xbdfdbac0	-0.12389135
198	0xbc9734f6	-0.01845787
199	0xbde5d9bb	-0.112231694
200	0xbd65a1e2	-0.056062587
201	0x3e8097e3	0.2511588
202	0xbd107c4b	-0.035274785
203	0xbd7ced55	-0.061749775
204	0x3e246d0a	0.1605722
205	0x3c383379	0.011242741
206	0x3e018466	0.12648162
207	0x3da8bf13	0.082395695
208	0x3db8f4a6	0.09031038
209	0x3c194eb0	0.0093571395
210	0x3d913375	0.07089893
211	0xbdd00fc9	-0.10159261
212	0xbe03afef	-0.12860082
213	0x3c37092f	0.011171623
214	0xbe17a3e1	-0.14808609
215	0xbcb1f0b6	-0.021721225
216	0xbd442c16	-0.047893606
217	0xbc844b4e	-0.01614919
218	0x3e0126e9	0.126125
219	0xbda64276	-0.08118145
220	0x3d5d1a78	0.05398032
221	0xbc2068ec	-0.00979064
222	0xbc6451b8	-0.013935499
223	0x3d3b2b27	0.04569545
224	0xbd6d99be	-0.058007948
225	0x3d2d4f84	0.04231216
226	0xbdd7b40a	-0.105323866
227	0xbcde7a53	-0.027157938
228	0x3c1bc3a0	0.00950709
229	0x3e26f5a4	0.16304642
230	0x3e03697f	0.12833212
231	0x3e3a6aa8	0.18204749
232	0x3abc86a3	0.0014383387
233	0xba0dc72c	-0.0005408402
234	0x3e04c51c	0.12965816
235	0xbe709bbf	-0.23496912
236	0xbc51ecec	-0.012812834
237	0x3d73d1d9	0.0595263
238	0x3d4ff097	0.050766554
239	0xbe000ad3	-0.12504129
240	0xbd270396	-0.040774904
241	0xbd77fd48	-0.060544282
242	0xbe1e2e37	-0.15447317
243	0xbb0451c8	-0.0020190347
244	0x3ddd6d78	0.10811895
245	0x3e0bce2e	0.1365287
246	0x3d223962	0.039605506
247	0xbb90d94a	-0.004420434
248	0xbccf2853	-0.025287783
249	0xbd7fc737	-0.062445845
250	0x3db29af1	0.08720959
251	0xbd989724	-0.07450703
252	0xbd79324b	-0.06083898
253	0xbe3c9bda	-0.18418828
254	0xbe68ae05	-0.22722633
255	0xbdc70ff1	-0.097198375

proj.0.bias f4 [8]
0	0x401dc0bb	2.4648883
1	0x3e8fffcc	0.28124845
2	0x3ed36edf	0.41295525
3	0x4006d5d7	2.1068017
4	0x3fb9e807	1.4523934
5	0x3f35f182	0.71071637
6	0x402c7b6e	2.6950336
7	0x4012d4a8	2.2942295

proj.2.weight f4 [192, 8]
0	0xbdb49ef5	-0.08819381
1	0xbe3ecb5c	-0.18632263
2	0x3e13991f	0.1441388
3	0xbeb93600	-0.3617401
4	0x3d784a3c	0.06061767
5	0x3daf6f43	0.08566143
6	0xbf10aafc	-0.565109
7	0x3de3c61f	0.11121773
8	0x3dd77118	0.10519618
9	0x3e20b66c	0.15694588
10	0xbe783b9d	-0.2424149
11	0x3ef7a178	0.48365378
12	0xbe13fe73	-0.14452533
13	0xbe2214ab	-0.15828197
14	0x3f337e22	0.7011434
15	0xbddbc31f	-0.10730576
16	0xbdcc5a72	-0.099781886
17	0xbe3bea59	-0.18351115
18	0x3e153b3e	0.1457338
19	0xbeca5e5e	-0.3952512
20	0x3d661f7a	0.056182362
21	0x3dd4a9a4	0.10383919
22	0xbf1beb70	-0.60906124
23	0x3dc54d18	0.09633845
24	0xbd19ea08	-0.037576705
25	0xbe569d28	-0.20958388
26	0x3db92ddf	0.09041952
27	0xbe0fcabd	-0.14042182
28	0x3daf0966	0.085467145
29	0x3e20ae35	0.15691455
30	0xbea4ade9	-0.32163933
31	0xbd0b31a2	-0.03398288
32	0x3d739f61	0.059478167
33	0x3e6446a2	0.2229257
34	0xbe043cba	-0.1291379
35	0x3e44967c	0.1919803
36	0xbe05df5f	-0.1307349
37	0xbe4fed57	-0.20305382
38	0x3ec76291	0.38942388
39	0xbc48717f	-0.012234091
40	0xbd5e26f0	-0.054236352
41	0xbe5764a0	-0.21034479
42	0x3dabf65a	0.08396597
43	0xbe2ffde5	-0.17186697
44	0x3dc48121	0.09594942
45	0x3e3076de	0.17232844
46	0xbea6fd56	-0.32615155
47	0xbce7c379	-0.02829145
48	0xbd824743	-0.06361248
49	0xbe5d862f	-0.21633218
50	0x3dc6e148	0.09710938
51	0xbd81e143	-0.063417934
52	0x3dc37095	0.09542958
53	0x3e028a61	0.127481
54	0xbe437bdf	-0.19090222
55	0xbc084f49	-0.008319684
56	0x3d093b14	0.033503607
57	0x3e81232b	0.25222144
58	0xbdddcb11	-0.108297475
59	0x3dcc5403	0.099769615
60	0xbe310e11	-0.17290522
61	0xbe0fe804	-0.1405335
62	0x3e6711da	0.22565404
63	0xbd299500	-0.041401863
64	0xbd9b23a5	-0.07575158
65	0xbe66d3ac	-0.22541684
66	0x3dbe839f	0.093024485
67	0xbda07e1a	-0.07836552
68	0x3dd06d21	0.10177065
69	0x3e01fe9f	0.12694786
70	0xbe495680	-0.19661903
71	0x3b488d6c	0.0030601872
72	0xbdbfe5f6	-0.093700334
73	0xbe823420	-0.25430393
74	0x3d8dfa84	0.06932548
75	0xbd86247e	-0.06549929
76	0x3e139b12	0.14414623
77	0x3e275551	0.1634114
78	0xbe3d0b98	-0.18461454
79	0xbd67a90f	-0.05655771
80	0xbc4f3764	-0.0126474835
81	0x3e8f8375	0.2802998
82	0xbdcae234	-0.09906426
83	0x3e01e226	0.12683925
84	0xbe4964b8	-0.19667327
85	0xbe75b86a	-0.2399613
86	0x3e48ef18	0.19622457
87	0x3d4eaf09	0.050459895
88	0xbdd3928c	-0.10330686
89	0xbe848e5d	-0.25889865
90	0x3d894016	0.067016765
91	0xbda56b30	-0.08077085
92	0x3e15dbec	0.14634675
93	0x3e2b1c5f	0.16710041
94	0xbe406163	-0.1878715
95	0xbd7f8558	-0.062383026
96	0xbd804263	-0.06262662
97	0xbe8358d8	-0.2565372
98	0x3d825681	0.063641556
99	0xbdaddc3b	-0.08489271
100	0x3e12a0fc	0.14319223
101	0x3df1b140	0.11801386
102	0xbe32b397	-0.1745132
103	0xbd94410f	-0.072389714
104	0x3c0cb538	0.008588128
105	0x3e986213	0.29762325
106	0xbd083c40	-0.033260584
107	0x3e1c40dd	0.15259118
108	0xbe86d486	-0.26334018
109	0xbe7a302a	-0.24432436
110	0x3e015d78	0.12633312
111	0x3e116a36	0.14200673
112	0xbd9f79d4	-0.07786909
113	0xbe864492	-0.2622419
114	0x3d755ebc	0.0599048
115	0xbdd136bd	-0.102155186
116	0x3e1886b1	0.1489513
117	0x3e07b9e7	0.1325451
118	0xbe3c4a87	-0.18387805
119	0xbd991b49	-0.07475907
120	0xbd766580	-0.06015539
121	0xbe7c6ed6	-0.24651656
122	0x3d7778b9	0.060417864
123	0xbd99ed3f	-0.07515954
124	0x3e117587	0.1420499
125	0x3df2aeaf	0.118497245
126	0xbdaef221	-0.08542276
127	0xbe115323	-0.1419187
128	0x3d855184	0.065096885
129	0x3e90e2c9	0.28298023
130	0xbd24d810	-0.040245116
131	0x3d83a40b	0.06427773
132	0xbe7609bf	-0.24027155
133	0xbe681df5	-0.22667678
134	0x3da74ab7	0.081685476
135	0x3e4081f2	0.1879957
136	0xbd90d315	-0.07071511
137	0xbe88e17d	-0.26734534
138	0x3d601b62	0.054713614
139	0xbdc810ff	-0.09768867
140	0x3e167f46	0.14696988
141	0x3e07e7e7	0.13272057
142	0xbdc9d3f0	-0.09854877
143	0xbe21f3f5	-0.15815718
144	0xbdfd66f9	-0.12373156
145	0xbe5b467b	-0.21413605
146	0x3d4ea65c	0.05045162
147	0xbdee47da	-0.11634798
148	0x3ddd1a82	0.107960716
149	0x3e464bec	0.193649
150	0xbe1d130d	-0.15339299
151	0xbe8441ed	-0.25831547
152	0x3df112fb	0.11771198
153	0x3e714f32	0.23565367
154	0xbde65138	-0.1124596
155	0x3dad165b	0.084515296
156	0xbe78212f	-0.24231409
157	0xbe88f46e	-0.26748985
158	0x3e2bc557	0.16774498
159	0x3e9d5867	0.30731508
160	0xbe195aa6	-0.14975986
161	0xbe7eb3d5	-0.24873288
162	0x3d3a7a18	0.045526594
163	0xbe1471ae	-0.1449649
164	0x3df13dbb	0.11779352
165	0x3e6308e5	0.22171362
166	0xbe30cf5c	-0.17266601
167	0xbe8f9887	-0.28046057
168	0xbe8126f4	-0.2522503
169	0xbe2ae0df	-0.16687344
170	0x3e0489a3	0.12943129
171	0xbde1d09b	-0.110261165
172	0x3e0276ad	0.12740584
173	0x3e3d7af8	0.1850394
174	0xbe4fb32f	-0.20283197
175	0xbef5fbb1	-0.48043588
176	0x3ebb3d2f	0.36570117
177	0x3e4236cc	0.18966216
178	0xbe6d6451	-0.23182799
179	0x3e18861d	0.1489491
180	0xbe681714	-0.22665054
181	0xbe86b652	-0.26310974
182	0x3e684207	0.22681437
183	0x3efc0a1c	0.49226463
184	0xbe97aa78	-0.29622245
185	0xbe4853a5	-0.19563158
186	0x3dfb2ad2	0.12264027
187	0xbdfe5244	-0.12418035
188	0x3ded3581	0.11582471
189	0x3e5d1ae5	0.2159229
190	0xbe67b7a7	-0.22628652
191	0xbef6710e	-0.4813313
192	0x3cbbf220	0.022942603
193	0xbdfdb1d4	-0.12387434
194	0x3e1cd37b	0.15315048
195	0xbd4ad265	-0.049517054
196	0x3ce835b6	0.028345924
197	0xbe05a05a	-0.1304945
198	0xbed02909	-0.40656307
199	0x3d19182f	0.03737658
200	0xbc62b195	-0.013836284
201	0x3e0379d7	0.12839447
202	0xbe90187e	-0.28143686
203	0x3d2453af	0.04011887
204	0xbdee4285	-0.11633781
205	0x3da4d390	0.08048165
206	0x3ef05232	0.4693771
207	0xbd75708f	-0.059921797
208	0x3cd96a46	0.026539933
209	0xbdcec00a	-0.10095222
210	0x3e1cb0b8	0.15301788
211	0xbd0c6c64	-0.034283057
212	0x3cb72c84	0.022360094
213	0xbe10f0fa	-0.14154425
214	0xbecddae1	-0.40206054
215	0x3ca9ef29	0.020743923
216	0xbd643645	-0.055715818
217	0xbe191220	-0.1494832
218	0x3dc7e004	0.097595245
219	0xbe86d060	-0.26330853
220	0x3dae9cf9	0.08526034
221	0x3d8c6bc4	0.06856492
222	0xbed7173f	-0.42009923
223	0x3d1c8fd6	0.03822311
224	0x3cc6ad24	0.024252482
225	0x3e2f3739	0.1711091
226	0xbe80f74c	-0.25188673
227	0x3e998a90	0.29988527
228	0xbdc21d82	-0.094782844
229	0xbda794aa	-0.08182652
230	0x3f071d62	0.5277921
231	0xbd8cdacc	-0.0687767
232	0xbd76fd6e	-0.060300283
233	0xbe169884	-0.14706618
234	0x3dd1a8f6	0.10237305
235	0xbe7b1eb3	-0.2452343
236	0x3d956014	0.07293716
237	0x3d8ea1dc	0.06964466
238	0xbed88d89	-0.42295483
239	0x3d0db803	0.034599315
240	0xbda86b08	-0.082235396
241	0xbe32e462	-0.17469934
242	0x3da44b93	0.08022227
243	0x3a95163f	0.0011374428
244	0x3ddb4523	0.10706546
245	0x3d8495f2	0.06473912
246	0xbe33d15f	-0.17560337
247	0x3dcd5a6c	0.10027012
248	0xbbf92c44	-0.007604154
249	0x3e6d307d	0.23163028
250	0xbe2e987b	-0.17050354
251	0x3cf07f11	0.029357465
252	0xbcd67c99	-0.02618246
253	0xbd9c9bdd	-0.07646916
254	0x3e80bd4b	0.2514442
255	0xbe2d01b3	-0.1689518

proj.2.bias f4 [192]
0	0xbebd039d	-0.3691682
1	0x3e8abadc	0.27095687
2	0xbe1b0794	-0.1513961
3	0xbf29612a	-0.66163886
4	0x3f491284	0.7854388
5	0xbf0f55e0	-0.5599041
6	0xbef3f1a8	-0.47645307
7	0x3f39a295	0.72513705
8	0xbecc9059	-0.3995388
9	0xbeb8612d	-0.3601164
10	0x3f04f48b	0.5193564
11	0xbe850761	-0.25982192
12	0xbdb11e9f	-0.08648419
13	0x3cd8e16c	0.026474677
14	0xbcc1c8d9	-0.023655342
15	0xbe689309	-0.2271234
16	0x3e4eebfb	0.20207207
17	0xbdc0c07a	-0.09411712
18	0xbef4f365	-0.47841945
19	0x3f06cb6b	0.5265414
20	0xbeb7675e	-0.3582105
21	0xbea388e8	-0.3194039
22	0x3e5b17d0	0.21395802
23	0xbd9287fd	-0.07154844
24	0xbf36f961	-0.7147427
25	0x3f62358b	0.8836295
26	0xbf2e2728	-0.680285
27	0xbe6a2baf	-0.22868226
28	0x3e836f0e	0.25670666
29	0xbe858c03	-0.26083383
30	0xbe4dd8f4	-0.20102292
31	0x3eed112a	0.46302158
32	0xbe6fb12f	-0.23407434
33	0x3eb89f15	0.3605887
34	0xbf4d4306	-0.80180395
35	0x3e9bfc9e	0.3046617
36	0x3f259395	0.6467832
37	0xbfcd72c0	-1.6050644
38	0x3f1b0de4	0.6056807
39	0x3e3e44cd	0.18580933
40	0xbebe3f2b	-0.37157568
41	0x3d9f44a7	0.07776766
42	0xbdeea325	-0.11652211
43	0x3dfa3b52	0.12218346
44	0xbdb48fec	-0.088165134
45	0xbf011f35	-0.50438243
46	0x3f08764f	0.53305525
47	0xbea4e53f	-0.3220615
48	0xbe640cc1	-0.2227049
49	0x3ef82c11	0.4847112
50	0xbebb19c0	-0.36543083
51	0xbe55a51b	-0.20863764
52	0x3f38c89d	0.7218111
53	0xbee1898c	-0.44050252
54	0x3e9bdd25	0.30442157
55	0xbd57f172	-0.052720495
56	0xbd653319	-0.055956934
57	0x3e9ca14d	0.30591813
58	0xbe9ce972	-0.30646855
59	0x3de80d7e	0.113306984
60	0x3ef10d5c	0.47080505
61	0xbf67b7ea	-0.90515006
62	0x3eb607db	0.35552868
63	0x3eb8115d	0.35950747
64	0xbf56cdcb	-0.83907765
65	0x3ef09335	0.4698731
66	0x3e8879ce	0.2665543
67	0xbedcbd23	-0.4311305
68	0x3e2c3746	0.1681796
69	0xbdb435b5	-0.08799306
70	0x3e4979dd	0.19675393
71	0xbde7e32d	-0.11322627
72	0xbe751793	-0.23934774
73	0x3ec60bd9	0.38680914
74	0xbe753e20	-0.2394948
75	0x3e7110d0	0.2354157
76	0xbe8a72f5	-0.2704083
77	0x3d815ebf	0.063168995
78	0x3d676319	0.05649099
79	0xbec8528c	-0.39125478
80	0x3ea4deb2	0.32201153
81	0x3e950a82	0.2910958
82	0xbe1c3703	-0.1525536
83	0xbd7498eb	-0.059716146
84	0x3dc4c841	0.09608508
85	0xbe1eecd4	-0.1552003
86	0x3e1232fc	0.14277261
87	0x3ebd7207	0.37001058
88	0xbf62d953	-0.8861286
89	0x3ef0adc8	0.47007585
90	0x3e822972	0.25422245
91	0xbedb1a68	-0.42793584
92	0x3e66afb7	0.22527967
93	0xbcb3251f	-0.021868287
94	0x3d94c373	0.072638415
95	0xbbc1a34e	-0.00590936
96	0xbe304b33	-0.17216186
97	0x3e5b2713	0.21401624
98	0xbda24024	-0.0792239
99	0x3e8bc5c9	0.27299336
100	0xbf044299	-0.5166412
101	0x3e850b90	0.25985384
102	0x3f1a2319	0.60209805
103	0xbf93837a	-1.1524498
104	0x3ec2cc75	0.38046613
105	0x3e016498	0.1263603
106	0xbe25fa4e	-0.16208765
107	0x3dfc68d8	0.12324685
108	0x3eab2d84	0.33433163
109	0xbe1a653d	-0.15077682
110	0xbde32789	-0.11091525
111	0x3ec3403a	0.38134938
112	0xbf282523	-0.65681666
113	0x3eac5485	0.33658233
114	0x3ea0988b	0.3136638
115	0xbedea4a2	-0.4348498
116	0x3e5bcee0	0.21465635
117	0xbda7e8cc	-0.08198699
118	0x3dcf7a97	0.10130804
119	0x3c05dbea	0.008170107
120	0xbe79dacd	-0.24399872
121	0x3ea1dda1	0.31614402
122	0xbe33b226	-0.17548427
123	0xbe000cc1	-0.12504865
124	0x3e0fa67c	0.14028352
125	0xbb3b5102	-0.002858222
126	0x3e231d15	0.15929063
127	0xbeb4523f	-0.35219
128	0x3ea27027	0.3172619
129	0x3ed0fb3e	0.40816683
130	0xbf4f0f79	-0.80882984
131	0x3eee1110	0.46497393
132	0x3f015773	0.5052406
133	0xbf8030dc	-1.0014911
134	0x3efffb27	0.49996302
135	0x3ed98354	0.42483008
136	0xbf08fc4e	-0.53509986
137	0x3e377639	0.17916192
138	0xbd4b42ef	-0.04962438
139	0x3eaa9cff	0.33322904
140	0xbe3160bb	-0.17322056
141	0xbd996b7d	-0.07491205
142	0x3e5b5a16	0.21421084
143	0xbe165859	-0.1468214
144	0xbeb30ba6	-0.34969825
145	0x3eb1d369	0.34731606
146	0xbe839115	-0.25696626
147	0xbd675aa1	-0.056482915
148	0xbd8c3f58	-0.06848019
149	0x3cca4b04	0.024693973
150	0xbdc137e6	-0.0943449
151	0x3e1220f7	0.14270388
152	0xbdc444bb	-0.09583422
153	0x3e8d024a	0.2754081
154	0xbf12899c	-0.57241225
155	0x3e51f7b8	0.20504653
156	0x3ec6c80b	0.38824496
157	0xbf136eba	-0.5759083
158	0x3e668cd4	0.22514659
159	0xbb9d125b	-0.004793448
160	0x3e0ca017	0.13732944
161	0xbcad5421	-0.02115828
162	0xbe5c3a66	-0.21506652
163	0x3e049120	0.12945986
164	0xbd52d034	-0.05146809
165	0xbeb04b56	-0.34432477
166	0x3ec9ab04	0.39388287
167	0xbe8d177a	-0.27556974
168	0x3dc3bf1b	0.09557935
169	0xbe7d3edc	-0.2473101
170	0x3e465a06	0.19370279
171	0xbea0de9c	-0.31419837
172	0x3edcdd50	0.43137598
173	0xbee0420f	-0.438004
174	0xbe3cb2f6	-0.18427643
175	0x3e84ab60	0.25912
176	0xbe41d624	-0.18929344
177	0xbd958f82	-0.073027626
178	0x3e0dbc12	0.13841274
179	0xbdd9356f	-0.10605895
180	0xbdfdfbd6	-0.124015495
181	0x3e5bbdef	0.21459173
182	0xbe01e1fa	-0.1268386
183	0xbe0125aa	-0.12612024
184	0x3e9fd311	0.31215718
185	0xbe9061e5	-0.28199688
186	0xbf0dc41b	-0.5537736
187	0x3f354389	0.70806175
188	0xbf0fb97f	-0.5614242
189	0xbd5e19d2	-0.054223843
190	0x3cb96cf9	0.02263497
191	0xbd7932d5	-0.060839493
