EWOthello/ckpts/DeanModels copy/linearProbe_Map_new_8L8H_GPT_Layer1.ckpt (torch, 395287 bytes, 2 tensors)

proj.weight f4 [192, 512]
000000 a1 fc be 3e e6 b3 c6 3e 3a ce 0e bf 85 c1 ac 3d
       0.37302116 0.38809127 -0.55783427 0.084353484
000010 d5 d7 36 3f 53 e9 2d bf d9 87 91 3e 51 fb 44 3f
       0.71423084 -0.6793415 0.28423956 0.7694598
000020 a5 73 9d bd 61 af 01 3f e5 c8 1b be 56 58 bf be
       -0.07688073 0.5065823 -0.15213354 -0.37372082
000030 53 2c c7 3e 28 5f 3c be 77 fd 01 3d ec 1a b6 be
       0.38901004 -0.18395674 0.031735864 -0.35567415
000040 a8 9f 07 3e eb 7d 58 bf d3 84 db 3e be e9 92 3e
       0.13244498 -0.84567136 0.42874774 0.28693956
000050 64 dd cc 3d 6a 1f b2 bc 14 f5 ff be 78 58 d9 be
       0.100031644 -0.021743495 -0.49991667 -0.4245031
000060 35 9b 91 3e 10 63 25 bf 75 48 36 be 8c dc 19 bf
       0.28438726 -0.6460428 -0.17801078 -0.6010215
000070 7a f2 3a be 0e e7 0e 3f f1 24 f6 be b9 7e 04 bf
       -0.1825656 0.5582131 -0.4807506 -0.51755863
000080 f0 ee d7 be e1 42 ff 3d 3c 88 09 be 7a b7 4c bf
       -0.42174482 0.12463928 -0.13430876 -0.79967463
000090 66 ee 2c 3f 78 20 33 be 80 29 cf 3e f5 c6 7d 3e
       0.6755127 -0.17492855 0.4046135 0.24782927
0000a0 43 61 25 bf a9 85 ed 3e 64 23 8f be 80 41 b9 3e
       -0.64601535 0.46391037 -0.27956688 0.36182785
0000b0 0b f6 23 3f 96 bc d6 3d b6 b8 29 bf 4b 2d 06 3f
       0.64047307 0.10485189 -0.6629747 0.5241286
0000c0 fe 12 59 bd d5 55 1c be 1b 5a a1 3e bd 8d 0c 3e
       -0.052996628 -0.15267117 0.31514058 0.13725944
0000d0 da cf cf be f3 bf cf 3d 63 b6 a0 be 5f cc 06 3f
       -0.40588266 0.10144033 -0.3138915 0.52655596
0000e0 c1 fa 33 be 5a 5f 3b 3e 4b 16 b7 be b1 2d e0 3e
       -0.17576124 0.18298092 -0.35759196 0.4378486
0000f0 1e 92 9f be 5a a4 39 3f 04 50 23 bf d7 f6 3e 3e
       -0.31166166 0.72516406 -0.6379397 0.1864885
000100 5c 0b 49 be e9 d0 29 be 41 f2 21 bf 87 1a 3e 3f
       -0.1963324 -0.16583599 -0.63260275 0.7425923
000110 a5 48 14 3e 35 fa 08 3f d0 b4 23 be 1e c9 14 3e
       0.14480837 0.53506786 -0.15986943 0.14529845
000120 6e 17 68 bf d8 12 81 be fe d2 2b be 05 0e 44 be
       -0.9066075 -0.2520969 -0.16779706 -0.19145973
000130 b6 cb 18 3f 40 b9 4f 3f 48 34 0e bf 20 11 33 bf
       0.5968584 0.81142044 -0.55548525 -0.69948006
000140 aa c6 56 3e 8c 6b cc be 33 fa 35 3f d6 91 55 3e
       0.20974222 -0.39925802 0.710849 0.20856413
000150 47 b4 bd 3e 94 67 15 bf 87 22 1c bf b7 c7 8a 3e
       0.37051603 -0.5836117 -0.60990185 0.27105495
000160 0d 11 0d bf 78 09 21 bd 02 36 73 be 6b e5 9b 3e
       -0.5510414 -0.03931567 -0.23751071 0.3044847
000170 04 3d df 3e e8 16 63 3f 60 4f 8a 3d f1 9e b9 be
       0.4360124 0.8870683 0.06753421 -0.36254075
000180 8b 83 35 be 3e 9f 0e bf 92 75 15 be 95 9b 52 3e
       -0.17725961 -0.55711734 -0.14595631 0.20567162
000190 88 3e 95 3e f1 bf 08 3f 41 b6 53 3f 02 67 00 bf
       0.2914927 0.5341788 0.8269997 -0.5015718
0001a0 7b 7e 15 3f 1c 2e e1 3e 55 e7 75 3e 71 3f 00 3f
       0.5839612 0.4398049 0.24014027 0.50096804
0001b0 c1 22 35 3f 2d 6a c7 3e 2a c9 38 bf b3 9f da be
       0.70756155 0.38948193 -0.7218195 -0.42699966
0001c0 04 b9 83 bd 04 da 24 3e 54 08 b5 3d 48 e1 2d bf
       -0.06431773 0.16098791 0.08839479 -0.67921877
0001d0 59 aa 57 3e f5 1f f5 3e 8c 6a aa be 22 1a 32 bf
       0.21061076 0.47875944 -0.33284414 -0.69571126
0001e0 1a 7e df 3d 0e 41 c5 be 37 cb 06 bf 9f 62 18 be
       0.10912724 -0.38526195 -0.5265383 -0.14881371
0001f0 84 7d 59 3f 39 c0 87 be 35 f3 3c be 7f 0d d4 3e
       0.84957147 -0.26513842 -0.18452151 0.41416547
000200 9c d7 e9 3e 72 fc 64 3d 0a 57 06 3f ee 64 89 3e
       0.4567231 0.055904813 0.5247656 0.26834816
000210 aa f0 bb be 05 3c 1e be 41 cf 1b 3e ba c1 3c 3f
       -0.3670705 -0.15452583 0.1521578 0.73733103
000220 71 f5 7b be 07 05 82 3e 09 d4 c5 be 51 4a d0 3e
       -0.24605347 0.2539446 -0.38638332 0.406817
000230 b6 54 0f 3f 43 9d 36 bf b6 d0 e7 bd 38 50 0b 3f
       0.55988634 -0.7133371 -0.11319105 0.5441928
000240 73 e3 1a 3f 8d 23 27 bf 5d 73 d6 3e 02 31 db 3d
       0.6050331 -0.6528862 0.4188489 0.10702707
000250 3f 87 45 3e 2c 02 19 3f 56 79 d9 3e 7e cd 6a 3d
       0.19289874 0.5976894 0.42475384 0.05732488
000260 ee 6b 8b 3e c3 51 49 be 13 53 4d bc a0 57 cf bd
       0.2723078 -0.19660096 -0.0125320135 -0.10124135
000270 1d a1 3c 3f 5e 05 15 bf 93 28 8e 3e 7d d0 2f be
       0.7368334 -0.58211315 0.2776533 -0.17169376
000280 26 08 1c be 4b 3f ac 3e 86 ee c1 3d b6 72 ce 3e
       -0.15237483 0.3364204 0.09469323 0.40321892
000290 5a b7 3f bf 54 bf 0a 3f 22 e9 57 3f 32 5f 77 be
       -0.7488915 0.54198194 0.8434011 -0.24157408
0002a0 69 f1 43 3e 8d cf 1d be d5 65 77 3f 6d 62 42 bd
       0.1913506 -0.15411206 0.9663976 -0.047457147
0002b0 b7 2b e1 be 77 8b d3 be a9 c1 d0 3e be 3d 25 bf
       -0.43978664 -0.4131734 0.4077275 -0.64547336
0002c0 40 be ca be f6 cd cb 3d 81 1e 31 3f d9 33 30 3e
       -0.39598274 0.09951393 0.6918717 0.17207278
0002d0 f8 df 42 bf 4c 32 36 3f b3 b7 fc bd 65 83 41 3f
       -0.76123 0.71170497 -0.12339725 0.7559112
0002e0 15 bf 16 bf 7f 6c de 3e 58 cd 72 3e 89 0f cf 3e
       -0.5888532 0.4344215 0.23711145 0.4044154
0002f0 aa 4a 6a 3e 66 df 0a 3e 98 06 87 3d 4c 2e ea bd
       0.22880045 0.13561782 0.065930545 -0.11434612
000300 0c d4 64 bc 78 45 d2 bd 73 84 44 3f ae 7a 0f 3d
       -0.013966572 -0.10267156 0.767646 0.035029106
000310 78 44 fc be 55 38 c5 3e 15 a7 5c be 5c a4 55 3c
       -0.49270988 0.3851954 -0.21548112 0.013039675
000320 5a fa f0 3d 3b 20 1e 3f b3 18 24 3f b2 dd 3f 3d
       0.11766501 0.6176793 0.6410019 0.046842285
000330 05 ea 29 bf 1f 01 1a bf 2d c4 db 3e 80 42 6a be
       -0.6637271 -0.6015796 0.42923108 -0.2287693
000340 43 bd 90 be 62 02 02 3e 2e 6d 4b be de 7e c0 3e
       -0.28269395 0.12696221 -0.19865867 0.37596792
000350 ef 9e 48 bf fd e1 da 3e ce 8a 0e bf ef d3 53 3f
       -0.78367513 0.4275054 -0.5568055 0.8274526
000360 e9 80 18 bf a4 f9 1e be 3a f6 d0 3d be 43 8a 3e
       -0.595717 -0.15524918 0.10203214 0.27004808
000370 5f e7 2c bf 61 16 3e be fa c2 f4 be f3 41 65 3f
       -0.67540544 -0.18563224 -0.47805005 0.89553756
000380 7f ce f6 bd 1f 19 1a 3f 78 db 2c 3e a6 e0 f7 be
       -0.12051105 0.6019458 0.16880596 -0.4841358
000390 c7 1d 9f be e2 e1 cf 3e b5 eb 53 be 0b d4 08 bf
       -0.31077406 0.40602022 -0.20695384 -0.5344855
0003a0 9e 17 b5 3e bf 6c 0c 3f 98 b9 0c 3f 94 0e 22 bf
       0.3536958 0.54853433 0.54970694 -0.63303494
0003b0 91 24 ed be 74 43 05 bf a7 15 09 3f dd 9b 11 3c
       -0.4631696 -0.5205605 0.53548664 0.008887258
0003c0 8c f9 d2 3e 79 0d a3 3e 77 26 09 be 9a b7 f0 3d
       0.41206014 0.31846216 -0.1339358 0.11753769
0003d0 58 55 d7 bd 2f ba 10 3e b2 fb f2 3e 0d b6 36 3e
       -0.10514325 0.14133523 0.47457653 0.17842884
0003e0 43 74 19 be 1a 24 63 3d 1a ca f0 be 6b 6f b7 3e
       -0.14985757 0.05545435 -0.4702919 0.35827193
0003f0 aa 53 0e bf e4 d2 9c 3e 54 86 e8 3e 95 c1 bc be
       -0.5559641 0.30629647 0.45414984 -0.3686644

proj.bias f4 [192]
000000 a8 f1 77 be af da 69 3e 68 2a 59 be ef 43 80 be
       -0.24213278 0.22837327 -0.21207583 -0.2505183
000010 97 7e 6c 3e 6c 33 58 be 2e d2 5c be 53 8b 55 3e
       0.23095165 -0.21113366 -0.21564552 0.20853929
000020 e3 5a 4c be 3d f1 65 be 2b 13 6a 3e 72 65 6e be
       -0.19956546 -0.22455306 0.22858874 -0.23280886
000030 69 3d 77 be 73 92 64 3e 11 2f 4d be 43 1f 78 be
       -0.2414452 0.22321491 -0.20037486 -0.24230675
000040 27 f6 6a 3e da ba 5b be b1 cb 7a be 51 18 71 3e
       0.22945462 -0.21457997 -0.24491765 0.23544432
000050 82 50 66 be b0 61 80 be 64 6f 7d 3e a9 d0 79 be
       -0.22491649 -0.2507453 0.24749523 -0.24396004
000060 44 7f 7d be e7 d7 6f 3e 5d dc 60 be b8 99 4a be
       -0.24755579 0.23422204 -0.21959062 -0.19785202
000070 1b c2 25 3e 84 8b f1 bd 07 2d 23 bd c3 f5 7e 3b
       0.16187327 -0.117941886 -0.039837863 0.003890381
000080 ed 51 81 3d 0d 77 e7 bc e8 69 cc bc 92 96 ee 3d
       0.06314454 -0.02825501 -0.024952844 0.11649813
000090 5a b5 fd bd 6c d6 e9 3c 71 42 66 3e c0 91 07 be
       -0.12388106 0.028544627 0.22486283 -0.13239193
0000a0 26 62 d1 3d 04 4e 74 3c a0 95 51 be eb 6f 31 3e
       0.102237985 0.0149111785 -0.20467234 0.1732785
0000b0 c9 e1 07 be 7f 14 6c be e1 fd 5f 3e be 0b 51 be
       -0.13269724 -0.23054694 0.21874191 -0.20414636
0000c0 12 30 88 be b1 0c 76 3e fe 6d 56 be 34 a7 09 be
       -0.26599175 0.24028279 -0.20940396 -0.13442689
0000d0 43 86 50 3d ef ed 90 3e dd 1f a2 3e 61 b5 9f be
       0.050909292 0.2830653 0.31664935 -0.3119307
0000e0 2f f0 9b 3e 4d b1 a8 3e eb d8 9e be 89 54 96 3e
       0.30456683 0.3294777 -0.3102487 0.2936137
0000f0 53 2e 98 3e 76 d0 9c be 8f 27 94 3e ea 04 d8 3d
       0.29722843 -0.30627793 0.2893643 0.10547812
000100 bc cd a7 be cb d5 92 3e ea 4b db bd ea 98 7d 3d
       -0.3277415 0.28678736 -0.10707839 0.06191341
000110 2d 5c c7 3d 3c 55 8d be dd 04 76 3e 52 31 50 be
       0.09734378 -0.2760409 0.24025293 -0.20331314
000120 61 79 7e be f3 8a 56 3e 0c e4 2c be 03 30 84 bd
       -0.2485099 0.20951442 -0.16883868 -0.0645447
000130 19 c1 18 bc bb 87 05 3e 3d 5d a7 3e 44 a4 ab be
       -0.009323382 0.13040058 0.32688323 -0.33523762
000140 9d 25 aa 3e 85 bc 89 3e 4c c5 7e be c6 f1 73 3e
       0.33231822 0.2690164 -0.2487995 0.23822698
000150 ba d3 79 3e df 7f 7e be 08 06 80 3e 55 22 ca 3e
       0.24397174 -0.24853466 0.250046 0.39479318
000160 12 82 a6 be 75 eb 75 3e 4c 1a f5 bd df c4 fd 3c
       -0.3252111 0.24015601 -0.11967906 0.030977665
000170 ef c1 71 3e 5c ed 81 be e1 1e 58 3e 9c ad 2d be
       0.23609136 -0.25376403 0.2110553 -0.16960758
000180 a8 10 60 be ec d9 48 3e a6 d5 2b be 92 82 b6 bd
       -0.21881354 0.1961438 -0.16780719 -0.08911623
000190 70 67 0a bc 13 fe 81 3e 27 3a a8 3e 98 db 9b be
       -0.008447513 0.25389156 0.32856867 -0.30440974
0001a0 87 b1 95 3e 77 6b 7b 3e f6 56 7b be 3e a6 79 3e
       0.29237005 0.24552713 -0.24544892 0.24379823
0001b0 26 87 8c 3e 5e aa 7d be f5 42 6f 3e 6b a2 ba 3e
       0.2744686 -0.24772021 0.23365386 0.3645204
0001c0 f5 ad ad be 0d 46 a6 3e 0a c8 3d be ff a9 18 3e
       -0.3392178 0.3247532 -0.1853334 0.14908598
0001d0 d0 73 49 bd 12 40 89 be 9b ff 68 3e c7 ac 39 be
       -0.049182713 -0.26806694 0.22753756 -0.18132316
0001e0 ec ad 6a be a2 68 5e 3e e6 b1 4f be 14 26 40 be
       -0.22917908 0.21719602 -0.20282707 -0.18764526
0001f0 92 b4 f7 3d 40 b4 fd 3d a1 0a c0 3c 92 d0 cb be
       0.12094988 0.123878956 0.023442568 -0.39807564
000200 54 95 d8 3e 87 75 ba 3e d1 4c 8b be 9a 15 77 3e
       0.42301428 0.3641779 -0.27207044 0.24129334
000210 f2 fe 9d 3e 56 4e 8d be 3e 8f 83 3e ed 2b ae 3e
       0.3085857 -0.27598828 0.25695223 0.34017888
000220 64 ff a9 be f7 bf 98 3e cb 6f 02 be 56 41 91 3d
       -0.3320266 0.29833958 -0.12737958 0.0709254
000230 38 06 17 3d d2 f0 66 be 81 60 52 3e 95 28 39 be
       0.036871165 -0.22552803 0.20544626 -0.18081887
000240 91 31 6c be 2c 45 6a 3e 33 96 67 be 7e f1 4d be
       -0.23065783 0.2287795 -0.2261589 -0.20111653
000250 11 c6 29 3e f0 2e fd bd 59 19 56 be 30 45 13 3e
       0.16579463 -0.12362468 -0.20908107 0.14381862
000260 dd da 35 bc 6c c2 98 bd c6 b9 c8 3c 56 59 e7 3d
       -0.011099544 -0.07458958 0.024502646 0.11296336
000270 94 97 da bd 6e e2 6a 3d b5 65 be 3d b6 0a f5 bd
       -0.106734425 0.057344846 0.09296743 -0.119649336
000280 fa be d3 3d 68 54 0d bd 57 96 35 be f9 19 10 3e
       0.1033916 -0.034504324 -0.17733131 0.14072408
000290 26 81 ad bd f7 26 6f be 64 3a 5f 3e 79 d0 4e be
       -0.08471899 -0.23354708 0.21799618 -0.20196714
0002a0 8e 96 6e be 90 00 6f 3e 1f 52 6f be 7b 85 73 be
       -0.2329962 0.23340058 -0.2337117 -0.23781388
0002b0 9b 7b 73 3e 81 54 73 be f3 88 6a be 1a 93 6a 3e
       0.2377762 -0.23762704 -0.22903804 0.22907677
0002c0 c5 2c 6a be f5 ab 58 be d9 01 5a 3e 3c 1e 5b be
       -0.2286864 -0.21159346 0.21289767 -0.21398252
0002d0 cf 58 64 be 0c 76 5b 3e 97 5b 50 be 65 f6 6c be
       -0.22299503 0.2143175 -0.20347439 -0.23140867
0002e0 39 1f 69 3e d7 5d 64 be 1a 7f 74 be 40 46 6c 3e
       0.22765817 -0.22301422 -0.2387661 0.23073673
0002f0 cf fc 62 be a1 4f 8c be 7a 83 84 3e 0c e7 76 be
       -0.22166751 -0.27404502 0.2588156 -0.24111575
