EWOthello/KLiScripts/KLi_Paper_Checkpoints/state_tl32/layer3/checkpoint.ckpt (torch, 92819 bytes, 4 tensors)

proj.0.weight f4 [32, 512]
00000000: 7e5d e7bc 6a76 e13e 7387 dcbc 6330 bcbc
00000010: b18b c13e 09a8 d0be 19ba 86bc 0338 b23e
00000020: f04c 09bf 99d7 c5bd 1859 373c c992 0abe
00000030: 6ad5 433e 2c6f dd3d bdad c13d fb0a 8abd
00000040: 283c 6ebd b8b2 2d3c c74a d4be cb86 aa3e
00000050: 4fb7 273e 1a23 013f 8770 fabe a70f e03e
00000060: 2d2f 963e dd13 2abd 0264 5d3e 00b7 3f3e
00000070: 692b a63d 2492 1cbe 05d6 79be 881e 8a3e
00000080: bbfa 95be 6d2e 6d3f 41a5 983d 7927 2dbc
00000090: 59dd d73d 1e09 c1be ba41 98be aaad 11be
000000a0: 7f90 503d 6913 b3be 080d 9f3e b529 cd3d
000000b0: f13f 77bd 0e26 5c3e 7998 51be 5062 12bf
000000c0: 043c 6dbe 7657 223d 46a1 08be 470e b5bd
000000d0: 1c7a 70be f74c c2bc eb28 053e e358 743e
000000e0: 3683 2bbc 2aef 15bf fe1d f6bd 068a 4d3e
000000f0: 6c74 3ebb a602 adbe c553 913d f880 973d
00000100: fc20 bb3e 416a 903e 60f5 66be acbf 313e
00000110: c696 6fbe 3d59 7fbe fbc1 083e a115 6f3e
00000120: 543c 403d 3d57 02be cf8d de3d 0522 54bd
00000130: 24f5 4cbb 6d40 25be 4c8f e73e d460 503e
00000140: 28c4 90bd 0757 d2bd b444 8b3e 8dbe 85be
00000150: 0ee4 0f3e aef3 5e3e 30a3 e5ba f96b 99be
00000160: b114 59be e1e8 eabc 520b e33b 5726 efbd
00000170: 98b2 fbbd 3081 bd3e 9749 bcbe 8c3f 793e
00000180: 880c 0a3e 5ab6 aebd 7081 a03e a18d bb3d
00000190: 14f7 273e 786c 0cbc 715d 0d3f 70de 50bd
000001a0: 2ece da3e bdbf 7ebe 8c3a 9bbd 0544 04bf
000001b0: 7afc 9ebe b483 45bb 1a30 cd3e c004 be3e
000001c0: 47b8 d3bc b56d 10bf 782d f23c 9be9 043e
000001d0: 3852 a3bd ac91 e23d 3b78 6bbe 5f20 57be
000001e0: c1f1 1abe 9197 853e 95ab 683c ca6a 72bc
000001f0: 7bb4 a63d 5cc4 fcbe a6bf f6bd 5657 813e
00000200: dc35 f73d fa73 c63c 6bd8 82be 1d1f 283e
00000210: 77df 16bf c33b 0d3d 3e81 bcbe a063 f23d
00000220: fe27 4d3e e36a 74be cf66 a23e bd98 f0bd
00000230: f520 93bd 1948 0fbe f7ef 833e a033 ff3d
00000240: fdd5 46be f07c c93d 39e7 313e 5f8c bdbe
00000250: 560e c33b 04f7 003d c358 34be 349a ae3d
00000260: aedb 563d 62ac 0f3e d671 44bd ae6e 2f3d
00000270: 0fd6 1f3e 6e1a e43d ba46 d1be 427d 3cbe
00000280: 9932 4dbe 03d5 283e 9501 233e 7784 863e
00000290: 4926 0ebe 070a b8be 01b7 1cbe facb ff3e
000002a0: b738 5f3e f888 0e3e 5054 11be 8429 41bc
000002b0: 3414 92be aecb 86bd 3099 b7be 9dee 043c
000002c0: 5098 25be 65c4 afbe eb08 293e 5651 1d3e
000002d0: b229 af3e 45b4 afbd 320a f33e b9f4 073f
000002e0: 9fde 8cbe 9487 babe d47e 993e d77a 2abe
000002f0: 37b9 023e 61dd 04bc 701a c2be 2e16 babd
00000300: 08a2 f6be c7e3 0ebd 20e6 ef3d d363 9a3e
00000310: ac23 443e 331f 823c 9c24 8abe 7651 7e3e
00000320: 3c3f 063d 2ce3 893e 335d c13d 64ae 05bf
00000330: cddc f73d 8bba 493c 401a 83be b0df 013f
00000340: d4f1 65be e3a8 153e 85b7 ed3e 0e43 143c
00000350: 328d 8e3e 8139 e63d c1b0 83be b3a5 87b9
00000360: 6d22 953e 4c17 99bc 283b 54be df6a 4a3e
00000370: d531 71be fa21 89be 2432 dcbc 8ff5 13bd
00000380: 77d7 24be a5d4 22be 4463 babe b3dc 033e
00000390: f304 683e a4cb 26bf 951e 0d3d a992 4c3f
000003a0: 0e8c 3cbe 59f7 d93d 9c5e ffbd dbaa b73e
000003b0: 2191 51be 19b5 dfbc b193 78be e016 843c
000003c0: 9209 21bd 56ef a7be 7c75 663d 5913 4cbe
000003d0: 55ec 9a3e bf91 e5bd f230 37be b485 2d3e
000003e0: 2182 febe dc4c d53d 7ab2 f03e f9d5 76bd
000003f0: 9001 6ebe 745f 09be a407 5bbe 3268 e73d
-0.028242823 0.44035655 -0.026920056 -0.022972291 0.3780189 -0.407532 -0.01644616 0.3480836
-0.5363302 -0.096602626 0.011190675 -0.13532557 0.1912438 0.1081222 0.09456966 -0.067403756
-0.05816284 0.010601692 -0.414633 0.33305964 0.1637852 0.50444186 -0.48913977 0.43761942
0.29332867 -0.04152285 0.21620181 0.18722153 0.081137486 -0.15290123 -0.24398048 0.26976418
-0.29292855 0.92648965 0.07453395 -0.010568493 0.105402656 -0.37702268 -0.29737645 -0.14226404
0.050919052 -0.34975746 0.3106463 0.100177206 -0.060363714 0.21498892 -0.2046832 -0.5718126
-0.23167425 0.03963419 -0.13342771 -0.08840614 -0.23484081 -0.02371834 0.1300389 0.23862033
-0.010468295 -0.5856806 -0.12017439 0.20072183 -0.0029061092 -0.33791083 0.07096056 0.07397646
0.36548603 0.28206065 -0.2255454 0.17358273 -0.23397359 -0.24936385 0.13355248 0.23348095
0.046932533 -0.12728591 0.108668916 -0.051790256 -0.0031274045 -0.16137858 0.45226514 0.20349437
-0.07068664 -0.102705054 0.27200854 -0.2612194 0.1405184 0.21772644 -0.0017519947 -0.2996519
-0.211993 -0.028675498 0.0069288397 -0.116772346 -0.122899234 0.37012625 -0.36774895 0.24340647
0.13481343 -0.085308746 0.31348753 0.09157873 0.16402847 -0.008570783 0.55220705 -0.050993383
0.42735428 -0.2487783 -0.07579526 -0.5166629 -0.31052 -0.0030138316 0.4007576 0.37113
-0.025844706 -0.564174 0.029562697 0.12979738 -0.07974666 0.11062941 -0.22995083 -0.21008442
-0.15131284 0.26092198 0.014201065 -0.014795968 0.08139893 -0.4936856 -0.12048273 0.25261945
0.1207082 0.024225224 -0.2555574 0.16418119 -0.5893473 0.03448082 -0.36817354 0.11835408
0.20034787 -0.23868899 0.31719062 -0.117478825 -0.071840204 -0.13992347 0.25769016 0.124610186
-0.19417568 0.09838283 0.1737336 -0.37021157 0.0059526367 0.031485572 -0.17611985 0.08525506
0.052455597 0.14030603 -0.047960125 0.04283016 0.15609 0.111378536 -0.40874273 -0.18407157
-0.20038833 0.16487508 0.15918572 0.26272938 -0.13881792 -0.3594515 -0.15304185 0.4996031
0.21798979 0.13919437 -0.14192319 -0.011789683 -0.2853104 -0.065818176 -0.3585906 0.00811353
-0.16171384 -0.34329525 0.16507308 0.15363058 0.34211498 -0.085793056 0.47468716 0.5310779
-0.27513596 -0.36431563 0.29979575 -0.16648422 0.12765966 -0.0081094215 -0.37910795 -0.09086262
-0.48170495 -0.034885194 0.11713815 0.30154285 0.19154233 0.015884018 -0.26981056 0.24835762
0.03277515 0.2693113 0.094416045 -0.52219224 0.12102661 0.012312542 -0.25605965 0.50731945
-0.22455531 0.14615206 0.46429077 0.00904919 0.27842098 0.11241437 -0.2572079 -0.00025872662
0.29127827 -0.018687867 -0.20725691 0.1976733 -0.23554166 -0.26783735 -0.026879378 -0.036122855
-0.16097818 -0.1590143 -0.3640386 0.12877159 0.22658138 -0.6515448 0.034452993 0.79911286
-0.18412802 0.10642881 -0.12469217 0.3587254 -0.20465519 -0.027308034 -0.2427509 0.016124189
-0.039315768 -0.32799786 0.056264386 -0.19929256 0.30258432 -0.112094395 -0.17889765 0.16945535
-0.49708655 0.104150504 0.47011167 -0.060262654 -0.23242784 -0.13415319 -0.21389633 0.112991706

proj.0.bias f4 [32]
00000000: eefa 153f 7936 703f 2a43 233f 8e08 3e3f
00000010: 8f72 df3e fb61 013f 1af6 dc3e 3110 353f
00000020: f4b8 073f 5e02 d03e 1051 eb3e 2bd5 d33e
00000030: aa1b f03e 491a fb3e 9052 3d3f 55b2 243f
00000040: 9490 143f d17a 313f 273f e13e fd83 623e
00000050: ed97 2e3f 4113 163f 848d fc3e 7a0f 343f
00000060: 08ad cb3e 8e89 a0be a240 033f aa10 193f
00000070: 31db c63e 8cb8 273f 5a13 593f 21f6 463f
0.58586013 0.9383312 0.6377436 0.74231803 0.4364209 0.5054013 0.4315651 0.7072783
0.5301659 0.40626806 0.45960283 0.41373572 0.46896106 0.4904349 0.73954105 0.64334613
0.5803311 0.6932803 0.43993494 0.22120662 0.6820057 0.5862313 0.49326718 0.70336115
0.3978045 -0.31354946 0.51270497 0.5979105 0.38839105 0.6551597 0.84795153 0.7771931

proj.2.weight f4 [192, 32]
00000000: d375 2b3d ee7a 2b3d 09f4 d0bd ff07 f33c
00000010: c8ca e23b c16d a7bd e404 0fbe c820 8ebc
00000020: 2556 1d3e 83f1 32be 25d5 ddbd d4db 133c
00000030: fdbb 39bd 20cb ddbd 7c3f e33d b4cc 253e
00000040: ada8 09be 3ff2 713e c346 1b3e a172 083e
00000050: c4b0 b43b 76a1 853d 8bb5 24be b949 18be
00000060: 709d f33c 3d2b 36be 553e c2bc cfd1 d0be
00000070: 1fa3 cabe 8c5f 52be c6d7 df3d 34d5 443d
00000080: 19c2 0a3d 4c4f 76bd b3b3 143e 1ae8 7abc
00000090: 973d 0fbe cde0 ba3d b887 913e 0234 f8bd
000000a0: dc49 82be fafc 923e 761c eb3d 9f87 19be
000000b0: c98a 0c3d d567 653c deaa 3abe c4cc 49be
000000c0: b4a5 573e deb2 afbe cf34 4ebe 8147 a4be
000000d0: 5417 d03d 7158 19be 3e73 4f3e c677 573e
000000e0: 60b9 c3bd bcda f2bb fd56 0fbd 6449 133f
000000f0: c3c1 fa3e 64ac d93e ac7b 51bd ef74 76bd
00000100: e0d4 8d3c 39f9 633d cb6d 00be ddd9 493c
00000110: 2a3c 813d 489d adbd 50d5 c4bd c347 a53c
00000120: 2a8c 233e 0aa6 41be f354 97bd 64fd ef3c
00000130: addc 1ebd fbbb e2bd 9267 703d 95da 143e
00000140: c84f 28be 28cd 583e 85e8 ff3d eb40 1f3e
00000150: 5865 e5bc c646 423d c6d0 21be b983 44be
00000160: 2a55 4b3d c102 b53d 08d5 83bb d56b d5be
00000170: ed09 bdbe 7932 3fbe c399 9d3d 1e4f abbb
00000180: 85c6 83be 02cf 55be 3524 6b3e 2360 9c3d
00000190: 958a 143c c666 fabb 0335 4bbd 235d 883e
000001a0: 4c50 503e f2d5 49bd a1d4 9c3d 582a 94bd
000001b0: 5362 f9bd 1fc7 06bc b695 9bbe a03a 333e
000001c0: fa43 19bd 6806 413c 0704 883c 6262 3d3e
000001d0: 2f46 dd3d 84e0 28bc 6b2b 4fbe 3a6c 603c
000001e0: b36f b8be 5a36 d03d 2bc2 49bd 5794 89be
000001f0: f611 09be c8ee 6fbe 1795 ddbd 0b43 92be
00000200: 7eef a73e ac29 e13e 7abb cbbe e438 2bbe
00000210: 1f39 c1bc a55d bebd d70b 04be 03d2 d7be
00000220: 513f aebe ae26 6ebe f40b 77be eb01 3bbd
00000230: 1fc2 7c3e 03b3 803d 7fc3 b63e bd04 ebbe
00000240: c102 df3d ba18 7bbd 32a2 a5bc 9c72 dbbe
00000250: e130 6ebe a4aa 2dbd 9006 923e a9b6 aebe
00000260: e0ea 453f a39e 49bd a261 c03d 7a00 a43e
00000270: 8549 2b3e fb28 c23e 3761 833e cafa f83e
00000280: bebd 59be 1af0 37be be6c 8d3e 7871 e03d
00000290: d9ef 77bd 65c5 febc 04b3 d7bd 3b8b 623e
000002a0: f064 353e a98d f1bc 3f33 f33c 4411 a0bd
000002b0: ebd6 14be 2a47 e6bc b9f7 60be fcdb 533e
000002c0: 6ff4 a0bc ac3b 323d 168f 663d ffaa 243e
000002d0: 4ce2 303e b6aa a3bc 6cda 75be dfb9 9e3d
000002e0: ca7d d8be bd1d 7fbe 961f 88bd 74a1 7fbe
000002f0: 8bf7 29be c4d6 80be b2c2 eabc 9555 86be
00000300: 7560 2a3e 8ebd a2be 3ecb f3bc 6148 1a3e
00000310: 34f3 48be 0153 103e bc53 50be 9df7 5a3e
00000320: b374 6d3e 5a85 863e c0b3 1bbd 1145 28bd
00000330: 405f e4bd e9ab 083e ed78 04be cebb f53d
00000340: 662b 513e c13d 2b3d 50da 9e3d f1a2 e53d
00000350: b26e e3bd 3115 4cbe cb9b 59be 8de2 46be
00000360: 9ff2 aebb 921b e43d aad4 01be 7740 4fbe
00000370: 7e26 c93b e445 bb3d 42c7 aebe 39c6 4ebe
00000380: a19a cebe 890e 0b3f 6638 6a3e e734 8ebe
00000390: b3da cb3e 9237 61be de87 073f 1109 dcbe
000003a0: 7845 c8be da90 0cbf 3cf2 2d3e 6c90 acbd
000003b0: f822 f13d f053 c3be 6f15 003d 961b ccbe
000003c0: c21b 21bf 308f 04be 38fb acbe 2c88 24be
000003d0: b98c 953e 77b6 dd3e 1e81 fc3e 94cf 773e
000003e0: 1f3b a83d f78d 89bd 2ed8 d73e 84e2 663e
000003f0: 8031 68be 5880 42be c44c 3d3f 59cf a93e
0.041860413 0.04186528 -0.10202796 0.029666899 0.006921146 -0.08175231 -0.1396671 -0.017349616
0.15364893 -0.17474942 -0.1083167 0.009024579 -0.045345295 -0.10829759 0.11096093 0.1619137
-0.13443251 0.23627566 0.15163712 0.13324977 0.005514236 0.06524937 -0.16084878 -0.14871873
0.029738158 -0.17789932 -0.023711363 -0.4078507 -0.39577577 -0.2054426 0.109298274 0.04805489
0.033876512 -0.060134217 0.14521675 -0.015314126 -0.13988338 0.091249086 0.28423858 -0.12119295
-0.25446975 0.2870863 0.11480038 -0.14993142 0.034312043 0.014001806 -0.18229243 -0.19707018
0.21059304 -0.34316152 -0.20137332 -0.32085803 0.101606995 -0.14975144 0.20258805 0.21041784
-0.09556842 -0.007411329 -0.034995068 0.5753386 0.48975953 0.42514336 -0.051143333 -0.06017011
0.01731342 0.0556576 -0.12541883 0.012320009 0.063103035 -0.08477265 -0.09610999 0.02017582
0.15971437 -0.18910995 -0.0738925 0.02929563 -0.03878467 -0.11071011 0.058692522 0.14536507
-0.16436684 0.21172011 0.124955215 0.15552108 -0.028002426 0.047430776 -0.15802297 -0.19190873
0.049641766 0.08838416 -0.004023198 -0.41683832 -0.36921635 -0.18671598 0.07695343 -0.0052279374
-0.25737396 -0.20879748 0.2296303 0.07635524 0.009066244 -0.007641646 -0.049611103 0.26633558
0.20343131 -0.0492763 0.07657743 -0.07234639 -0.12176957 -0.008226185 -0.30387658 0.17502832
-0.037418343 0.0117813125 0.016603483 0.18494561 0.10804402 -0.010307435 -0.20231406 0.013697678
-0.3602272 0.10166617 -0.04925744 -0.26870987 -0.13385758 -0.23430932 -0.10819452 -0.28566775
0.32799906 0.43977106 -0.3979147 -0.16720921 -0.023586808 -0.09295205 -0.12895142 -0.42152414
-0.34032682 -0.23256943 -0.24125654 -0.045656126 0.24683426 0.06284144 0.35696027 -0.45902053
0.10889197 -0.061302878 -0.020218942 -0.42860878 -0.23260833 -0.042399064 0.28520632 -0.34123734
0.77311516 -0.049223553 0.09393622 0.32031614 0.16727264 0.3792189 0.25660107 0.48628837
-0.21263787 -0.17962685 0.27622026 0.109591424 -0.06053147 -0.031099984 -0.105321914 0.22123425
0.17714286 -0.029486494 0.029687522 -0.07815793 -0.1453511 -0.028110106 -0.21969499 0.20689386
-0.019647805 0.04351394 0.0562888 0.16080855 0.17273825 -0.019978862 -0.24009103 0.07750296
-0.4228347 -0.24913688 -0.066466495 -0.24963933 -0.16598336 -0.25163853 -0.028657291 -0.2623717
0.16638358 -0.31785244 -0.02976 0.15066673 -0.19624025 0.14094163 -0.20344442 0.2138352
0.23189048 0.26273614 -0.03801322 -0.04108149 -0.1115098 0.13346829 -0.12936755 0.119987115
0.20426711 0.04180694 0.077564836 0.11212719 -0.11105098 -0.19929959 -0.21250837 -0.1942236
-0.0053389813 0.11138071 -0.12678781 -0.20239435 0.006138622 0.0914419 -0.34136397 -0.20192803
-0.40352347 0.54319054 0.22873077 -0.27774736 0.39815292 -0.21993855 0.5294169 -0.42975667
-0.391155 -0.54908526 0.16986936 -0.08425984 0.11774248 -0.38149977 0.03127044 -0.39864796
-0.6293298 -0.12945247 -0.33785415 -0.1606757 0.29208925 0.43303272 0.4931726 0.24200279
0.082144015 -0.06716531 0.4215712 0.22547346 -0.22675133 -0.18994272 0.7394526 0.33166006

proj.2.bias f4 [192]
00000000: 9a50 ee3b 68bd e3bc cef7 663c a444 f1bc
00000010: 3521 01bc b379 213d 1121 a5bd 88c2 263e
00000020: 611b c5bc 1547 d8bd 1cf5 3f3e e818 39bd
00000030: 8856 6d3b 693e 0bbe 0cb7 a23d 0986 bebc
00000040: ff8b 9d3d 51ee 3ebd cfe9 1fbd 2b11 983d
00000050: d727 b0bc 583c 633b 144f 1fbd 4dcd 243d
00000060: 1a04 9d3d 9c81 09bd 4f3d 23bd 8513 093e
00000070: d388 55be 6bef 023e f8d2 203e 9aef 7cbd
00000080: da13 b9bd 9ecf 593e b066 17be 874a c3bd
00000090: 535e 9c3d a319 413c a8a5 e4ba b785 813d
000000a0: 0488 5cbe af32 e33d 0f1a fe3d 50ec 22be
000000b0: 5772 9b3d c59d b7bd 2bb6 2a3e c564 92bd
000000c0: 2afb 7f3d 9758 d73d 1a6f 1abe c15d 043e
000000d0: affa c4bd e2af c1bd 1bc3 94bd af70 7bbd
000000e0: 1709 373e d9d8 e4bc e95a 433e d7be 5a3d
000000f0: 18c7 2c3e bbe3 95bd 3751 88bd 7fa4 1a3e
00000100: 1025 7ebe 1625 4c3d 1ae0 b1bc 0128 633d
00000110: b4c9 b93c 023d 0abe 333a a33e 5ae9 ebbd
00000120: 3189 6abd a835 b13e b107 35be 46c5 5c3e
00000130: 17c8 e9bd 94ee b2bd 2888 903d 8819 91bc
00000140: 60c1 893c efb0 1c3e 7657 61bd 1aec 3dbd
00000150: 1df3 3e3e de50 64bd 19f8 97bd c6c7 463e
00000160: 34b1 e7bd 9555 80bd 1930 babb 02e8 74be
00000170: d7b6 c03d 74dc 593c 9a2c 6b3d a660 39bd
00000180: f241 a53d 4053 363d e904 c2bd dab0 df3d
00000190: 58a8 92be bd26 c83c 2e5f 603e 575c a83d
000001a0: 0506 2dbe b568 1b3e 573e 5cbd 188c 3ebd
000001b0: e1f7 ed3d 0dc2 58bd 8db7 40bc cc12 34bd
000001c0: 3a2b 323e be38 c63d d7f7 103e 1773 c3be
000001d0: 4006 4d3d a0a9 b4bd 20be 7a3e 27f9 cdbd
000001e0: d9da 7d3c 98f2 163d 6633 91bd bcdd aa3c
000001f0: 44ac 643e 9256 cebd 0cc5 283e 7cd3 0dbe
00000200: cebd 34bd 3cea 803e 8d13 503d c211 33be
00000210: a865 8bbd 7b03 7f3d f717 e43d 1ca2 b63b
00000220: b5a4 fdbd 0775 1e3e 2efa 093e b06d 87be
00000230: 9c07 2a3c 1c7c c3bd 88fe 8e3e 670a 9cbd
00000240: 79e4 e03c 2d6f 5d3d b5fd 97bd a542 e43d
00000250: 14d1 cfbd 9e2d 1c3d 81c1 c83d 0d17 53be
00000260: 0e29 9f3d a0d8 273e f554 c1be 3d68 e83d
00000270: d356 2a3e a2f3 6c3a a60d c2bd 4e3c 023e
00000280: 0687 bbbc aaec c2bd da37 593d 6d87 f3bd
00000290: a40f ad3d e62d 20bc 5286 b13d 6c6e 95bd
000002a0: c77b f33c b673 5dbc 168b 7fbc 86a8 173d
000002b0: e0b5 7c3d 3d58 09be ef7b 9abd 69b5 733e
000002c0: 183d fdbd dbe1 113c edef be3d 1121 d4bd
000002d0: 0178 a33c 1055 d33d b73b e6bd 185d bfbb
000002e0: 93c8 653e b035 2dbe 1aa0 0c3d 1dd6 463c
000002f0: b4e9 68bd 6b78 8dbc d5b8 edbc d7b8 2a3d
0.007272792 -0.027800277 0.014097167 -0.029451676 -0.007881452 0.039422702 -0.080629475 0.16285145
-0.024060907 -0.10560433 0.18745846 -0.045189768 0.0036214907 -0.13598026 0.0794507 -0.023257272
0.07692718 -0.046613995 -0.039041337 0.074251495 -0.021503372 0.003467342 -0.038893774 0.040234853
0.07666798 -0.03357087 -0.03985339 0.13386352 -0.20852976 0.12786643 0.15705478 -0.06175194
-0.090369895 0.21270606 -0.14785266 -0.09535699 0.076351784 0.011785897 -0.0017444389 0.06324332
-0.21536261 0.110936515 0.12407314 -0.15910459 0.07590168 -0.08965639 0.16671054 -0.071481265
0.062495388 0.10514944 -0.15081444 0.1292639 -0.096181266 -0.09457375 -0.07263776 -0.06138676
0.17874561 -0.027935432 0.19077648 0.053404655 0.16872823 -0.07318827 -0.066561155 0.15101813
-0.24818826 0.049840055 -0.021713305 0.055458073 0.022679187 -0.13499835 0.3188034 -0.11519118
-0.057259742 0.3461125 -0.17678715 0.21559629 -0.11415117 -0.087369114 0.0705722 -0.01771237
0.016815841 0.1530187 -0.05501505 -0.046367742 0.18647428 -0.055741183 -0.07420368 0.19412145
-0.11313096 -0.062663235 -0.005682003 -0.23916629 0.09409874 0.013297189 0.057415582 -0.045258187
0.08069219 0.044512987 -0.09473593 0.10922404 -0.2864406 0.024432534 0.21911308 0.082207374
-0.16896828 0.15176661 -0.05377039 -0.046520323 0.11619545 -0.052919436 -0.011762512 -0.04396324
0.17399302 0.096787915 0.14157043 -0.38173744 0.05005479 -0.08821416 0.2448659 -0.10057288
0.015494072 0.03685245 -0.070898816 0.020857684 0.22331339 -0.10075106 0.16481417 -0.13850206
-0.044126324 0.25178707 0.050799895 -0.17487243 -0.06806499 0.06225918 0.111373834 0.005573524
-0.12384931 0.1547433 0.13474342 -0.26450872 0.010377791 -0.09545156 0.27928567 -0.076191716
0.027452694 0.054061104 -0.07421438 0.11145524 -0.101473 0.03812944 0.09802533 -0.20614262
0.077715024 0.1639123 -0.3776013 0.11348007 0.16634683 0.00090389897 -0.094752595 0.12718317
-0.022891533 -0.09517796 0.05303178 -0.11891065 0.08450249 -0.009776568 0.08668198 -0.07296452
0.029722108 -0.013516357 -0.0155971255 0.03702595 0.061696887 -0.13412566 -0.0754317 0.23799671
-0.12365168 0.008903946 0.09323106 -0.103578694 0.019954683 0.10318959 -0.112418585 -0.005839955
0.22439794 -0.16915011 0.034332372 0.0121360095 -0.0568635 -0.017269334 -0.029018799 0.041680183
