EWOthello/ckpts/battery_othello/state_tl32_championship/layer7/checkpoint.ckpt (torch, 92819 bytes, 4 tensors)

proj.0.weight f4 [32, 512]
-0.020951334 -0.22577786 0.054436073 0.20640843 0.050527338 -0.18575838 -0.15349248 0.03418131
-0.16608572 -0.06348779 0.16278598 0.100991555 0.00084624405 -0.06263997 -0.056692913 0.14800064
0.15621501 0.09087419 -0.15713684 0.037868235 0.100960255 -0.13418043 -0.03154486 -0.0955895
-0.0011018091 -0.10059267 0.11831588 -0.15040903 -0.15437484 -0.046658732 0.121961795 0.016837807
-0.25988367 0.3508302 -0.032176264 -0.24923722 0.28043702 -0.21214439 -0.17136797 -0.039180517
0.16899039 0.054419808 0.053964697 0.040258255 -0.05457984 -0.09845462 -0.075952254 -0.09475812
-0.06125835 0.06873318 -0.17858371 0.097173326 -0.038426615 0.09914848 -0.07209678 0.07765801
-0.066694446 -0.10648801 0.118880935 0.3211026 0.08184836 -0.06074759 -0.016226184 0.20066287
-0.014746163 -0.16998802 -0.060794607 0.028195243 0.0047655124 0.09125238 0.11588288 -0.12568292
0.17254399 -0.036334988 0.113817856 -0.04562575 0.06811078 -0.1261225 -0.1323247 0.1320003
-0.114653215 -0.012300864 -0.16728874 -0.032799378 -0.16720252 -0.022061953 0.04260872 0.0079042325
0.02331897 -0.00014272875 -0.43222147 -0.06265871 0.004677364 -0.12434595 0.043672185 0.19946052
0.2039961 0.100838564 0.18657154 0.121884264 -0.020223398 0.19066909 0.12341811 -0.002036812
-0.09853985 -0.12846577 -0.069617726 -0.031133506 -0.18379511 -0.30154288 -0.3091255 -0.21460144
-0.03137405 0.049921952 -0.07383254 -0.2396289 -0.038928855 -0.13913882 0.11321682 -0.15418091
-0.19075921 0.3002523 0.1427783 0.041946888 0.08795721 -0.06796336 -0.16371115 -0.0031041887
-0.09679471 0.07104894 -0.056232966 0.18451762 -0.15425995 -0.099573985 0.20058276 0.028691726
-0.029507084 0.010371681 -0.029530747 -0.052667603 0.020193959 0.07883213 0.018290276 -0.09318299
0.15834528 0.098595224 0.057362746 -0.11327104 0.16190284 0.053154804 0.044594586 0.01858834
0.059213303 -0.026298136 -0.059450824 0.14647761 0.09809784 -0.033784475 -0.08250177 -0.065608025
-0.20245196 -0.03890557 -0.08821798 -0.18533964 -0.1087745 0.015860943 -0.26041642 -0.03952414
0.013847477 0.031161778 -0.106205665 0.06064772 -0.04945622 -0.018171063 -0.11400955 -0.017029779
0.09309507 0.26981577 0.051726967 -0.07539898 -0.28671047 0.095313266 0.095405675 -0.019365165
-0.12466688 -0.2601251 0.10696119 0.18161626 0.14066398 -0.20143561 0.03814139 -0.06981923
-0.07686459 0.12772511 0.16758269 0.06608024 -0.13285542 -0.028299795 -0.03782131 -0.038639437
-0.062688306 0.16858387 -0.23188272 0.08098967 0.21551076 0.15347335 -0.044693407 -0.273314
0.22545101 0.062495388 -0.030693728 -0.26296532 -0.2092318 -0.074941024 -0.1958286 -0.14872842
0.025603376 -0.103877135 0.0017499418 -0.09785171 0.10953916 -0.04948139 0.043035593 0.21486148
-0.13037635 -0.10288627 -0.09513546 0.15662049 -0.03201297 0.005499064 0.19002637 0.12815604
0.0017401783 0.09200047 -0.13424724 -0.062972285 0.08262468 -0.037914757 0.040813297 0.24564417
0.07216446 -0.17972252 -0.12015688 0.2695175 -0.081260554 0.2272769 -0.2848264 -0.42812452
-0.04470741 0.19233695 0.07762762 0.09377285 -0.08295409 -0.050643094 -0.0854174 -0.094253324
00000000: 22a2 abbc 5032 67be 5cf8 5e3d bb5c 533e
00000010: c1f5 4e3d 7237 3ebe 222d 1dbe b401 0c3d
00000020: 6012 2abe e305 82bd 5eb1 263e a9d4 ce3d
00000030: 7ad6 5d3a 6249 80bd d436 68bd 7b8d 173e
00000040: d4f6 1f3e 3f1c ba3d 7be8 20be b91b 1b3d
00000050: 40c4 ce3d 9866 09be 2f35 01bd 6ec4 c3bd
00000060: 946a 90ba 8803 cebd 994f f23d d304 1abe
00000070: 7014 1ebe 3a1d 3fbd 1bc7 f93d 71ef 893c
00000080: 790f 85be 04a0 b33e 42cb 03bd 0b38 7fbe
00000090: 7195 8f3e 613c 59be 167b 2fbe c07b 20bd
000000a0: d10b 2d3e 4ee7 5e3d 160a 5d3d d7e5 243d
000000b0: 1c8f 5fbd 93a2 c9bd db8c 9bbd 8c10 c2bd
000000c0: 09ea 7abd fbc3 8c3d a6de 36be cf02 c73d
000000d0: 3a65 1dbd 5c0e cb3d 7aa7 93bd 2a0b 9f3d
000000e0: 1997 88bd 6316 dabd d977 f33d 8f67 a43e
000000f0: 1da0 a73d 77d2 78bd c6ec 84bc 917a 4d3e
00000100: e499 71bc 5711 2ebe c403 79bd b6f9 e63c
00000110: 0428 9c3b 87e2 ba3d 0154 ed3d 06b3 00be
00000120: 5faf 303e ffd3 14bd 5619 e93d 11e2 3abd
00000130: aa7d 8b3d 4226 01be 2080 07be 162b 073e
00000140: 4ecf eabd 9089 49bc bd4d 2bbe a458 06bd
00000150: 2337 2bbe 45bb b4bc 7b86 2e3d c180 013c
00000160: 6d07 bf3c 75a9 15b9 224c ddbe 3653 80bd
00000170: 9344 993b 17a9 febd 9be1 323d 613f 4c3e
00000180: 5be4 503e 7384 ce3d 9c0c 3f3e 759e f93d
00000190: 8aab a5bc c23e 433e a2c2 fc3d 097c 05bb
000001a0: 43cf c9bd 888c 03be bd93 8ebd b20b ffbc
000001b0: c934 3cbe d463 9abe b345 9ebe 7bc0 5bbe
000001c0: 1382 00bd f67a 4c3d 8435 97bd 4761 75be
000001d0: dd73 1fbd 687a 0ebe 38de e73d 9ae1 1dbe
000001e0: 6256 43be abba 993e 7a34 123e 80d0 2b3d
000001f0: e922 b43d 6030 8bbd e5a3 27be a56f 4bbb
00000200: 4e3c c6bd 1b82 913d 8a54 66bd 30f2 3c3e
00000210: 52f6 1dbe 72ed cbbd 9165 4d3e e90a eb3c
00000220: d7b8 f1bc fced 293c 77ea f1bc fcb9 57bd
00000230: cd6d a53c bd72 a13d 7dd5 953c b9d6 bebd
00000240: 4425 223e 4bec c93d 33f5 6a3d a6fa e7bd
00000250: dcc9 253e dab8 593d d0a8 363d 9346 983c
00000260: a689 723d 306f d7bc b582 73bd 3afe 153e
00000270: 85e7 c83d 9761 0abd b0f6 a8bd 805d 86bd
00000280: 914f 4fbe 725b 1fbd a1ab b4bd adc9 3dbe
00000290: 2ac5 debd cfee 813c 4d55 85be 11e4 21bd
000002a0: 87e0 623c fc46 ff3c 5b82 d9bd be69 783d
000002b0: 9b92 4abd 7bdb 94bc d77d e9bd 0982 8bbc
000002c0: a1a8 be3d 4b25 8a3e a8df 533d c86a 9abd
000002d0: b7cb 92be 9a33 c33d 0d64 c33d b2a3 9ebc
000002e0: 5951 ffbd 1e2f 85be 780e db3d 9df9 393e
000002f0: 380a 103e 2345 4ebe 253a 1c3d 62fd 8ebd
00000300: 2f6b 9dbd 5fca 023e cc9a 2b3e 1455 873d
00000310: 400b 08be f9d4 e7bc 85ea 1abd 6344 1ebd
00000320: ba62 80bd 40a1 2c3e aa72 6dbe e9dd a53d
00000330: daae 5c3e 1e28 1d3e 6f10 37bd d0ef 8bbe
00000340: a1dc 663e 2afb 7f3d 6a71 fbbc 64a3 86be
00000350: dc40 56be ae7a 99bd 4b87 48be 434c 18be
00000360: 2cbe d13c 89bd d4bd 4e5e e53a 7a66 c8bd
00000370: 1156 e03d ffac 4abd 1746 303d a604 5c3e
00000380: 6181 05be 09b6 d2bd 61d6 c2bd 1f61 203e
00000390: 0820 03bd 7e31 b43b 4696 423e 563b 033e
000003a0: b216 e43a be6a bc3d 1c78 09be 9df7 80bd
000003b0: 2137 a93d 814c 1bbd d82b 273d 258a 7b3e
000003c0: f6ca 933d 2e09 38be cf14 f6bd 33fe 893e
000003d0: ef6b a6bd 47bb 683e c4d4 91be 2333 dbbe
000003e0: 1e1f 37bd faf3 443e 3bfb 9e3d fb0b c03d
000003f0: d5e3 a9bd 226f 4fbd 51ef aebd e307 c1bd

proj.0.bias f4 [32]
0.27996898 0.09207892 0.8505747 0.87822247 0.82723576 0.17169178 0.78957653 1.1523995
0.0058875307 1.4186184 0.97174907 0.86236876 0.5083672 1.2852958 0.24618948 1.6850637
0.55993915 0.4202923 -0.47798347 0.71594787 1.0655383 0.7317908 1.4444906 1.1914637
1.0411801 1.0255282 0.3880256 0.59188086 -0.9360936 1.194819 1.618633 0.9276255
00000000: 1858 8f3e df93 bc3d 43bf 593f 30d3 603f
00000010: b9c5 533f f8cf 2f3e b021 4a3f d481 933f
00000020: 30ec c03b 4a95 b53f 8cc4 783f 33c4 5c3f
00000030: 5a24 023f 9384 a43f 1819 7c3e 2bb0 d73f
00000040: 2c58 0f3f 8d30 d73e 40ba f4be 5c48 373f
00000050: 8f63 883f a456 3b3f 11e5 b83f e281 983f
00000060: 6445 853f 8244 833f 4bab c63e 8185 173f
00000070: d5a3 6fbf d4ef 983f 5e2f cf3f dd78 6d3f

proj.2.weight f4 [192, 32]
0.07251951 0.11734058 0.21977384 0.020027583 0.105157785 0.030566597 -0.12928033 -0.104515105
0.1856057 -0.060334176 -0.11427991 0.12611933 0.11853504 -0.18651688 -0.03772107 -0.073633134
-0.22316305 -0.033002146 0.04261343 -0.0598689 -0.13380523 -0.076252505 -0.13536483 -0.09216451
-0.14615813 -0.14579926 0.0007465795 -0.16746087 0.10373574 -0.08940507 -0.069571465 -0.04699385
-0.072335295 -0.17768767 -0.5319614 -0.02589145 -0.086107194 -0.062282648 0.14693949 0.14342886
-0.20619835 -0.053125225 0.12216265 -0.21914665 -0.16966547 0.20480625 0.029067943 0.060082264
0.39498603 0.10075362 0.005372726 -0.020438429 0.23916051 0.032741345 0.20849198 0.093662575
0.2196427 0.2504535 -0.0533929 0.13799569 -0.2583249 0.17059292 0.09564351 0.07995392
0.0759729 0.11953361 0.23830293 -0.022994425 0.12990479 0.052905012 -0.12290922 -0.10634929
0.18496034 -0.06232587 -0.09088825 0.13274631 0.10724367 -0.21370748 -0.036701247 -0.061560426
-0.24498226 -0.011668766 0.060324054 -0.05348893 -0.17763829 -0.08043175 -0.117140956 -0.09809388
-0.17982009 -0.16369781 0.011795185 -0.14005618 0.09870646 -0.08071091 -0.09115811 -0.079464175
-0.0018038905 0.042205438 0.065477885 -0.024138106 -0.122066714 -0.01879644 -0.13305512 0.1539284
0.12421171 -0.01600181 -0.0006570426 -0.001862912 0.1339913 -0.10560728 0.0038116379 -0.30701494
0.044958737 0.11397852 -0.041314293 -0.2219473 -0.14329968 0.03592842 -0.14261423 -0.05270953
-0.109293826 -0.020446882 0.1056553 0.000978215 0.13143119 -0.26438674 -0.026663272 -0.18148626
-0.079567984 -0.12456733 -0.10255098 0.02604753 0.22860108 -0.035917915 0.14968501 -0.28587306
-0.15152141 -0.12711424 0.010396646 -0.12519455 -0.21867323 0.14117618 -0.030268524 0.46878752
-0.077091455 -0.261282 0.07166473 0.27271473 0.13625687 -0.037671857 0.2210069 0.10464025
0.020768944 -0.066889875 -0.20685525 -0.056816597 -0.20083766 0.29996178 -0.01395374 0.36745754
-0.0031678122 0.044479128 0.07400768 -0.040135648 -0.10689678 -0.026588382 -0.13385554 0.13700353
0.10499884 -0.023174476 -0.009796561 0.00819662 0.11501167 -0.12001716 0.008393865 -0.2990988
0.050783403 0.12444651 -0.0013780389 -0.21946609 -0.13816118 0.04447877 -0.13413638 -0.06797194
-0.095253974 -0.044558596 0.10455643 0.019966729 0.13057609 -0.25274906 -0.0022029362 -0.21842475
0.15093264 -0.029099293 0.006395004 0.11777599 -0.1091773 -0.07117749 -0.09485922 0.1730255
0.14147349 0.14347835 0.0024519386 0.051771194 -0.019875193 -0.057365865 -0.01967489 -0.149086
0.17234221 -0.11246927 0.040816728 -0.074778356 -0.08031441 -0.11372955 -0.07925824 0.0011989649
-0.24568468 -0.20071025 0.045248285 -0.029387286 0.11570814 0.04576237 -0.11744657 -0.050055187
-0.24798667 0.023624115 0.022079099 -0.13727462 0.06903497 0.24115501 0.23736568 -0.2768504
-0.18838361 -0.22021283 0.020355966 -0.10389919 -0.061457008 0.07305555 -0.034135107 0.27247706
-0.2798237 0.14789191 -0.08055176 0.039910205 0.14303093 0.20479412 0.08802124 -0.027239792
0.46028033 0.23922558 -0.16958208 -0.030068416 -0.27462554 -0.21678938 0.13912915 0.103969954
00000000: 1c85 943d 4250 f03d 650c 613e e310 a43c
00000010: f75c d73d cd66 fa3c 1062 04be 040c d6bd
00000020: 6c0f 3e3e f820 77bd 960b eabd 6d25 013e
00000030: 80c2 f23d 48fe 3ebe 6981 1abd f8cc 96bd
00000040: db84 64be 422d 07bd 6c8b 2e3d 1739 75bd
00000050: 3d04 09be 462a 9cbd 149d 0abe bfc0 bcbd
00000060: 7aaa 15be 674c 15be 1ab6 433a dd7a 2bbe
00000070: 6773 d43d 011a b7bd 7c7b 8ebd a07c 40bd
00000080: 8724 94bd c2f3 35be 9f2e 08bf 4e1a d4bc
00000090: f858 b0bd 171c 7fbd 4e77 163e 04df 123e
000000a0: a925 53be d699 59bd 6930 fa3d fb67 60be
000000b0: c9bc 2dbe bbb8 513e e51f ee3c d218 763d
000000c0: 9c3b ca3e ea57 ce3d b10d b03b 7e6e a7bc
000000d0: 7ee6 743e ca1b 063d ec7e 553e 2ad2 bf3d
000000e0: 04ea 603e 713b 803e 83b2 5abd be4e 0d3e
000000f0: 2943 84be e9af 2e3e bfe0 c33d e1be a33d
00000100: ae97 9b3d 0ace f43d af05 743e ce5e bcbc
00000110: c305 053e edb2 583d d4b7 fbbd a8cd d9bd
00000120: 3e66 3d3e 6949 7fbd 9e23 babd a6ee 073e
00000130: 92a2 db3d 22d6 5abe 0c54 16bd c926 7cbd
00000140: a1dc 7abe 5a2e 3fbc 5b16 773d 3517 5bbd
00000150: d0e6 35be 67b9 a4bd 99e7 efbd 72e5 c8bd
00000160: c222 38be 66a0 27be 9740 413c e36a 0fbe
00000170: 9d26 ca3d c34b a5bd 1ab1 babd 1dbe a2bd
00000180: 8570 ecba 9cdf 2c3d 4519 863d 47bd c5bc
00000190: 1dfe f9bd fefa 99bc 9a3f 08be 689f 1d3e
000001a0: b662 fe3d 3a16 83bc 623d 2cba f42c f4ba
000001b0: 0435 093e a148 d8bd accc 793b 1031 9dbe
000001c0: a726 383d 926d e93d 2d39 29bd 2746 63be
000001d0: 27bd 12be ae29 133d 7709 12be f3e5 57bd
000001e0: 71d5 dfbd 3880 a7bc ce61 d83d 7337 803a
000001f0: e695 063e b35d 87be ef6c dabc 89d7 39be
00000200: 8af4 a2bd 281d ffbd 4006 d2bd a161 d53c
00000210: 6716 6a3e aa1e 13bd 0747 193e f45d 92be
00000220: 6e28 1bbe 3c2a 02be b256 2a3c 0033 00be
00000230: e0eb 5fbe 7d90 103e b2f5 f7bc eb04 f03e
00000240: 20e2 9dbd c1c6 85be f5c4 923d 44a1 8b3e
00000250: ec86 0b3e ce4d 1abd a24f 623e a14d d63d
00000260: a223 aa3c 8ffd 88bd ddd1 53be 85b8 68bd
00000270: 63a8 4dbe 9794 993e 3a9e 64bc 6523 bc3e
00000280: 129b 4fbb bf2f 363d 5791 973d 4765 24bd
00000290: b3ec dabd e1cf d9bc 6d11 09be a74a 0c3e
000002a0: a209 d73d 66d8 bdbc c181 20bc 1e4b 063c
000002b0: 3d8b eb3d 8fcb f5bd 6c86 093c 7a23 99be
000002c0: 4202 503d d0dd fe3d 509f b4ba b8bb 60be
000002d0: 207a 0dbe 5f2f 363d 0c5b 09be df34 8bbd
000002e0: 8414 c3bd 1383 36bd ae21 d63d 4491 a33c
000002f0: bdb5 053e 5368 81be 235f 10bb bdaa 5fbe
00000300: 168e 1a3e a461 eebc 2f8d d13b 8a34 f13d
00000310: 5998 dfbd 81c5 91bd 8d45 c2bd 992d 313e
00000320: 6dde 103e fdeb 123e b4b0 203b 080e 543d
00000330: 4dd1 a2bc 78f8 6abd 3c2d a1bc 00aa 18be
00000340: 7a7a 303e 4a56 e6bd 712f 273d 6525 99bd
00000350: e27b a4bd 0aeb e8bd 2552 a2bd 9626 9d3a
00000360: c494 7bbe fd86 4dbe 4456 393d 9bbd f0bc
00000370: 64f8 ec3d 5371 3b3d d487 f0bd ab06 4dbd
00000380: 38f0 7dbe 5c87 c13c 3adf b43c b891 0cbe
00000390: 3562 8d3d 57f1 763e fd0f 733e 56bf 8dbe
000003a0: a2e7 40be 797f 61be 8ec1 a63c 19c9 d4bd
000003b0: 58ba 7bbd 269e 953d 41d1 0bbd 1d82 8b3e
000003c0: 0d45 8fbe fa70 173e 52f8 a4bd e278 233d
000003d0: b376 123e 8db5 513e 7b44 b43d fc25 dfbc
000003e0: dda9 eb3e 8df7 743e eda6 2dbe 0a52 f6bc
000003f0: b89b 8cbe 09fe 5dbe df77 0e3e 33ee d43d

proj.2.bias f4 [192]
-0.19786535 0.22114253 -0.11866167 -0.26489764 0.37156963 -0.19523254 -0.26252457 0.47823018
-0.12173507 -0.29547018 0.52608526 -0.13465224 -0.29962802 0.46671635 -0.0687259 -0.25339153
0.34368667 -0.03543966 -0.22995055 0.29723117 -0.13105474 -0.3165773 0.32223886 -0.15992177
-0.24499485 0.44208142 -0.25362504 -0.076159835 0.090300135 -0.024701126 -0.0229528 -0.23053491
0.08922573 0.115912214 -0.41126305 0.11045051 0.17013189 -0.60230345 0.17407754 0.036157023
-0.25940582 0.124502316 -0.24588469 0.29165858 -0.12674952 -0.28740007 0.27063325 -0.047154177
0.030624272 -0.026277324 -0.07777863 0.096555695 0.106791325 -0.15218917 0.19999596 -0.22073008
-0.029013993 0.16074017 -0.07183384 -0.0815806 0.12792304 -0.05537241 -0.018986028 0.019125061
-0.4082584 0.24550764 -0.0900011 0.32657063 -0.03851922 -0.057437863 -0.0862185 0.03941315
-0.30261573 0.78203195 -0.24835278 0.1850728 -0.38625896 0.0043861587 0.023095865 -0.107282855
0.08446688 0.34424132 -0.052006166 -0.214265 -0.003782345 -0.051728133 0.1015883 0.08711693
-0.5379619 0.21884006 -0.09646694 0.29163542 -0.007381374 -0.015517027 -0.18379869 0.13779119
-0.22834143 0.46020952 -0.12871455 0.04215777 -0.1224635 0.0675945 0.26656047 -0.47190967
-0.028477145 0.06684998 -0.051068597 0.027736198 0.23508805 -0.049013775 -0.1397109 0.043662574
-0.13352066 0.11323707 0.21899654 -0.72983694 0.16509695 -0.063450105 -0.030507829 0.070350036
-0.074384175 0.025920104 0.019758327 0.09336115 -0.38395995 0.11258136 0.090839684 -0.911289
0.32032517 0.06707322 -0.40120554 0.2023378 0.13428883 -0.5857723 0.23418172 0.2804785
-0.6294669 0.07569736 0.1412944 -0.12420189 -0.051645797 -0.11691694 0.36763138 -0.21043271
-0.27549016 0.40962276 -0.21925743 -0.06139359 -0.023425587 0.013503351 -0.0852027 0.6217453
-0.1947271 0.25801292 -0.77244323 0.12356296 0.23195592 -0.3577027 0.04173077 0.1346528
-0.24067065 0.0007193553 -0.023701234 -0.040273063 0.043422785 -0.07712834 0.036145385 -0.014152448
-0.1937108 0.19233657 -0.085231125 -0.08890369 0.16142459 -0.112219 -0.1285005 0.18026175
-0.07383924 -0.04600873 -0.009528096 0.048015274 -0.099144086 0.25199813 -0.121887125 -0.023220139
0.097331524 -0.11197712 -0.20516181 0.26953763 -0.15728526 -0.23749556 0.30092794 -0.18271843
00000000: 379d 4abe 3073 623e e404 f3bd aaa0 87be
00000010: 603e be3e 0aeb 47be 9f69 86be 96da f43e
00000020: 3d50 f9bd de47 97be 86ad 063f 47e2 09be
00000030: d868 99be 72f5 ee3e 2ac0 8cbd 89bc 81be
00000040: b3f7 af3e 2d29 11bd 2878 6bbe af2e 983e
00000050: 3733 06be 6b16 a2be 7efc a43e 88c2 23be
00000060: eedf 7abe 7f58 e23e 24db 81be b0f9 9bbd
00000070: 47ef b83d 045a cabc 8307 bcbc 5811 6cbe
00000080: fbbb b63d 6263 ed3d 1291 d2be e133 e23d
00000090: 0e37 2e3e 8f30 1abf 6241 323e 6319 143d
000000a0: d7d0 84be 12fb fe3d 32c9 7bbe 4654 953e
000000b0: a0ca 01be 1a26 93be 7190 8a3e bd24 41bd
000000c0: c1df fa3c 8b43 d7bc 674a 9fbd febe c53d
000000d0: 69b5 da3d 7ad7 1bbe becb 4c3e 1107 62be
000000e0: c1ae edbc 1299 243e 9f1d 93bd bb13 a7bd
000000f0: 42fe 023e 2ece 62bd 9688 9bbc 29ac 9c3c
00000100: 3f07 d1be 5b66 7b3e 7f52 b8bd 4434 a73e
00000110: 54c6 1dbd f743 6bbd 5393 b0bd af6f 213d
00000120: 73f0 9abe 3f33 483f 3150 7ebe b983 3d3e
00000130: bcc3 c5be c4b9 8f3b 8a33 bd3c 1db7 dbbd
00000140: f9fc ac3d 6640 b03e 6b04 55bd 4968 5bbe
00000150: 38e1 77bb e1e0 53bd 870d d03d 5c6a b23d
00000160: dfb7 09bf 9c17 603e 7690 c5bd 3d51 953e
00000170: 74df f1bb 213b 7ebc b935 3cbe 2219 0d3e
00000180: 56d2 69be 95a0 eb3e bfcd 03be a0ad 2c3d
00000190: 25ce fabd fc6e 8a3d 9d7a 883e 259e f1be
000001a0: e748 e9bc a4e8 883d 4e2d 51bd 0637 e33c
000001b0: ecba 703e abc2 48bd 6010 0fbe 87d7 323d
000001c0: a4b9 08be d6e8 e73d a140 603e 98d6 3abf
000001d0: 2d0f 293e 21f2 81bd 8eeb f9bc ae13 903d
000001e0: bb56 98bd 6656 d43c 37dc a13c 2134 bf3d
000001f0: 6696 c4be 0e91 e63d 280a ba3d 3c4a 69bf
00000200: a901 a43e af5d 893d d06a cdbe a431 4f3e
00000210: 0383 093e 2cf5 15bf 55cd 6f3e e19a 8f3e
00000220: be24 21bf 3807 9b3d 7baf 103e 8f5d febd
00000230: 8b8a 53bd 2672 efbd 2e3a bc3e ac7b 57be
00000240: 0c0d 8dbe 13ba d13e 0585 60be d877 7bbd
00000250: 04e7 bfbc 293d 5d3c c17e aebd b32a 1f3f
00000260: 8a66 47be 451a 843e d7be 45bf 940e fd3d
00000270: da85 6d3e cf24 b7be e2ed 2a3d 6ce2 093e
00000280: 5e72 76be 1e93 3c3a 1729 c2bc 5ef5 24bd
00000290: 17dc 313d 77f5 9dbd 2f0d 143d abdf 67bc
000002a0: 205c 46be e1f3 443e a88d aebd 2313 b6bd
000002b0: 7d4c 253e 13d3 e5bd a395 03be 8996 383e
000002c0: 0739 97bd a673 3cbd bb1b 1cbc aaab 443d
000002d0: 0e0c cbbd e605 813e f59f f9bd 2938 bebc
000002e0: c055 c73d 4354 e5bd f015 52be d600 8a3e
000002f0: 630f 21be 0932 73be 3a13 9a3e 8a1a 3bbe
