EWOthello/ckpts/battery_othello/state_championship/layer3/checkpoint.ckpt (torch, 395137 bytes, 2 tensors)

proj.weight f4 [192, 512]
0.05200853 0.1049152 -0.015755052 -0.14478832 0.03409518 0.1319795 0.31645077 0.073367
0.06810107 0.15748158 -0.16407561 0.044167567 0.4550036 0.03153685 -0.13662358 0.22182378
0.19971187 -0.032865405 0.14676511 0.047116663 0.04546652 -0.11648063 -0.06434469 -0.27547747
-0.28094155 -0.027320052 0.20227186 -0.13321689 0.09664249 0.08167338 -0.04374857 -0.39084902
0.03694464 -0.14200677 0.051736034 0.11212969 -0.22115156 0.08130555 -0.02483957 0.27929842
-0.3875974 -0.05029496 -0.059984706 -0.07925828 -0.045503587 0.31820992 0.0242575 0.034936048
0.08266956 -0.13284878 -0.14048618 -0.20155932 -0.10905402 -0.07100338 0.053715643 0.11924195
-0.20966212 -0.08194693 0.011867494 -0.3698737 0.18595663 -0.010828329 -0.28176913 -0.01643796
-0.06858276 0.033688266 -0.11506492 -0.20747806 -0.21366358 -0.34317648 -0.08477361 0.17652626
-0.21429403 -0.04586578 0.16803639 0.017135795 -0.1758778 0.24334298 0.1063328 -0.09006458
0.1745811 -0.34453925 0.11143935 -0.07736505 -0.034615852 -0.3795233 -0.18839434 0.23618971
-0.008919573 -0.0010433095 0.15463078 0.08250036 0.072243504 0.12064029 0.13492702 0.08071168
-0.27803558 0.022316366 0.070912525 0.16428943 -0.19890434 0.018879123 -0.12853816 -0.04575098
-0.1518079 0.06887295 0.18250583 -0.080049776 0.16764833 -0.028042331 0.095351666 0.2154555
-0.24926054 -0.41471252 -0.17945546 0.09381989 -0.11775512 0.0725566 0.11335851 0.22829555
0.12084879 0.08135701 -0.031936813 0.32159278 0.16377892 0.20122911 0.18748002 -0.072077036
-0.15040539 -0.059322365 -0.098974384 0.10790079 -0.17540707 -0.12811229 -0.20052007 -0.070394896
0.08936868 -0.023193574 -0.21995705 -0.0034753932 0.057128526 -0.08350838 0.073099166 0.12280092
0.06114499 0.21940438 0.30449545 0.11753535 -0.015655506 0.1290217 0.069698885 -0.10064384
0.54975057 0.13990863 0.012524147 -0.114134 0.35567033 -0.07067156 -0.229782 0.08385168
0.1017644 -0.23936072 0.21865055 -0.1674755 0.16748723 0.040105365 0.19061401 -0.5060956
0.029486844 -0.10484199 -0.14520194 -0.013349608 -0.33024088 -0.1537805 0.24811608 -0.32121623
-0.2118148 -0.0013041103 -0.32436624 0.342168 0.023585133 -0.28972816 0.008821184 0.17209785
-0.15961614 0.017942516 -0.29025295 -0.21406466 0.08412519 0.30641353 0.0813079 0.113342844
-0.16988274 0.29439902 -0.17979349 -0.37290102 0.1416165 0.042823352 -0.095076546 -0.095953226
0.011725713 -0.2952513 0.2708845 0.16842048 -0.1055889 0.030638853 0.13458204 -0.04056733
-0.23807673 -0.096652634 0.38115972 0.27331182 -0.22763884 -0.20130761 0.22476183 -0.23652877
-0.18781263 0.19863173 -0.20145862 -0.21198882 0.11254162 -0.34318504 -0.14212796 -0.033731166
0.26558784 -0.11120255 0.21198735 0.33283916 0.15844353 -0.10649405 -0.21408084 -0.0004959154
0.119263835 0.23732647 0.048093222 -0.015514943 0.07521842 0.19462705 -0.07364723 -0.115864486
-0.054846734 -0.05377157 0.10330028 -0.09379496 0.112195075 -0.13090071 0.12577835 0.12726101
-0.16325788 -0.1828899 -0.13023166 -0.060515832 -0.22687407 -0.10170923 -0.05214454 0.09430501
00000000: e506 553d c8dd d63d bd10 81bc 6443 14be
00000010: 63a7 0b3d a225 073e d605 a23e 7041 963d
00000020: 9378 8b3d da42 213e 7003 28be 0de9 343d
00000030: 3bf6 e83e c92c 013d 0de7 0bbe c625 633e
00000040: 4581 4c3e e09d 06bd 9849 163e 67fd 403d
00000050: 1a3b 3a3d 668d eebd 26c7 83bd 620b 8dbe
00000060: 92d7 8fbe 4dce dfbc 5b20 4f3e 026a 08be
00000070: 7fec c53d 6044 a73d b331 33bd 5d1d c8be
00000080: 4353 173d 396a 11be 2ae9 533d 40a4 e53d
00000090: 8e75 62be 8683 a63d 5b7c cbbc 3400 8f3e
000000a0: 2b73 c6be 1702 4ebd 86b2 75bd 2a52 a2bd
000000b0: f861 3abd 69ec a23e aab7 c63c 1a19 0f3d
000000c0: a94e a93d 8309 08be 9cdb 0fbe 9165 4ebe
000000d0: b757 dfbd 386a 91bd ef04 5c3d 2035 f43d
000000e0: abb1 56be cbd3 a7bd e16f 423c 1660 bdbe
000000f0: 6a6b 3e3e 4e69 31bc 0b44 90be e7a8 86bc
00000100: 1e75 8cbd b5fc 093d 28a7 ebbd 2175 54be
00000110: a0ca 5abe d4b4 afbe c99d adbd 4dc3 343e
00000120: e56f 5bbe c2dd 3bbd bb11 2c3e 5e60 8c3c
00000130: 4f19 34be e72e 793e 03c5 d93d c773 b8bd
00000140: 63c5 323e 7367 b0be 503a e43d 9171 9ebd
00000150: 5ac9 0dbd e150 c2be 72ea 40be b7db 713e
00000160: 6723 12bc a8bf 88ba 8857 1e3e f3f5 a83d
00000170: 67f4 933d 4212 f73d 4f2a 0a3e 2a4c a53d
00000180: ae5a 8ebe d0d0 b63c 963a 913d 7d3b 283e
00000190: 94ad 4bbe 64a8 9a3c 829f 03be 6165 3bbd
000001a0: 8873 1bbe 430d 8d3d cfe2 3a3e 23f1 a3bd
000001b0: 01ac 2b3e 08b9 e5bc bc47 c33d 5ea0 5c3e
000001c0: 283e 7fbe 3355 d4be 2cc3 37be a424 c03d
000001d0: 9929 f1bd 8e98 943d 8228 e83d 4fc6 693e
000001e0: 927f f73d 819e a63d 2dd0 02bd cfa7 a43e
000001f0: a9b5 273e 010f 4e3e c3fa 3f3e 209d 93bd
00000200: df03 1abe 02fc 72bd 15b3 cabd 17fb dc3d
00000210: e99d 33be de2f 03be 2255 4dbe 332b 90bd
00000220: ed06 b73d 7300 bebc 6c3c 61be 6cc3 63bb
00000230: 9aff 693d 7106 abbd 04b5 953d 0c7f fb3d
00000240: 2b73 7a3d 8bab 603e d4e6 9b3e 60b6 f03d
00000250: fa3f 80bc 441e 043e 4abe 8e3d 5c1e cebd
00000260: 74bc 0c3f 3544 0f3e 1432 4d3c 16bf e9bd
00000270: 6c1a b63e 40bc 90bd f94b 6bbe 6eba ab3d
00000280: db69 d03d fa1a 75be eee5 5f3e b37e 2bbe
00000290: c681 2b3e 8645 243d 5230 433e 7b8f 01bf
000002a0: 658e f13c 66b7 d6bd d1af 14be 50b8 5abc
000002b0: 5515 a9be a378 1dbe 2412 7e3e 7476 a4be
000002c0: fbe5 58be aeee aaba 5513 a6be a530 af3e
000002d0: 9c35 c13c 4057 94be ba86 103c 6b3a 303e
000002e0: 6a72 23be 2ffc 923c 099c 94be c433 5bbe
000002f0: d449 ac3d 3ce2 9c3e c284 a63d 4b20 e83d
00000300: bef5 2dbe 78bb 963e c91b 38be e2ec bebe
00000310: ea03 113e 8a67 2f3d 7eb7 c2bd 2083 c4bd
00000320: 341d 403c 2e2b 97be 60b1 8a3e 6b76 2c3e
00000330: fe3e d8bd 55fe fa3c e0cf 093e ee29 26bd
00000340: 63ca 73be d1f1 c5bd 5e27 c33e 87ef 8b3e
00000350: 281a 69be 9523 4ebe f727 663e 9934 72be
00000360: f451 40be 1e66 4b3e 2b4b 4ebe 9913 59be
00000370: 397c e63d f3b5 afbe fe89 11be b129 0abd
00000380: 21fb 873e 2abe e3bd 3613 593e e569 aa3e
00000390: 053f 223e 8d19 dabd 0238 5bbe 5200 02ba
000003a0: 9940 f43d b605 733e 66fd 443d 6332 7ebc
000003b0: 1d0c 9a3d 504c 473e 5cd4 96bd 5c4a edbd
000003c0: f8a6 60bd 943f 5cbd 198f d33d 9217 c0bd
000003d0: 88c6 e53d d60a 06be 0acc 003e b650 023e
000003e0: 132d 27be 7d47 3bbe 735b 05be 73df 77bd
000003f0: ad51 68be ee4c d0bd 8395 55bd fc22 c13d

proj.bias f4 [192]
-0.3058119 0.34430823 -0.2815786 -0.35600626 0.39133036 -0.21975614 -0.2993479 0.40796268
-0.14927189 -0.33228642 0.391392 -0.0858708 -0.2952233 0.34636495 -0.061984267 -0.24506274
0.41599748 -0.19055034 -0.30631202 0.3572156 -0.23284766 -0.3253382 0.33099923 -0.24334706
-0.29730392 0.3776031 -0.2701543 -0.27547902 0.32521975 -0.24498588 -0.025876218 0.24254142
-0.14873499 0.050551984 -0.24386084 0.03808477 -0.026388139 0.043618232 0.02024292 -0.17160967
0.17129676 -0.012803986 -0.28367195 0.32170588 -0.23577099 -0.28243503 0.36731535 -0.26862833
-0.23700352 0.40325668 -0.19677854 -0.099532045 0.25901452 -0.09508279 0.034698036 -0.39794943
0.2891202 0.049813833 -0.34746596 0.27809376 0.37121344 -0.38742435 -0.01705741 0.16963
-0.42059013 0.13520855 -0.029593127 0.22736387 -0.15409708 -0.06784388 0.3813157 -0.35086104
-0.24217366 0.41317967 -0.17979315 0.12017598 -0.22357458 -0.08001024 0.23167421 -0.35132855
0.1142766 0.20430847 -0.2652625 0.13408889 0.10057991 -0.26506662 0.24148872 0.40373686
-0.4375123 -0.033645008 0.18519679 -0.34288433 -0.051764242 -0.08863513 0.3276069 -0.2588357
-0.24225254 0.31843305 -0.104082964 0.06546469 -0.17969617 -0.019686218 0.31313515 -0.35218266
0.014151619 0.016959898 -0.27000546 0.307808 0.20711255 -0.2653292 0.13207234 0.19384338
-0.4377476 0.19671795 0.23550552 -0.34547034 -0.10579205 -0.058727 0.25114283 -0.22897403
-0.23762763 0.3583042 -0.15772928 -0.16947293 0.17953597 0.009757854 0.1554819 -0.49562627
0.17901713 0.3097485 -0.517326 0.11861445 0.0678166 -0.69326055 0.476652 0.11822607
-0.52103806 0.28554434 0.117822476 0.06880379 -0.1740084 -0.10828889 0.25312588 -0.19376165
-0.33635837 0.41311532 -0.25809634 -0.33458427 0.3420909 -0.20907104 -0.16822635 0.004110162
0.11434843 0.005198757 -0.2897918 0.113030374 0.2595507 -0.53288966 -0.06838434 0.13396528
-0.029426433 -0.15515958 -0.22655135 0.29464078 -0.25148943 -0.26323724 0.37438136 -0.28631115
-0.3030583 0.34103808 -0.2849681 -0.26756936 0.37221065 -0.29761252 -0.13616595 0.28738877
-0.18380474 -0.21998079 0.27317154 -0.071244 -0.14455295 0.23869932 -0.11298888 -0.16443919
0.34339982 -0.19983472 -0.28508067 0.34584063 -0.23675387 -0.29367772 0.3384215 -0.28566742
00000000: 6193 9cbe 2b49 b03e 122b 90be 7446 b6be
00000010: 745c c83e c107 61be 2144 99be 7ce0 d03e
00000020: bbda 18be 7221 aabe 8864 c83e 08dd afbd
00000030: 8227 97be bf56 b13e 37e3 7dbd baf1 7abe
00000040: 9ffd d43e a11f 43be eed4 9cbe f7e4 b63e
00000050: 9e6f 6ebe bb92 a6be bb78 a93e f92f 79be
00000060: 3838 98be 3255 c13e aa51 8abe 960b 8dbe
00000070: 3483 a63e 94dd 7abe 5dfa d3bc c75c 783e
00000080: fc4d 18be 990f 4f3d a8b6 79be c7fe 1b3d
00000090: f02b d8bc 08a9 323d 7bd4 a53c 72ba 2fbe
000000a0: 6b68 2f3e cfc7 51bc 733d 91be a2b6 a43e
000000b0: f36d 71be 539b 90be c210 bc3e a789 89be
000000c0: 0db1 72be a977 ce3e 5080 49be 75d7 cbbd
000000d0: 8d9d 843e c4ba c2bd 871f 0e3d 07c0 cbbe
000000e0: 9007 943e 9709 4c3d 0fe7 b1be 4e62 8e3e
000000f0: b00f be3e 7c5c c6be fbbb 8bbc 7db3 2d3e
00000100: 9757 d7be 1c74 0a3e 496d f2bc 13d2 683e
00000110: a0cb 1dbe bbf1 8abd d03b c33e 0fa4 b3be
00000120: 5ffc 77be 498c d33e b21b 38be d31e f63d
00000130: bcf0 64be 69dc a3bd 013c 6d3e 56e1 b3be
00000140: da09 ea3d 3d36 513e 7dd0 87be 994e 093e
00000150: d7fc cd3d d0b6 87be d248 773e 99b6 ce3e
00000160: 9d01 e0be 59cf 09bd 3aa4 3d3e 898e afbe
00000170: be06 54bd 5686 b5bd 17bc a73e 1d86 84be
00000180: 0d11 78be a809 a33e 7329 d5bd 5a12 863d
00000190: 4602 38be fe44 a1bc 4053 a03e 4951 b4be
000001a0: 31dc 673c 7cef 8a3c 283e 8abe 0399 9d3e
000001b0: 5015 543e 3bd9 87be f93d 073e e17e 463e
000001c0: 7420 e0be 6e70 493e 5c28 713e 7de1 b0be
000001d0: 81a9 d8bd b98b 70bd cb95 803e 2b78 6abe
000001e0: a854 73be a673 b73e c983 21be 508a 2dbe
000001f0: 47d8 373e 68df 1f3c a636 1f3e bac2 fdbe
00000200: 4450 373e 5b97 9e3e 7a6f 04bf 22ec f23d
00000210: 6ee3 8a3d 8679 31bf bb0b f43e 8320 f23d
00000220: c062 05bf de32 923e e94c f13d 00e9 8c3d
00000230: 422f 32be 91c6 ddbd b799 813e 7469 46be
00000240: 2a37 acbe da83 d33e 3425 84be a14e abbe
00000250: 8a26 af3e b816 56be 8743 2cbe 8aae 863b
00000260: 822f ea3d 565a aa3b 975f 94be 787c e73d
00000270: d4e3 843e 756b 08bf 170d 8cbd 322e 093e
00000280: b40f f1bc 27e2 1ebe 14fd 67be 28db 963e
00000290: 39c3 80be 08c7 86be eaae bf3e 6097 92be
000002a0: 752a 9bbe 8b9c ae3e 57e7 91be dafe 88be
000002b0: 6592 be3e ab60 98be 166f 0bbe 9f24 933e
000002c0: 4f37 3cbe a542 61be 24dd 8b3e 60e8 91bd
000002d0: b005 14be 986d 743e b766 e7bd bf62 28be
000002e0: 1ad2 af3e 79a1 4cbe 18f6 91be 0612 b13e
000002f0: 9b6f 72be ed5c 96be 9545 ad3e 0043 92be
