EWOthello/ckpts/battery_othello/state/layer4/checkpoint.ckpt (torch, 395137 bytes, 2 tensors)

proj.weight f4 [192, 512]
000000 da a5 0f 3e d1 a2 5a 3d 75 bb a4 bd b4 ae 4e bd
       0.14028111 0.05337793 -0.08043567 -0.05045958
000010 44 3f d9 3d a5 0a d3 bd 37 95 34 3d d0 be ff 3d
       0.1060777 -0.10304765 0.044087615 0.124875665
000020 5f ac 34 3d f1 d6 b1 3d cf 14 7c bd e4 30 99 bd
       0.0441097 0.08683575 -0.061543282 -0.07480028
000030 13 46 4c 3e a1 27 69 be 86 05 1e 3e 12 ae 40 3d
       0.19948606 -0.22769023 0.15431795 0.047041006
000040 4d b6 59 3e e6 f1 84 bd 41 2e 2e 3e d0 91 25 3d
       0.21260948 -0.06491451 0.17009832 0.04042226
000050 57 d0 52 bd a7 bd 46 3d a0 35 73 3d 3f 94 ec bd
       -0.05146822 0.04852071 0.059377313 -0.11551713
000060 67 e5 21 3d e4 b9 91 be 60 0a 9c 3e 81 87 12 be
       0.039525416 -0.28462136 0.30476665 -0.14309503
000070 67 a0 0d 3e da 96 95 3d 3a 7f b8 bd a8 6a 24 bd
       0.1383072 0.07304163 -0.090086415 -0.040140778
000080 18 86 d9 bd 9d cf b2 bd 8d c9 7e 3d 6c 14 3a be
       -0.106212795 -0.08731005 0.062203933 -0.18171853
000090 55 1d 61 3d 86 ef a8 bc 76 4b f2 3a 8c 40 66 3e
       0.054959614 -0.020622026 0.0018485624 0.2248556
0000a0 5f dc ac bd 93 bc bc 3d fc ea 73 bd 88 e2 4d bd
       -0.0844047 0.09215655 -0.05955027 -0.050264865
0000b0 37 bc b8 3d 23 ea 3a 3e c3 c7 8d 3c 49 87 65 3d
       0.09020274 0.18253379 0.017307168 0.05603722
0000c0 9e 3a 5c 3d 6b 84 fe bb 91 97 30 3d ab fb b6 bc
       0.05376684 -0.0077672503 0.043113295 -0.022336802
0000d0 fa 2b 57 be 1e 71 df 3d 64 4f 3b be 8e d4 02 3e
       -0.2101287 0.10910247 -0.18292004 0.12776396
0000e0 4c db 6f bd ac 13 43 3d db 11 f9 bc b3 12 dc bd
       -0.058558747 0.047626182 -0.030404022 -0.10745754
0000f0 ae a5 e1 3d f0 9c 20 3e e7 62 01 be 7b c9 23 3d
       0.11017929 0.15684867 -0.12635385 0.03998707
000100 d3 ad 84 3d e9 bc ba bd 51 10 0e 3d 2d 80 bf 3d
       0.06478467 -0.09118063 0.03468353 0.093506195
000110 01 23 2e 3e 65 fa 2a be 24 aa ba bd fe cf 87 3e
       0.1700554 -0.1669708 -0.09114483 0.26525873
000120 8c 32 0a be 7a ce a3 3d 26 fd 26 be 30 bc c9 bd
       -0.13495845 0.07998367 -0.16307506 -0.09850347
000130 d8 03 8c 3e d2 f1 db 3d 86 f1 fb bd 12 4d cc 3c
       0.27346683 0.10739483 -0.12301926 0.024939094
000140 5c c6 3c 3e 84 78 0b be 71 1c 37 bd 55 2a 11 3e
       0.18435043 -0.13620192 -0.04470486 0.14176305
000150 4d 2c c9 bc 26 15 6e be d4 0a 2c be 11 a9 85 3e
       -0.024557257 -0.23250255 -0.16801006 0.2610555
000160 71 3d dc bd c8 fb 3a 3e b7 00 67 3c 94 6f 64 bd
       -0.107539065 0.1826011 0.0140992915 -0.05577047
000170 96 b1 3a 3d 44 7c ed 3d 2e 5d 22 bd 6e a4 ab bd
       0.045579515 0.115959674 -0.039639644 -0.08380972
000180 ee 98 3c be df d3 37 3e 05 cb 96 3d f1 df 95 bc
       -0.18417713 0.17951916 0.07362942 -0.01829526
000190 c5 b0 8c 3d ae df fe bd ab 4d eb 3c 8c 73 3d bb
       0.068696536 -0.12445007 0.028723558 -0.0028907983
0001a0 11 40 88 bd 3d 71 23 3e 4f 49 31 bd b2 2e 84 3d
       -0.06652845 0.15961166 -0.043282803 0.06454219
0001b0 51 8a 09 3e d3 9f 83 3d 1d 04 fa bd 52 12 16 3d
       0.1343167 0.064269684 -0.12207816 0.036638565
0001c0 80 31 fe bb dc 2a 14 3e 31 dc eb bc a7 01 fd bd
       -0.0077573657 0.14469475 -0.028791519 -0.12353831
0001d0 9e f7 76 3c de ba 32 3e 3a 3c e0 3d bc fb 15 3d
       0.015073685 0.17454097 0.10948987 0.036617026
0001e0 ed 49 55 3d 24 bc 2e be e9 7a d9 3b 53 c3 42 3d
       0.052072454 -0.17063957 0.0066369665 0.047549557
0001f0 e8 ca 8b 3e a0 c8 af 3d 94 2f d2 3d 50 59 be 3d
       0.27303243 0.08583188 0.10262981 0.09294379
000200 a6 ed 20 3c ae 1e bc bb 57 e2 95 bc 2a b5 ec 3d
       0.009822285 -0.005740962 -0.018296404 0.11557992
000210 54 01 dd 3d fa 7f 18 bd 25 c5 2c bd 81 a7 ac 3d
       0.10791269 -0.037231423 -0.0421802 0.08430386
000220 1b 7f 5b bd 32 b1 9e bc 75 80 ea 3c b5 02 39 3d
       -0.053588014 -0.019371603 0.028625706 0.045168597
000230 da 28 2d 3e 35 04 b6 be f9 43 4a 3d 20 f2 10 3e
       0.16910115 -0.35550085 0.04938123 0.14154863
000240 1c 14 88 3e 7d ab bd bd a7 9f 03 3e 7c 5f 2b 3d
       0.26577842 -0.092612244 0.12853871 0.041839108
000250 02 6c 2b bd 1b 0d 98 3d 73 ba d1 3d 95 a2 de 3c
       -0.04185105 0.07424375 0.102406405 0.027177135
000260 be 0c 8c 3e e9 0c d6 3d db e9 ed 3b 01 da 61 3d
       0.27353472 0.10451681 0.0072605438 0.055139545
000270 b4 8b 9c 3e 18 6f 91 bd 54 4a f4 3d 25 95 8d be
       0.30575335 -0.071012676 0.119282395 -0.2765285
000280 e6 23 19 3d cf a3 be bd d8 77 cb 3c 54 5e 00 3e
       0.03738775 -0.09308588 0.02483742 0.12535983
000290 45 51 ec bd 32 ff 17 3e e2 7f 13 3e ad 10 2c be
       -0.115389384 0.14843443 0.14404252 -0.16803236
0002a0 43 8a 39 3e cf 18 6b bd bc ca f3 3d c5 0d 07 bd
       0.18119149 -0.057396706 0.11903903 -0.032972116
0002b0 26 89 26 be e3 8c ae 3d 6a 32 34 3e ac 3b a0 be
       -0.16263255 0.08522966 0.17597356 -0.31295526
0002c0 de d2 44 3c 44 11 32 3e 7d 6d 55 3e 48 f9 24 bd
       0.012013165 0.17389399 0.20842548 -0.040276796
0002d0 bb fa f8 bd ac e4 06 bd 25 96 ce 3d 43 be 77 3e
       -0.12157198 -0.032932922 0.100872315 0.24193673
0002e0 46 ea b9 bd a5 48 39 3d 6a 0a 04 3e a8 d6 2f be
       -0.09077887 0.045235295 0.12894598 -0.17171729
0002f0 d7 18 4e 3e 9f bb 9c 3d e5 50 75 bd 15 f9 ae bd
       0.20126663 0.076529734 -0.0598916 -0.085436024
000300 30 66 b6 3d 6d e9 d2 bd 6e 99 1b 3e 12 57 c2 bc
       0.089062095 -0.10298429 0.15195248 -0.023723159
000310 b6 51 f8 3b 10 21 2a 3e 2f ed 18 3e 66 cf a5 bd
       0.0075781 0.16614175 0.14934228 -0.08096199
000320 bf bb da bd 59 5b 9b 3c 73 30 39 3e 14 4a 97 3d
       -0.10680341 0.018964456 0.18084888 0.07387176
000330 99 ac d7 bd 53 9c 89 bd ce 9b e9 3c 1e ec db bd
       -0.10530967 -0.067192696 0.028516676 -0.10738395
000340 a3 47 ea 3d 20 be 03 3d 08 d7 9b bd c0 c8 c5 3d
       0.11439445 0.03216374 -0.07609373 0.09657431
000350 2a 53 74 be 26 e4 fb 3d 07 53 4b 3e b0 14 ff 3b
       -0.2385985 0.12299375 0.19855891 0.0077844486
000360 37 8b 7c bd 66 25 2b be 8f be 80 3d e8 a7 18 be
       -0.061656203 -0.16713485 0.06286346 -0.14907801
000370 93 5b 9e be 75 89 2d be 79 76 a4 3d 59 2b 7e 3e
       -0.3092924 -0.16946967 0.08030409 0.24821223
000380 77 85 b9 bd 63 95 69 3e cf 7f db 3d b1 af 95 bb
       -0.090586595 0.22810893 0.10717737 -0.004568063
000390 2f e4 6c bd ac 10 e6 3d f9 81 68 be 60 2a 83 bd
       -0.0578348 0.11233649 -0.2270583 -0.06404567
0003a0 47 a5 29 3e cc 26 86 3e d5 58 9c 3e 1e 0b 67 be
       0.16566955 0.26201475 0.30536523 -0.22562835
0003b0 b7 62 b0 3c fc 0f 1d 3e 61 f5 fa 3b fc c8 bf bd
       0.021531446 0.15338129 0.007658646 -0.093645066
0003c0 93 99 8f 3d 80 be a4 bc ea c5 c8 3d 6d 6e 69 bd
       0.07011714 -0.020110369 0.09803374 -0.056990076
0003d0 27 08 79 bd 3e d0 f5 3d 71 d8 06 3c 01 7e 96 3d
       -0.06079879 0.1200261 0.008230315 0.07348252
0003e0 36 15 f5 bd c3 a4 60 bd bb 7c 9f bd 48 ca 3a 3d
       -0.11966936 -0.05484463 -0.07787462 0.045603067
0003f0 8f 67 e9 bd 52 6f c7 bc 59 b2 9b bc ee f8 31 3e
       -0.11396705 -0.024345074 -0.019005941 0.17380115

proj.bias f4 [192]
000000 17 61 f6 bd 32 ba 1d 3e 3a 84 0f be 34 1a d1 bd
       -0.12030237 0.15403059 -0.14015284 -0.10210076
000010 b4 91 23 3e ac 78 15 be 3f ac 13 bd a2 87 10 3e
       0.1597355 -0.14596814 -0.03605294 0.1411424
000020 2b 51 fd bd bc 13 36 bd c0 d6 bd 3d c8 50 57 bd
       -0.12368997 -0.044452414 0.09269476 -0.052567273
000030 c4 9b 05 bd bd 1f a6 3d 0b 75 8c bd af 47 e8 bc
       -0.032619253 0.08111522 -0.06858262 -0.028354494
000040 94 a7 fe 3d a6 25 f4 bd 0a a9 c0 bd 52 7b 26 3e
       0.12434307 -0.11921243 -0.09407242 0.1625798
000050 6d 4f 1d be 46 66 b4 bd 97 47 29 3e 63 92 43 be
       -0.1536233 -0.088085696 0.16531216 -0.19098811
000060 7d 21 12 be ab 55 20 3e 25 1e c7 bd ef 06 45 bd
       -0.14270587 0.1565768 -0.097225465 -0.048102316
000070 ba e3 91 3d 90 19 a0 bd 9c dc ee 3d 57 38 b0 be
       0.071235135 -0.07817376 0.11663172 -0.34417984
000080 78 d7 4f 3d ca 1f 2b 3e 74 df e5 be bc 99 1e 3d
       0.050742596 0.16711345 -0.44897044 0.03872083
000090 ca be bb 3d ea 4c cd be 14 9f fc 3d 73 e5 90 3b
       0.091672495 -0.40097743 0.12335029 0.0044218837
0000a0 de b6 12 be c5 7d 8e 3d bd 80 89 bd 06 69 dc 3d
       -0.14327571 0.069575824 -0.06714008 0.10762219
0000b0 fc 20 e8 bd 7b a7 96 bd 3b ab 21 3e be ff 33 be
       -0.11334416 -0.07356163 0.15787975 -0.17578027
0000c0 ed 79 78 bd a2 57 aa 3d 7c 4c 44 bd fc 87 b6 3d
       -0.060663152 0.08317496 -0.047924504 0.08912656
0000d0 20 df a4 be c3 03 7f 3d b0 06 a5 3d 84 38 95 be
       -0.3220148 0.062259447 0.08057916 -0.2914468
0000e0 f7 cd 3e 3e 39 37 8a 3d fa e0 ab be f0 b7 58 3e
       0.18633257 0.06748814 -0.3357008 0.21163917
0000f0 92 e3 28 3e b0 f2 86 be 87 0a ac 3d 8b e4 09 3e
       0.16493061 -0.2635703 0.084004454 0.13466088
000100 f8 f9 c8 be 6f a6 0d 3e 64 05 ca 3c 89 d1 50 be
       -0.3925321 0.1383302 0.024660774 -0.20392431
000110 b8 cd 7b 3d aa 61 85 bc 5f 1f 1f 3e 49 18 22 be
       0.061475486 -0.016281921 0.15539311 -0.15829577
000120 47 52 cc bc cd 7d dc 3d a2 64 bb bd b0 b5 19 3e
       -0.024941577 0.10766182 -0.091500536 0.15010715
000130 12 bb d8 be 34 f8 13 3d 8b 0b a5 3d bc 48 c3 be
       -0.42330223 0.036125377 0.08058842 -0.3814143
000140 12 e6 80 3e b3 14 01 3e 35 a6 58 be 3a 30 f5 3d
       0.2517553 0.12605552 -0.21157153 0.11972089
000150 36 80 f6 3d 21 03 55 be 83 c4 06 3e c1 38 58 3e
       0.12036173 -0.20801975 0.13160901 0.211154
000160 4d 0b 8f be 96 12 59 3d 81 86 08 3e 0c d2 a6 be
       -0.2793831 0.05299624 0.13332559 -0.32582128
000170 53 12 5d 3c ec 53 ff 3c a7 64 dd 3d 71 d0 16 be
       0.013493138 0.031167947 0.108102135 -0.14727952
000180 49 69 50 bd 03 e0 a9 3d fe 9e 4c bd 7f 8d c6 3d
       -0.050881658 0.0829468 -0.049956314 0.09694957
000190 4d f6 e4 be 9e 4e e1 3d aa 8b 3b 3e 86 f3 86 be
       -0.44719163 0.11001323 0.18314996 -0.2635767
0001a0 1c 64 97 3d e6 33 17 3e a5 30 54 be 77 6a ce 3d
       0.07392141 0.14765891 -0.20721681 0.100789
0001b0 26 89 ef 3d f7 77 51 be 09 89 07 3e f5 1f 11 3e
       0.11696081 -0.20455919 0.13235869 0.14172347
0001c0 01 ed b0 be 2f 4a 2c 3e dc 37 2f 3e 23 d9 da be
       -0.3455582 0.16825174 0.17111152 -0.42743787
0001d0 27 18 62 3c 17 2d eb 3c a3 ff f3 3d 37 4e 25 be
       0.013799704 0.028708024 0.11913993 -0.16143118
0001e0 9f e3 dc bd c2 7c 36 3e 20 2c c0 bd 87 89 f9 3b
       -0.10785603 0.17821029 -0.09383416 0.0076152715
0001f0 5c 6a 86 bd 20 1b b6 3b a8 cb d6 3d d1 1e a9 be
       -0.06563255 0.005557433 0.10488063 -0.33031324
000200 e6 76 14 3e f0 18 34 3e 98 49 8a be d8 32 c0 3d
       0.14498481 0.17587638 -0.27009273 0.09384698
000210 9b de ef 3d 26 ed b3 be 58 a3 4a 3e 44 b0 df 3d
       0.117123805 -0.35141867 0.19788873 0.10922292
000220 a1 fd a7 be 41 a8 25 3e ac 1e 82 3d ab 28 ba be
       -0.3281069 0.16177465 0.063535064 -0.36359152
000230 76 9a a8 3d cf 45 c8 bc df a4 0f 3e c6 fb 10 be
       0.08232586 -0.02444735 0.14027737 -0.14158544
000240 ad 17 d3 bd 36 fe 30 3e 17 7b 26 be 01 5d a0 bd
       -0.1030725 0.17284474 -0.16257893 -0.07830239
000250 8a ba d0 3d 65 99 bd bd f2 c1 e1 3b 70 52 c9 be
       0.101918295 -0.09257773 0.006889575 -0.39320707
000260 a7 2e 0e 3e e1 cd 8c 3d 51 43 cc be 63 53 e4 3d
       0.13884984 0.06875206 -0.39895108 0.11148717
000270 17 dd e3 3d 9e 67 96 be 56 95 b7 3c 7c ef 03 bc
       0.11126154 -0.2937593 0.022410076 -0.008052703
000280 0b 3f 09 be 53 65 66 3d b3 46 be bd 39 b1 97 3d
       -0.13402955 0.056248974 -0.092908286 0.074068494
000290 55 af 2e bd be e0 39 bd 41 76 17 3e d0 b8 3f be
       -0.04264768 -0.045380346 0.14791204 -0.18722844
0002a0 99 98 18 be d6 6c 30 3e 5b 1b 10 be 96 45 cc bd
       -0.14901961 0.17229018 -0.14072935 -0.0997421
0002b0 c3 f0 47 3e 97 d7 38 be 86 e4 be bd 87 dc 3b 3e
       0.19525437 -0.18050991 -0.09320931 0.18345843
0002c0 00 55 db bd 0f 00 97 bd 40 05 16 3e 92 37 bb bd
       -0.10709572 -0.07373058 0.1465044 -0.091414586
0002d0 91 48 50 bd 1c 36 d4 3d 14 02 92 bd cc dc b2 bd
       -0.050850455 0.10361883 -0.071293026 -0.0873352
0002e0 29 b7 12 3e f1 bb a1 bd 09 5a 00 be 4e 5a 24 3e
       0.14327683 -0.07897175 -0.12534346 0.16050074
0002f0 71 bb ea bd c9 89 07 be 76 7d 10 3e cc 58 d6 bd
       -0.11461533 -0.13236155 0.1411036 -0.104661554
