EWOthello/ckpts/Dean_GPTv2_Synthetic_4L1H/linearProbe_Map_New_4L1H_GPT_Layer1.ckpt (torch, 395287 bytes, 2 tensors)

proj.weight f4 [192, 512]
0	0xbea22245	-0.3166677
1	0xbc7e882e	-0.015535397
2	0x3eb6294c	0.35578382
3	0x3eba6d61	0.36411574
4	0x3e4f1593	0.20223074
5	0xbf0e39f6	-0.5555719
6	0x3e525625	0.20540674
7	0xbe3e7c8e	-0.18602201
8	0xbe9cc28d	-0.3061718
9	0x3d987bbb	0.07445475
10	0xbe756e37	-0.23967825
11	0x3e1fa370	0.1558969
12	0xbed60c90	-0.4180646
13	0xbed5ceb3	-0.4175926
14	0xbd367e94	-0.044554308
15	0x3e2ffb80	0.17185783
16	0x3e1d00df	0.15332364
17	0xbe6e49b2	-0.232703
18	0x3e135c1b	0.14390604
19	0x3e81192e	0.25214523
20	0xbdddc099	-0.10827751
21	0x3e03039e	0.12794349
22	0xbe18747e	-0.14888188
23	0x3e82f10c	0.2557453
24	0xbef665de	-0.48124593
25	0xbd0d63af	-0.034518894
26	0xbf2ea2cc	-0.6821716
27	0xbe717cf4	-0.23582822
28	0x3e6250e5	0.22101171
29	0xbe0621de	-0.13098857
30	0xbd8933d6	-0.0669934
31	0xbf341bc5	-0.7035487
32	0x3e6d790a	0.23190704
33	0x3f4bff82	0.7968675
34	0x3f0a158a	0.53939116
35	0x3caf852c	0.021425806
36	0x3da14705	0.07874874
37	0xbe08068a	-0.13283744
38	0xbeb3884f	-0.35064933
39	0xbe770043	-0.24121194
40	0xbd72fed4	-0.059325054
41	0xbe186561	-0.14882423
42	0x3d993e46	0.07482581
43	0xbe9a7fe3	-0.30175695
44	0x3e1bfdb5	0.152335
45	0x3df07112	0.117403165
46	0xbe2898fd	-0.1646461
47	0xbe709e0b	-0.23497789
48	0xbf0e3df8	-0.55563307
49	0xbe415a36	-0.18882069
50	0x3ed9fdd6	0.42576474
51	0x3e987ce9	0.297828
52	0x3ca24491	0.019808086
53	0xbe786ac0	-0.24259472
54	0xbd9ec94e	-0.077532396
55	0x3e156c7e	0.14592168
56	0x3d930e52	0.07180466
57	0x3e61d569	0.22054066
58	0xbea32c49	-0.31869724
59	0x3d45bff6	0.04827877
60	0x3e063aaa	0.13108316
61	0xbecb58fa	-0.3971632
62	0xbdcf9a2a	-0.10136826
63	0x3f1164c1	0.56794363
64	0xbd3b2707	-0.045691516
65	0x3e121ae8	0.14268076
66	0x3dc2dbce	0.09514581
67	0xbed76479	-0.42068842
68	0x3f05dab2	0.5228683
69	0xbeb67c4f	-0.35641715
70	0x3e0df229	0.13861908
71	0x3e9acdde	0.3023519
72	0x3d886c6a	0.06661303
73	0xbe8f4934	-0.27985537
74	0x3e919f8b	0.28442034
75	0x3e1f8d3f	0.15581225
76	0xbe36989d	-0.17831655
77	0xbe11532d	-0.14191885
78	0x3da8745a	0.08225317
79	0x3ebbff22	0.36718088
80	0xbeb829bd	-0.35969344
81	0xbf0a0163	-0.53908366
82	0xbebee0f6	-0.37281007
83	0xbe5f4cd9	-0.21806659
84	0x3db1307c	0.08651826
85	0x3e5e55bf	0.21712397
86	0xbde0f256	-0.10983722
87	0xbced6bcf	-0.028982071
88	0x3ea0aaea	0.31380397
89	0xbe1b3f22	-0.15160802
90	0xbee67979	-0.4501455
91	0xbc9b72f8	-0.01897572
92	0xbecdf4dd	-0.40225878
93	0x3dfe1deb	0.1240805
94	0x3eac599d	0.3366212
95	0x3e82efd0	0.25573587
96	0x3f2a80ac	0.6660259
97	0x3c582c07	0.013194091
98	0x3dacf372	0.08444871
99	0x3e694880	0.22781563
100	0x3e8af76c	0.27141893
101	0xbeea9e21	-0.45823768
102	0xbe2f752d	-0.17134543
103	0x3ecf11f6	0.4044339
104	0xbea79c76	-0.32736558
105	0xbee93473	-0.45547828
106	0x3e1903bc	0.14942831
107	0xbf0b6e34	-0.5446503
108	0x3e63ea63	0.2225738
109	0x3eca1ff3	0.394775
110	0xbe8805a3	-0.265668
111	0x3e601e24	0.21886498
112	0xbe136308	-0.14393246
113	0xbda7da6b	-0.08195957
114	0x3e684814	0.22683746
115	0x3e705be9	0.23472561
116	0xbecf4481	-0.40481952
117	0xbefa3e01	-0.4887543
118	0xbeee93e4	-0.46597207
119	0x3ea823a2	0.32839686
120	0x3c3eb461	0.011639685
121	0x3f00e160	0.50343895
122	0x3e6adb88	0.22935307
123	0xbd2cb9b1	-0.042169277
124	0x3e07956a	0.1324059
125	0xbdd07f6b	-0.10180553
126	0xbe69b849	-0.22824205
127	0xbf28cacf	-0.6593446
128	0xbecc04f5	-0.39847532
129	0x3ec43563	0.3832198
130	0xbe8f66e2	-0.2800818
131	0xbef05b60	-0.46944714
132	0x3d885037	0.06655925
133	0xbee009d3	-0.43757495
134	0xbe122548	-0.14272034
135	0xbe208b9e	-0.1567826
136	0x3e23f257	0.16010414
137	0x3e227365	0.15864332
138	0x3ea8f59c	0.32999885
139	0xbe38fa5b	-0.18064253
140	0xbe6002f7	-0.21876131
141	0xbe802504	-0.2502824
142	0xbe2c8464	-0.16847378
143	0xbee68cb0	-0.4502921
144	0x3e995d89	0.29954174
145	0xbc228b62	-0.009920927
146	0xbdddb8c2	-0.108262554
147	0xbcea7c45	-0.02862371
148	0xbd5bfc81	-0.053707603
149	0x3e4084db	0.1880068
150	0x3d04bb35	0.032405097
151	0x3cc540ea	0.024078805
152	0xbf262e1a	-0.64914095
153	0xbba7a5eb	-0.0051162145
154	0x3ebfe778	0.37481284
155	0xbdeb94b8	-0.11502975
156	0xbe3d3884	-0.1847859
157	0xbdd41148	-0.10354859
158	0x3d1d1fec	0.03836052
159	0x3ece7044	0.40320027
160	0x3e8d1705	0.27556625
161	0xbd597ea3	-0.053099286
162	0x3dea76f9	0.114484735
163	0xbf22d878	-0.63611555
164	0xbda922d2	-0.082585946
165	0xbd6f3a5d	-0.05840527
166	0xbed93dc0	-0.42429924
167	0xbe96c4cd	-0.29447022
168	0xbd285429	-0.041095886
169	0xbd2102cc	-0.039309308
170	0xbe429544	-0.19002253
171	0x3e6b5f3c	0.22985548
172	0x3e956825	0.29181018
173	0xbde34801	-0.11097718
174	0xbed8982e	-0.42303604
175	0x3ed9c481	0.42532733
176	0xbf3a5002	-0.7277833
177	0x3ddc50c0	0.10757589
178	0xbd733acc	-0.059382245
179	0x3ed75b0c	0.4206165
180	0xbecc4f44	-0.39904225
181	0x3f2da210	0.6782541
182	0x3d8777b5	0.06614629
183	0x3e5f5142	0.21808341
184	0x3e52f7f1	0.20602395
185	0xbdfdebd3	-0.123984955
186	0xbe93bfb2	-0.2885719
187	0x3e918775	0.28423658
188	0x3f06b3e3	0.52618235
189	0x3f1abbe3	0.6044294
190	0xbd7a748c	-0.061146304
191	0xbcafcbeb	-0.02145954
192	0xbe8d56b5	-0.27605215
193	0xbeb8da19	-0.36103895
194	0xbd841ad8	-0.064504325
195	0x3ef676a7	0.481374
196	0x3da3754d	0.07981358
197	0xbf1f3919	-0.621965
198	0x3f127ece	0.5722474
199	0xbf4d441e	-0.80182064
200	0x3f30b962	0.6903287
201	0xbe9537e7	-0.29144213
202	0xbee18dff	-0.44053647
203	0xbe979ebe	-0.29613298
204	0x3f129cdb	0.5727059
205	0x3c292b96	0.010325333
206	0x3e696722	0.22793248
207	0x3f3f445c	0.74713683
208	0xbf25fb3d	-0.64836484
209	0x3e74be6d	0.23900767
210	0xbec54561	-0.38529494
211	0xbcffeeff	-0.031241892
212	0xbd58bf20	-0.052916646
213	0x3f44942e	0.76788604
214	0xbee003f6	-0.43753022
215	0x3f012752	0.50450623
216	0xbe834061	-0.25635055
217	0xbce4b5d0	-0.027918726
218	0x3e68d776	0.22738442
219	0xbddbac4a	-0.10726221
220	0x3ed04337	0.4067628
221	0xbf74e4b5	-0.9566148
222	0x3dc61392	0.096717015
223	0xbe4203df	-0.18946789
224	0x3e15a46b	0.14613502
225	0xbddb65c4	-0.1071277
226	0x3d363b84	0.044490352
227	0xbe31149f	-0.17293023
228	0x3e3c151f	0.18367432
229	0xbe89be17	-0.2690284
230	0x3ecfdfe4	0.40600502
231	0x3e050eae	0.12993881
232	0xbd867d6d	-0.06566892
233	0xbeb389fd	-0.35066214
234	0xbe51ba4b	-0.20481221
235	0x3ec9235f	0.39284799
236	0x3e2302cc	0.15919036
237	0x3ebb12ee	0.3653788
238	0x3ece5056	0.40295666
239	0x3e8a836f	0.270534
240	0xbe1b6761	-0.15176155
241	0x3f2157a5	0.6302436
242	0x3eff3323	0.49843702
243	0x3e1b3e69	0.15160526
244	0xbbfd0fa7	-0.007722813
245	0x3d466dad	0.04844444
246	0xbe434ff6	-0.19073471
247	0xbe00f6ab	-0.12594096
248	0x3ed16828	0.40899777
249	0xbe30869a	-0.17238846
250	0xbd96ef22	-0.0736983
251	0x3e944963	0.2896224
252	0x3df70b89	0.12062747
253	0xbdc102b2	-0.09424342
254	0x3e95d1dd	0.29261675
255	0xbde4a352	-0.111639634

proj.bias f4 [192]
0	0xbe28ea12	-0.1649554
1	0x3e492b90	0.19645524
2	0xbe6c4c24	-0.2307592
3	0xbdfabb35	-0.12242738
4	0x3e2fe4d7	0.17177139
5	0xbe613ab0	-0.21995044
6	0xbdc5703f	-0.0964055
7	0x3e0218de	0.12704799
8	0xbe2bd9d7	-0.16782318
9	0xbe0e5927	-0.13901196
10	0x3e29dc3f	0.16587923
11	0xbe3ffda9	-0.18749107
12	0xbe152d42	-0.14568046
13	0x3e116758	0.14199579
14	0xbe0b0bd5	-0.13578732
15	0xbdb53f76	-0.08849995
16	0x3e1d47cd	0.15359421
17	0xbe55b726	-0.20870647
18	0xbdedfa25	-0.11619977
19	0x3e2896d5	0.16463788
20	0xbe551bad	-0.20811339
21	0xbe11bc9c	-0.14232105
22	0x3e42fd17	0.19041859
23	0xbe6fbbaa	-0.23411432
24	0xbd9ac6f1	-0.07557476
25	0x3e2cc31e	0.16871306
26	0xbe742dbf	-0.23845576
27	0xbe0a8498	-0.13527143
28	0x3dda8736	0.10670321
29	0xbd3c4368	-0.04596272
30	0xbca3afb1	-0.019981237
31	0xbae37b0e	-0.0017355399
32	0x3b674d24	0.0035293782
33	0x3c5d4761	0.013505788
34	0xbd990678	-0.07471937
35	0x3db7e50b	0.08979233
36	0xbc830644	-0.015994199
37	0xba046472	-0.0005050368
38	0x3bbfbd03	0.0058513894
39	0xbb77e958	-0.0037828293
40	0x3cf8aa53	0.030354654
41	0xbda2c930	-0.0794853
42	0xbd2c7b04	-0.042109504
43	0x3dbeb8d6	0.093125984
44	0xbe1bdc9a	-0.15220872
45	0xbdcbc4f5	-0.09949676
46	0x3e1d7621	0.15377094
47	0xbe48dfe2	-0.19616655
48	0xbde99308	-0.11404997
49	0x3e1d2910	0.15347695
50	0xbe469757	-0.19393669
51	0xbd890504	-0.0669041
52	0x3ccb8643	0.024844294
53	0x3c121a70	0.008917436
54	0x3ea43ea3	0.32079038
55	0xbe8c3107	-0.27381155
56	0x3dfea58e	0.12433921
57	0x3ea73684	0.3265878
58	0xbe97bb4d	-0.29635087
59	0x3e62de22	0.2215505
60	0x3ec13fc3	0.3774396
61	0xbe94091b	-0.28913197
62	0x3e394dd6	0.18096098
63	0x3dae9c79	0.085259385
64	0xbec57cdc	-0.38571823
65	0x3e9803bd	0.29690352
66	0x3c77739b	0.015103246
67	0x3c40da25	0.01177076
68	0xbd7cb1b7	-0.06169292
69	0xbdec1529	-0.115274735
70	0x3e1870fe	0.14886853
71	0xbe3e9adf	-0.18613766
72	0xbe0d4b00	-0.13798141
73	0x3e0a62ec	0.13514298
74	0xbe004152	-0.12524918
75	0xbc0b820f	-0.008514895
76	0xbd9c2c2e	-0.07625614
77	0x3e443d79	0.19164075
78	0x3e75aec0	0.23992443
79	0xbe68fe96	-0.22753367
80	0x3e3e11b1	0.18561436
81	0x3e2014fe	0.15633008
82	0xbe28f492	-0.16499546
83	0x3e29e3f3	0.16590862
84	0x3e0d1d86	0.13780794
85	0xbe2ac865	-0.16678007
86	0x3e376b29	0.17911972
87	0x3eb3187a	0.34979612
88	0xbea01879	-0.3126867
89	0x3e41a928	0.18912184
90	0xbd5137e4	-0.051078692
91	0xbc040736	-0.00805836
92	0x3d6cecc8	0.057843
93	0xbe1688e2	-0.14700654
94	0x3e16bf51	0.14721419
95	0xbe1234f0	-0.14278007
96	0xbe17ca4b	-0.14823262
97	0x3e0f5686	0.1399785
98	0xbe04282c	-0.1290595
99	0x3c1c5b8b	0.00954331
100	0xbcc2fcc6	-0.023802172
101	0x387f17da	6.081895e-05
102	0x3e271645	0.16317089
103	0xbe696b6a	-0.22794881
104	0x3e62bed4	0.22143108
105	0x3e2c98da	0.16855183
106	0xbe265e81	-0.16246988
107	0x3e1cfbe6	0.15330467
108	0x3e2ec791	0.17068316
109	0xbe2bcd2e	-0.16777489
110	0x3e26b38f	0.16279434
111	0x3e76351d	0.24043699
112	0xbe5e9c95	-0.21739419
113	0x3e3e369e	0.18575522
114	0x3dd4cd30	0.10390699
115	0xbe53709d	-0.20648427
116	0x3dae3e23	0.085079454
117	0xbdf3825c	-0.118900985
118	0x3e1d72a5	0.15375765
119	0xbe46c136	-0.19409642
120	0xbdb3a932	-0.08772506
121	0x3e0ea5ce	0.13930437
122	0xbe4919f9	-0.19638814
123	0xbd5193d5	-0.051166374
124	0x3ce18d66	0.027533244
125	0xbc6d9908	-0.0145018175
126	0x3e83b23e	0.25721925
127	0xbee9240b	-0.4553531
128	0x3e97d376	0.2965352
129	0x3e901273	0.28139076
130	0xbe8d6c6a	-0.27621776
131	0x3e40813d	0.187993
132	0x3e9c3f2e	0.30516952
133	0xbe8e21ef	-0.27760264
134	0x3e5ac21a	0.21363106
135	0x3ea3bbef	0.3197932
136	0xbeac5c29	-0.33664063
137	0x3e68b4da	0.2272524
138	0xbcd4ea91	-0.025990756
139	0x3cb9a600	0.022662163
140	0xbce8ae5e	-0.028403457
141	0xbdb7f634	-0.089825064
142	0x3e0a8dcc	0.13530654
143	0xbe39fbd2	-0.18162468
144	0xbde43654	-0.11143175
145	0x3e2583bc	0.16163534
146	0xbe61707c	-0.22015566
147	0xbdbeb545	-0.09311918
148	0x3de410d4	0.11136022
149	0xbe02e8ff	-0.12784193
150	0xbce03e71	-0.027373524
151	0xbbe17604	-0.0068805236
152	0x3da04b0d	0.07826815
153	0x3cf8035f	0.030275045
154	0xbdb33a0d	-0.08751307
155	0x3e15d85d	0.14633317
156	0x3d36c2cf	0.044619378
157	0xbe3f6ffa	-0.1869506
158	0x3e36b629	0.17842926
159	0xbdb0ae80	-0.08627033
160	0x3d4006e0	0.046881557
161	0x3d36606a	0.04452554
162	0xbd866048	-0.06561333
163	0x3da35692	0.07975496
164	0xbdc03963	-0.09385946
165	0xbdc2626e	-0.0949143
166	0x3e229b3f	0.15879534
167	0xbe572823	-0.21011405
168	0xbe1bdf47	-0.15221892
169	0x3e2f98e7	0.17148171
170	0xbe42d80d	-0.1902773
171	0xbe2d4d4f	-0.16924022
172	0x3e264adc	0.16239494
173	0xbe1fed4d	-0.15617867
174	0xbdf85875	-0.12126247
175	0x3e162c10	0.14665246
176	0xbe332bbf	-0.17497157
177	0xbdf87b73	-0.12132921
178	0x3e1e3b7c	0.15452379
179	0xbe3fa433	-0.18714981
180	0xbe2469a4	-0.16055924
181	0x3e1f7a4c	0.15573996
182	0xbe15f047	-0.1464244
183	0xbe1b9363	-0.15192942
184	0x3e1f7db0	0.1557529
185	0xbe211e48	-0.15734208
186	0xbdd8fb30	-0.10594785
187	0x3e2465b4	0.16054422
188	0xbe582e49	-0.21111406
189	0xbe08639f	-0.13319252
190	0x3e31aa32	0.1735008
191	0xbe5d86cd	-0.21633454
